…
snapshot_prefix: "vgg16_faster_rcnn"
average_loss: 100
iter_size: 2
I0117 15:13:26.276057 42184 solver.cpp:92] Creating training net from train_net file: models/pascal_voc/VGG16/faster_rcnn_end2end/train.prototxt
I0117 15:13:26.293578 42184 net.cpp:53] Initializing net from parameters: 
name: "VGG_ILSVRC_16_layers"
state {
  phase: TRAIN
}
layer {
  name: "input-data"
  type: "Python"
  top: "data"
  top: "im_info"
  top: "gt_boxes"
  python_param {
    module: "roi_data_layer.layer"
    layer: "RoIDataLayer"
    param_str: "\'num_classes\': 9"
  }
}
layer {
  name: "conv1_1"
  type: "Convolution"
  bottom: "data"
  top: "conv1_1"
  param {
    lr_mult: 0
    decay_mult: 0
  }
  param {
    lr_mult: 0
    decay_mult: 0
  }
  convolution_param {
    num_output: 64
    pad: 1
    kernel_size: 3
  }
}
layer {
  name: "relu1_1"
  type: "ReLU"
  bottom: "conv1_1"
  top: "conv1_1"
}
layer {
  name: "conv1_2"
  type: "Convolution"
  bottom: "conv1_1"
  top: "conv1_2"
  param {
    lr_mult: 0
    decay_mult: 0
  }
  param {
    lr_mult: 0
    decay_mult: 0
  }
  convolution_param {
    num_output: 64
    pad: 1
    kernel_size: 3
  }
}
layer {
  name: "relu1_2"
  type: "ReLU"
  bottom: "conv1_2"
  top: "conv1_2"
}
layer {
  name: "pool1"
  type: "Pooling"
  bottom: "conv1_2"
  top: "pool1"
  pooling_param {
    pool: MAX
    kernel_size: 2
    stride: 2
  }
}
layer {
  name: "conv2_1"
  type: "Convolution"
  bottom: "pool1"
  top: "conv2_1"
  param {
    lr_mult: 0
    decay_mult: 0
  }
  param {
    lr_mult: 0
    decay_mult: 0
  }
  convolution_param {
    num_output: 128
    pad: 1
    kernel_size: 3
  }
}
layer {
  name: "relu2_1"
  type: "ReLU"
  bottom: "conv2_1"
  top: "conv2_1"
}
layer {
  name: "conv2_2"
  type: "Convolution"
  bottom: "conv2_1"
  top: "conv2_2"
  param {
    lr_mult: 0
    decay_mult: 0
  }
  param {
    lr_mult: 0
    decay_mult: 0
  }
  convolution_param {
    num_output: 128
    pad: 1
    kernel_size: 3
  }
}
layer {
  name: "relu2_2"
  type: "ReLU"
  bottom: "conv2_2"
  top: "conv2_2"
}
layer {
  name: "pool2"
  type: "Pooling"
  bottom: "conv2_2"
  top: "pool2"
  pooling_param {
    pool: MAX
    kernel_size: 2
    stride: 2
  }
}
layer {
  name: "conv3_1"
  type: "Convolution"
  bottom: "pool2"
  top: "conv3_1"
  param {
    lr_mult: 1
  }
  param {
    lr_mult: 2
  }
  convolution_param {
    num_output: 256
    pad: 1
    kernel_size: 3
  }
}
layer {
  name: "relu3_1"
  type: "ReLU"
  bottom: "conv3_1"
  top: "conv3_1"
}
layer {
  name: "conv3_2"
  type: "Convolution"
  bottom: "conv3_1"
  top: "conv3_2"
  param {
    lr_mult: 1
  }
  param {
    lr_mult: 2
  }
  convolution_param {
    num_output: 256
    pad: 1
    kernel_size: 3
  }
}
layer {
  name: "relu3_2"
  type: "ReLU"
  bottom: "conv3_2"
  top: "conv3_2"
}
layer {
  name: "conv3_3"
  type: "Convolution"
  bottom: "conv3_2"
  top: "conv3_3"
  param {
    lr_mult: 1
  }
  param {
    lr_mult: 2
  }
  convolution_param {
    num_output: 256
    pad: 1
    kernel_size: 3
  }
}
layer {
  name: "relu3_3"
  type: "ReLU"
  bottom: "conv3_3"
  top: "conv3_3"
}
layer {
  name: "pool3"
  type: "Pooling"
  bottom: "conv3_3"
  top: "pool3"
  pooling_param {
    pool: MAX
    kernel_size: 2
    stride: 2
  }
}
layer {
  name: "conv4_1"
  type: "Convolution"
  bottom: "pool3"
  top: "conv4_1"
  param {
    lr_mult: 1
  }
  param {
    lr_mult: 2
  }
  convolution_param {
    num_output: 512
    pad: 1
    kernel_size: 3
  }
}
layer {
  name: "relu4_1"
  type: "ReLU"
  bottom: "conv4_1"
  top: "conv4_1"
}
layer {
  name: "conv4_2"
  type: "Convolution"
  bottom: "conv4_1"
  top: "conv4_2"
  param {
    lr_mult: 1
  }
  param {
    lr_mult: 2
  }
  convolution_param {
    num_output: 512
    pad: 1
    kernel_size: 3
  }
}
layer {
  name: "relu4_2"
  type: "ReLU"
  bottom: "conv4_2"
  top: "conv4_2"
}
layer {
  name: "conv4_3"
  type: "Convolution"
  bottom: "conv4_2"
  top: "conv4_3"
  param {
    lr_mult: 1
  }
  param {
    lr_mult: 2
  }
  convolution_param {
    num_output: 512
    pad: 1
    kernel_size: 3
  }
}
layer {
  name: "relu4_3"
  type: "ReLU"
  bottom: "conv4_3"
  top: "conv4_3"
}
layer {
  name: "pool4"
  type: "Pooling"
  bottom: "conv4_3"
  top: "pool4"
  pooling_param {
    pool: MAX
    kernel_size: 2
    stride: 2
  }
}
layer {
  name: "conv5_1"
  type: "Convolution"
  bottom: "pool4"
  top: "conv5_1"
  param {
    lr_mult: 1
  }
  param {
    lr_mult: 2
  }
  convolution_param {
    num_output: 512
    pad: 1
    kernel_size: 3
  }
}
layer {
  name: "relu5_1"
  type: "ReLU"
  bottom: "conv5_1"
  top: "conv5_1"
}
layer {
  name: "conv5_2"
  type: "Convolution"
  bottom: "conv5_1"
  top: "conv5_2"
  param {
    lr_mult: 1
  }
  param {
    lr_mult: 2
  }
  convolution_param {
    num_output: 512
    pad: 1
    kernel_size: 3
  }
}
layer {
  name: "relu5_2"
  type: "ReLU"
  bottom: "conv5_2"
  top: "conv5_2"
}
layer {
  name: "conv5_3"
  type: "Convolution"
  bottom: "conv5_2"
  top: "conv5_3"
  param {
    lr_mult: 1
  }
  param {
    lr_mult: 2
  }
  convolution_param {
    num_output: 512
    pad: 1
    kernel_size: 3
  }
}
layer {
  name: "relu5_3"
  type: "ReLU"
  bottom: "conv5_3"
  top: "conv5_3"
}
layer {
  name: "rpn_conv/3x3"
  type: "Convolution"
  bottom: "conv5_3"
  top: "rpn/output"
  param {
    lr_mult: 1
  }
  param {
    lr_mult: 2
  }
  convolution_param {
    num_output: 512
    pad: 1
    kernel_size: 3
    stride: 1
    weight_filler {
      type: "gaussian"
      std: 0.01
    }
    bias_filler {
      type: "constant"
      value: 0
    }
  }
}
layer {
  name: "rpn_relu/3x3"
  type: "ReLU"
  bottom: "rpn/output"
  top: "rpn/output"
}
layer {
  name: "rpn_cls_score"
  type: "Convolution"
  bottom: "rpn/output"
  top: "rpn_cls_score"
  param {
    lr_mult: 1
  }
  param {
    lr_mult: 2
  }
  convolution_param {
    num_output: 18
    pad: 0
    kernel_size: 1
    stride: 1
    weight_filler {
      type: "gaussian"
      std: 0.01
    }
    bias_filler {
      type: "constant"
      value: 0
    }
  }
}
layer {
  name: "rpn_bbox_pred"
  type: "Convolution"
  bottom: "rpn/output"
  top: "rpn_bbox_pred"
  param {
    lr_mult: 1
  }
  param {
    lr_mult: 2
  }
  convolution_param {
    num_output: 36
    pad: 0
    kernel_size: 1
    stride: 1
    weight_filler {
      type: "gaussian"
      std: 0.01
    }
    bias_filler {
      type: "constant"
      value: 0
    }
  }
}
layer {
  name: "rpn_cls_score_reshape"
  type: "Reshape"
  bottom: "rpn_cls_score"
  top: "rpn_cls_score_reshape"
  reshape_param {
    shape {
      dim: 0
      dim: 2
      dim: -1
      dim: 0
    }
  }
}
layer {
  name: "rpn-data"
  type: "Python"
  bottom: "rpn_cls_score"
  bottom: "gt_boxes"
  bottom: "im_info"
  bottom: "data"
  top: "rpn_labels"
  top: "rpn_bbox_targets"
  top: "rpn_bbox_inside_weights"
  top: "rpn_bbox_outside_weights"
  python_param {
    module: "rpn.anchor_target_layer"
    layer: "AnchorTargetLayer"
    param_str: "\'feat_stride\': 16"
  }
}
layer {
  name: "rpn_loss_cls"
  type: "SoftmaxWithLoss"
  bottom: "rpn_cls_score_reshape"
  bottom: "rpn_labels"
  top: "rpn_cls_loss"
  loss_weight: 1
  propagate_down: true
  propagate_down: false
  loss_param {
    ignore_label: -1
    normalize: true
  }
}
layer {
  name: "rpn_loss_bbox"
  type: "SmoothL1Loss"
  bottom: "rpn_bbox_pred"
  bottom: "rpn_bbox_targets"
  bottom: "rpn_bbox_inside_weights"
  bottom: "rpn_bbox_outside_weights"
  top: "rpn_loss_bbox"
  loss_weight: 1
  smooth_l1_loss_param {
    sigma: 3
  }
}
layer {
  name: "rpn_cls_prob"
  type: "Softmax"
  bottom: "rpn_cls_score_reshape"
  top: "rpn_cls_prob"
}
layer {
  name: "rpn_cls_prob_reshape"
  type: "Reshape"
  bottom: "rpn_cls_prob"
  top: "rpn_cls_prob_reshape"
  reshape_param {
    shape {
      dim: 0
      dim: 18
      dim: -1
      dim: 0
    }
  }
}
layer {
  name: "proposal"
  type: "Python"
  bottom: "rpn_cls_prob_reshape"
  bottom: "rpn_bbox_pred"
  bottom: "im_info"
  top: "rpn_rois"
  python_param {
    module: "rpn.proposal_layer"
    layer: "ProposalLayer"
    param_str: "\'feat_stride\': 16"
  }
}
layer {
  name: "roi-data"
  type: "Python"
  bottom: "rpn_rois"
  bottom: "gt_boxes"
  top: "rois"
  top: "labels"
  top: "bbox_targets"
  top: "bbox_inside_weights"
  top: "bbox_outside_weights"
  python_param {
    module: "rpn.proposal_target_layer"
    layer: "ProposalTargetLayer"
    param_str: "\'num_classes\': 9"
  }
}
layer {
  name: "roi_pool5"
  type: "ROIPooling"
  bottom: "conv5_3"
  bottom: "rois"
  top: "pool5"
  roi_pooling_param {
    pooled_h: 7
    pooled_w: 7
    spatial_scale: 0.0625
  }
}
layer {
  name: "fc6"
  type: "InnerProduct"
  bottom: "pool5"
  top: "fc6"
  param {
    lr_mult: 1
  }
  param {
    lr_mult: 2
  }
  inner_product_param {
    num_output: 4096
  }
}
layer {
  name: "relu6"
  type: "ReLU"
  bottom: "fc6"
  top: "fc6"
}
layer {
  name: "drop6"
  type: "Dropout"
  bottom: "fc6"
  top: "fc6"
  dropout_param {
    dropout_ratio: 0.5
  }
}
layer {
  name: "fc7"
  type: "InnerProduct"
  bottom: "fc6"
  top: "fc7"
  param {
    lr_mult: 1
  }
  param {
    lr_mult: 2
  }
  inner_product_param {
    num_output: 4096
  }
}
layer {
  name: "relu7"
  type: "ReLU"
  bottom: "fc7"
  top: "fc7"
}
layer {
  name: "drop7"
  type: "Dropout"
  bottom: "fc7"
  top: "fc7"
  dropout_param {
    dropout_ratio: 0.5
  }
}
layer {
  name: "cls_score"
  type: "InnerProduct"
  bottom: "fc7"
  top: "cls_score"
  param {
    lr_mult: 1
  }
  param {
    lr_mult: 2
  }
  inner_product_param {
    num_output: 9
    weight_filler {
      type: "gaussian"
      std: 0.01
    }
    bias_filler {
      type: "constant"
      value: 0
    }
  }
}
layer {
  name: "bbox_pred"
  type: "InnerProduct"
  bottom: "fc7"
  top: "bbox_pred"
  param {
    lr_mult: 1
  }
  param {
    lr_mult: 2
  }
  inner_product_param {
    num_output: 36
    weight_filler {
      type: "gaussian"
      std: 0.001
    }
    bias_filler {
      type: "constant"
      value: 0
    }
  }
}
layer {
  name: "loss_cls"
  type: "SoftmaxWithLoss"
  bottom: "cls_score"
  bottom: "labels"
  top: "loss_cls"
  loss_weight: 1
  propagate_down: true
  propagate_down: false
}
layer {
  name: "loss_bbox"
  type: "SmoothL1Loss"
  bottom: "bbox_pred"
  bottom: "bbox_targets"
  bottom: "bbox_inside_weights"
  bottom: "bbox_outside_weights"
  top: "loss_bbox"
  loss_weight: 1
}
I0117 15:13:26.293869 42184 layer_factory.hpp:77] Creating layer input-data
I0117 15:13:26.470106 42184 net.cpp:86] Creating Layer input-data
I0117 15:13:26.470126 42184 net.cpp:382] input-data -> data
I0117 15:13:26.470137 42184 net.cpp:382] input-data -> im_info
I0117 15:13:26.470144 42184 net.cpp:382] input-data -> gt_boxes
RoiDataLayer: name_to_top: {'im_info': 1, 'data': 0, 'gt_boxes': 2}
I0117 15:13:26.472146 42184 net.cpp:124] Setting up input-data
I0117 15:13:26.472159 42184 net.cpp:131] Top shape: 1 3 600 1000 (1800000)
I0117 15:13:26.472163 42184 net.cpp:131] Top shape: 1 3 (3)
I0117 15:13:26.472168 42184 net.cpp:131] Top shape: 1 4 (4)
I0117 15:13:26.472172 42184 net.cpp:139] Memory required for data: 7200028
I0117 15:13:26.472175 42184 layer_factory.hpp:77] Creating layer data_input-data_0_split
I0117 15:13:26.472183 42184 net.cpp:86] Creating Layer data_input-data_0_split
I0117 15:13:26.472198 42184 net.cpp:408] data_input-data_0_split <- data
I0117 15:13:26.472205 42184 net.cpp:382] data_input-data_0_split -> data_input-data_0_split_0
I0117 15:13:26.472213 42184 net.cpp:382] data_input-data_0_split -> data_input-data_0_split_1
I0117 15:13:26.472247 42184 net.cpp:124] Setting up data_input-data_0_split
I0117 15:13:26.472256 42184 net.cpp:131] Top shape: 1 3 600 1000 (1800000)
I0117 15:13:26.472261 42184 net.cpp:131] Top shape: 1 3 600 1000 (1800000)
I0117 15:13:26.472265 42184 net.cpp:139] Memory required for data: 21600028
I0117 15:13:26.472268 42184 layer_factory.hpp:77] Creating layer im_info_input-data_1_split
I0117 15:13:26.472275 42184 net.cpp:86] Creating Layer im_info_input-data_1_split
I0117 15:13:26.472278 42184 net.cpp:408] im_info_input-data_1_split <- im_info
I0117 15:13:26.472283 42184 net.cpp:382] im_info_input-data_1_split -> im_info_input-data_1_split_0
I0117 15:13:26.472292 42184 net.cpp:382] im_info_input-data_1_split -> im_info_input-data_1_split_1
I0117 15:13:26.472326 42184 net.cpp:124] Setting up im_info_input-data_1_split
I0117 15:13:26.472334 42184 net.cpp:131] Top shape: 1 3 (3)
I0117 15:13:26.472338 42184 net.cpp:131] Top shape: 1 3 (3)
I0117 15:13:26.472342 42184 net.cpp:139] Memory required for data: 21600052
I0117 15:13:26.472345 42184 layer_factory.hpp:77] Creating layer gt_boxes_input-data_2_split
I0117 15:13:26.472350 42184 net.cpp:86] Creating Layer gt_boxes_input-data_2_split
I0117 15:13:26.472354 42184 net.cpp:408] gt_boxes_input-data_2_split <- gt_boxes
I0117 15:13:26.472360 42184 net.cpp:382] gt_boxes_input-data_2_split -> gt_boxes_input-data_2_split_0
I0117 15:13:26.472368 42184 net.cpp:382] gt_boxes_input-data_2_split -> gt_boxes_input-data_2_split_1
I0117 15:13:26.472398 42184 net.cpp:124] Setting up gt_boxes_input-data_2_split
I0117 15:13:26.472407 42184 net.cpp:131] Top shape: 1 4 (4)
I0117 15:13:26.472412 42184 net.cpp:131] Top shape: 1 4 (4)
I0117 15:13:26.472415 42184 net.cpp:139] Memory required for data: 21600084
I0117 15:13:26.472421 42184 layer_factory.hpp:77] Creating layer conv1_1
I0117 15:13:26.472434 42184 net.cpp:86] Creating Layer conv1_1
I0117 15:13:26.472440 42184 net.cpp:408] conv1_1 <- data_input-data_0_split_0
I0117 15:13:26.472445 42184 net.cpp:382] conv1_1 -> conv1_1
I0117 15:13:27.467263 42184 net.cpp:124] Setting up conv1_1
I0117 15:13:27.467296 42184 net.cpp:131] Top shape: 1 64 600 1000 (38400000)
I0117 15:13:27.467300 42184 net.cpp:139] Memory required for data: 175200084
I0117 15:13:27.467317 42184 layer_factory.hpp:77] Creating layer relu1_1
I0117 15:13:27.467329 42184 net.cpp:86] Creating Layer relu1_1
I0117 15:13:27.467334 42184 net.cpp:408] relu1_1 <- conv1_1
I0117 15:13:27.467340 42184 net.cpp:369] relu1_1 -> conv1_1 (in-place)
I0117 15:13:27.467700 42184 net.cpp:124] Setting up relu1_1
I0117 15:13:27.467715 42184 net.cpp:131] Top shape: 1 64 600 1000 (38400000)
I0117 15:13:27.467720 42184 net.cpp:139] Memory required for data: 328800084
I0117 15:13:27.467723 42184 layer_factory.hpp:77] Creating layer conv1_2
I0117 15:13:27.467736 42184 net.cpp:86] Creating Layer conv1_2
I0117 15:13:27.467751 42184 net.cpp:408] conv1_2 <- conv1_1
I0117 15:13:27.467772 42184 net.cpp:382] conv1_2 -> conv1_2
I0117 15:13:27.472685 42184 net.cpp:124] Setting up conv1_2
I0117 15:13:27.472702 42184 net.cpp:131] Top shape: 1 64 600 1000 (38400000)
I0117 15:13:27.472707 42184 net.cpp:139] Memory required for data: 482400084
I0117 15:13:27.472714 42184 layer_factory.hpp:77] Creating layer relu1_2
I0117 15:13:27.472721 42184 net.cpp:86] Creating Layer relu1_2
I0117 15:13:27.472724 42184 net.cpp:408] relu1_2 <- conv1_2
I0117 15:13:27.472733 42184 net.cpp:369] relu1_2 -> conv1_2 (in-place)
I0117 15:13:27.473348 42184 net.cpp:124] Setting up relu1_2
I0117 15:13:27.473376 42184 net.cpp:131] Top shape: 1 64 600 1000 (38400000)
I0117 15:13:27.473379 42184 net.cpp:139] Memory required for data: 636000084
I0117 15:13:27.473383 42184 layer_factory.hpp:77] Creating layer pool1
I0117 15:13:27.473394 42184 net.cpp:86] Creating Layer pool1
I0117 15:13:27.473399 42184 net.cpp:408] pool1 <- conv1_2
I0117 15:13:27.473434 42184 net.cpp:382] pool1 -> pool1
I0117 15:13:27.473481 42184 net.cpp:124] Setting up pool1
I0117 15:13:27.473491 42184 net.cpp:131] Top shape: 1 64 300 500 (9600000)
I0117 15:13:27.473495 42184 net.cpp:139] Memory required for data: 674400084
I0117 15:13:27.473498 42184 layer_factory.hpp:77] Creating layer conv2_1
I0117 15:13:27.473508 42184 net.cpp:86] Creating Layer conv2_1
I0117 15:13:27.473515 42184 net.cpp:408] conv2_1 <- pool1
I0117 15:13:27.473520 42184 net.cpp:382] conv2_1 -> conv2_1
I0117 15:13:27.475432 42184 net.cpp:124] Setting up conv2_1
I0117 15:13:27.475447 42184 net.cpp:131] Top shape: 1 128 300 500 (19200000)
I0117 15:13:27.475451 42184 net.cpp:139] Memory required for data: 751200084
I0117 15:13:27.475461 42184 layer_factory.hpp:77] Creating layer relu2_1
I0117 15:13:27.475466 42184 net.cpp:86] Creating Layer relu2_1
I0117 15:13:27.475469 42184 net.cpp:408] relu2_1 <- conv2_1
I0117 15:13:27.475477 42184 net.cpp:369] relu2_1 -> conv2_1 (in-place)
I0117 15:13:27.475855 42184 net.cpp:124] Setting up relu2_1
I0117 15:13:27.475868 42184 net.cpp:131] Top shape: 1 128 300 500 (19200000)
I0117 15:13:27.475872 42184 net.cpp:139] Memory required for data: 828000084
I0117 15:13:27.475875 42184 layer_factory.hpp:77] Creating layer conv2_2
I0117 15:13:27.475884 42184 net.cpp:86] Creating Layer conv2_2
I0117 15:13:27.475888 42184 net.cpp:408] conv2_2 <- conv2_1
I0117 15:13:27.475896 42184 net.cpp:382] conv2_2 -> conv2_2
I0117 15:13:27.480448 42184 net.cpp:124] Setting up conv2_2
I0117 15:13:27.480463 42184 net.cpp:131] Top shape: 1 128 300 500 (19200000)
I0117 15:13:27.480468 42184 net.cpp:139] Memory required for data: 904800084
I0117 15:13:27.480473 42184 layer_factory.hpp:77] Creating layer relu2_2
I0117 15:13:27.480479 42184 net.cpp:86] Creating Layer relu2_2
I0117 15:13:27.480484 42184 net.cpp:408] relu2_2 <- conv2_2
I0117 15:13:27.480489 42184 net.cpp:369] relu2_2 -> conv2_2 (in-place)
I0117 15:13:27.481092 42184 net.cpp:124] Setting up relu2_2
I0117 15:13:27.481108 42184 net.cpp:131] Top shape: 1 128 300 500 (19200000)
I0117 15:13:27.481112 42184 net.cpp:139] Memory required for data: 981600084
I0117 15:13:27.481117 42184 layer_factory.hpp:77] Creating layer pool2
I0117 15:13:27.481128 42184 net.cpp:86] Creating Layer pool2
I0117 15:13:27.481134 42184 net.cpp:408] pool2 <- conv2_2
I0117 15:13:27.481145 42184 net.cpp:382] pool2 -> pool2
I0117 15:13:27.481195 42184 net.cpp:124] Setting up pool2
I0117 15:13:27.481207 42184 net.cpp:131] Top shape: 1 128 150 250 (4800000)
I0117 15:13:27.481210 42184 net.cpp:139] Memory required for data: 1000800084
I0117 15:13:27.481215 42184 layer_factory.hpp:77] Creating layer conv3_1
I0117 15:13:27.481225 42184 net.cpp:86] Creating Layer conv3_1
I0117 15:13:27.481231 42184 net.cpp:408] conv3_1 <- pool2
I0117 15:13:27.481240 42184 net.cpp:382] conv3_1 -> conv3_1
I0117 15:13:27.483194 42184 net.cpp:124] Setting up conv3_1
I0117 15:13:27.483212 42184 net.cpp:131] Top shape: 1 256 150 250 (9600000)
I0117 15:13:27.483217 42184 net.cpp:139] Memory required for data: 1039200084
I0117 15:13:27.483225 42184 layer_factory.hpp:77] Creating layer relu3_1
I0117 15:13:27.483232 42184 net.cpp:86] Creating Layer relu3_1
I0117 15:13:27.483235 42184 net.cpp:408] relu3_1 <- conv3_1
I0117 15:13:27.483249 42184 net.cpp:369] relu3_1 -> conv3_1 (in-place)
I0117 15:13:27.483605 42184 net.cpp:124] Setting up relu3_1
I0117 15:13:27.483620 42184 net.cpp:131] Top shape: 1 256 150 250 (9600000)
I0117 15:13:27.483624 42184 net.cpp:139] Memory required for data: 1077600084
I0117 15:13:27.483628 42184 layer_factory.hpp:77] Creating layer conv3_2
I0117 15:13:27.483640 42184 net.cpp:86] Creating Layer conv3_2
I0117 15:13:27.483645 42184 net.cpp:408] conv3_2 <- conv3_1
I0117 15:13:27.483652 42184 net.cpp:382] conv3_2 -> conv3_2
I0117 15:13:27.487015 42184 net.cpp:124] Setting up conv3_2
I0117 15:13:27.487030 42184 net.cpp:131] Top shape: 1 256 150 250 (9600000)
I0117 15:13:27.487035 42184 net.cpp:139] Memory required for data: 1116000084
I0117 15:13:27.487041 42184 layer_factory.hpp:77] Creating layer relu3_2
I0117 15:13:27.487047 42184 net.cpp:86] Creating Layer relu3_2
I0117 15:13:27.487051 42184 net.cpp:408] relu3_2 <- conv3_2
I0117 15:13:27.487058 42184 net.cpp:369] relu3_2 -> conv3_2 (in-place)
I0117 15:13:27.487598 42184 net.cpp:124] Setting up relu3_2
I0117 15:13:27.487612 42184 net.cpp:131] Top shape: 1 256 150 250 (9600000)
I0117 15:13:27.487617 42184 net.cpp:139] Memory required for data: 1154400084
I0117 15:13:27.487620 42184 layer_factory.hpp:77] Creating layer conv3_3
I0117 15:13:27.487629 42184 net.cpp:86] Creating Layer conv3_3
I0117 15:13:27.487633 42184 net.cpp:408] conv3_3 <- conv3_2
I0117 15:13:27.487641 42184 net.cpp:382] conv3_3 -> conv3_3
I0117 15:13:27.494451 42184 net.cpp:124] Setting up conv3_3
I0117 15:13:27.494468 42184 net.cpp:131] Top shape: 1 256 150 250 (9600000)
I0117 15:13:27.494472 42184 net.cpp:139] Memory required for data: 1192800084
I0117 15:13:27.494479 42184 layer_factory.hpp:77] Creating layer relu3_3
I0117 15:13:27.494485 42184 net.cpp:86] Creating Layer relu3_3
I0117 15:13:27.494489 42184 net.cpp:408] relu3_3 <- conv3_3
I0117 15:13:27.494496 42184 net.cpp:369] relu3_3 -> conv3_3 (in-place)
I0117 15:13:27.495040 42184 net.cpp:124] Setting up relu3_3
I0117 15:13:27.495055 42184 net.cpp:131] Top shape: 1 256 150 250 (9600000)
I0117 15:13:27.495059 42184 net.cpp:139] Memory required for data: 1231200084
I0117 15:13:27.495062 42184 layer_factory.hpp:77] Creating layer pool3
I0117 15:13:27.495069 42184 net.cpp:86] Creating Layer pool3
I0117 15:13:27.495072 42184 net.cpp:408] pool3 <- conv3_3
I0117 15:13:27.495080 42184 net.cpp:382] pool3 -> pool3
I0117 15:13:27.495131 42184 net.cpp:124] Setting up pool3
I0117 15:13:27.495142 42184 net.cpp:131] Top shape: 1 256 75 125 (2400000)
I0117 15:13:27.495146 42184 net.cpp:139] Memory required for data: 1240800084
I0117 15:13:27.495149 42184 layer_factory.hpp:77] Creating layer conv4_1
I0117 15:13:27.495164 42184 net.cpp:86] Creating Layer conv4_1
I0117 15:13:27.495169 42184 net.cpp:408] conv4_1 <- pool3
I0117 15:13:27.495174 42184 net.cpp:382] conv4_1 -> conv4_1
I0117 15:13:27.499763 42184 net.cpp:124] Setting up conv4_1
I0117 15:13:27.499778 42184 net.cpp:131] Top shape: 1 512 75 125 (4800000)
I0117 15:13:27.499781 42184 net.cpp:139] Memory required for data: 1260000084
I0117 15:13:27.499788 42184 layer_factory.hpp:77] Creating layer relu4_1
I0117 15:13:27.499794 42184 net.cpp:86] Creating Layer relu4_1
I0117 15:13:27.499799 42184 net.cpp:408] relu4_1 <- conv4_1
I0117 15:13:27.499805 42184 net.cpp:369] relu4_1 -> conv4_1 (in-place)
I0117 15:13:27.500172 42184 net.cpp:124] Setting up relu4_1
I0117 15:13:27.500186 42184 net.cpp:131] Top shape: 1 512 75 125 (4800000)
I0117 15:13:27.500190 42184 net.cpp:139] Memory required for data: 1279200084
I0117 15:13:27.500195 42184 layer_factory.hpp:77] Creating layer conv4_2
I0117 15:13:27.500203 42184 net.cpp:86] Creating Layer conv4_2
I0117 15:13:27.500207 42184 net.cpp:408] conv4_2 <- conv4_1
I0117 15:13:27.500213 42184 net.cpp:382] conv4_2 -> conv4_2
I0117 15:13:27.507341 42184 net.cpp:124] Setting up conv4_2
I0117 15:13:27.507359 42184 net.cpp:131] Top shape: 1 512 75 125 (4800000)
I0117 15:13:27.507362 42184 net.cpp:139] Memory required for data: 1298400084
I0117 15:13:27.507373 42184 layer_factory.hpp:77] Creating layer relu4_2
I0117 15:13:27.507382 42184 net.cpp:86] Creating Layer relu4_2
I0117 15:13:27.507386 42184 net.cpp:408] relu4_2 <- conv4_2
I0117 15:13:27.507392 42184 net.cpp:369] relu4_2 -> conv4_2 (in-place)
I0117 15:13:27.507951 42184 net.cpp:124] Setting up relu4_2
I0117 15:13:27.507967 42184 net.cpp:131] Top shape: 1 512 75 125 (4800000)
I0117 15:13:27.507972 42184 net.cpp:139] Memory required for data: 1317600084
I0117 15:13:27.507975 42184 layer_factory.hpp:77] Creating layer conv4_3
I0117 15:13:27.507984 42184 net.cpp:86] Creating Layer conv4_3
I0117 15:13:27.507988 42184 net.cpp:408] conv4_3 <- conv4_2
I0117 15:13:27.507997 42184 net.cpp:382] conv4_3 -> conv4_3
I0117 15:13:27.522214 42184 net.cpp:124] Setting up conv4_3
I0117 15:13:27.522235 42184 net.cpp:131] Top shape: 1 512 75 125 (4800000)
I0117 15:13:27.522239 42184 net.cpp:139] Memory required for data: 1336800084
I0117 15:13:27.522248 42184 layer_factory.hpp:77] Creating layer relu4_3
I0117 15:13:27.522254 42184 net.cpp:86] Creating Layer relu4_3
I0117 15:13:27.522258 42184 net.cpp:408] relu4_3 <- conv4_3
I0117 15:13:27.522264 42184 net.cpp:369] relu4_3 -> conv4_3 (in-place)
I0117 15:13:27.522637 42184 net.cpp:124] Setting up relu4_3
I0117 15:13:27.522650 42184 net.cpp:131] Top shape: 1 512 75 125 (4800000)
I0117 15:13:27.522655 42184 net.cpp:139] Memory required for data: 1356000084
I0117 15:13:27.522658 42184 layer_factory.hpp:77] Creating layer pool4
I0117 15:13:27.522667 42184 net.cpp:86] Creating Layer pool4
I0117 15:13:27.522671 42184 net.cpp:408] pool4 <- conv4_3
I0117 15:13:27.522676 42184 net.cpp:382] pool4 -> pool4
I0117 15:13:27.522733 42184 net.cpp:124] Setting up pool4
I0117 15:13:27.522742 42184 net.cpp:131] Top shape: 1 512 38 63 (1225728)
I0117 15:13:27.522747 42184 net.cpp:139] Memory required for data: 1360902996
I0117 15:13:27.522750 42184 layer_factory.hpp:77] Creating layer conv5_1
I0117 15:13:27.522760 42184 net.cpp:86] Creating Layer conv5_1
I0117 15:13:27.522764 42184 net.cpp:408] conv5_1 <- pool4
I0117 15:13:27.522773 42184 net.cpp:382] conv5_1 -> conv5_1
I0117 15:13:27.529597 42184 net.cpp:124] Setting up conv5_1
I0117 15:13:27.529613 42184 net.cpp:131] Top shape: 1 512 38 63 (1225728)
I0117 15:13:27.529618 42184 net.cpp:139] Memory required for data: 1365805908
I0117 15:13:27.529624 42184 layer_factory.hpp:77] Creating layer relu5_1
I0117 15:13:27.529630 42184 net.cpp:86] Creating Layer relu5_1
I0117 15:13:27.529634 42184 net.cpp:408] relu5_1 <- conv5_1
I0117 15:13:27.529642 42184 net.cpp:369] relu5_1 -> conv5_1 (in-place)
I0117 15:13:27.530203 42184 net.cpp:124] Setting up relu5_1
I0117 15:13:27.530217 42184 net.cpp:131] Top shape: 1 512 38 63 (1225728)
I0117 15:13:27.530221 42184 net.cpp:139] Memory required for data: 1370708820
I0117 15:13:27.530225 42184 layer_factory.hpp:77] Creating layer conv5_2
I0117 15:13:27.530234 42184 net.cpp:86] Creating Layer conv5_2
I0117 15:13:27.530239 42184 net.cpp:408] conv5_2 <- conv5_1
I0117 15:13:27.530247 42184 net.cpp:382] conv5_2 -> conv5_2
I0117 15:13:27.553380 42184 net.cpp:124] Setting up conv5_2
I0117 15:13:27.553414 42184 net.cpp:131] Top shape: 1 512 38 63 (1225728)
I0117 15:13:27.553423 42184 net.cpp:139] Memory required for data: 1375611732
I0117 15:13:27.553438 42184 layer_factory.hpp:77] Creating layer relu5_2
I0117 15:13:27.553452 42184 net.cpp:86] Creating Layer relu5_2
I0117 15:13:27.553460 42184 net.cpp:408] relu5_2 <- conv5_2
I0117 15:13:27.553476 42184 net.cpp:369] relu5_2 -> conv5_2 (in-place)
I0117 15:13:27.554188 42184 net.cpp:124] Setting up relu5_2
I0117 15:13:27.554214 42184 net.cpp:131] Top shape: 1 512 38 63 (1225728)
I0117 15:13:27.554221 42184 net.cpp:139] Memory required for data: 1380514644
I0117 15:13:27.554229 42184 layer_factory.hpp:77] Creating layer conv5_3
I0117 15:13:27.554261 42184 net.cpp:86] Creating Layer conv5_3
I0117 15:13:27.554270 42184 net.cpp:408] conv5_3 <- conv5_2
I0117 15:13:27.554284 42184 net.cpp:382] conv5_3 -> conv5_3
I0117 15:13:27.564630 42184 net.cpp:124] Setting up conv5_3
I0117 15:13:27.564647 42184 net.cpp:131] Top shape: 1 512 38 63 (1225728)
I0117 15:13:27.564651 42184 net.cpp:139] Memory required for data: 1385417556
I0117 15:13:27.564657 42184 layer_factory.hpp:77] Creating layer relu5_3
I0117 15:13:27.564664 42184 net.cpp:86] Creating Layer relu5_3
I0117 15:13:27.564668 42184 net.cpp:408] relu5_3 <- conv5_3
I0117 15:13:27.564677 42184 net.cpp:369] relu5_3 -> conv5_3 (in-place)
I0117 15:13:27.566787 42184 net.cpp:124] Setting up relu5_3
I0117 15:13:27.566803 42184 net.cpp:131] Top shape: 1 512 38 63 (1225728)
I0117 15:13:27.566807 42184 net.cpp:139] Memory required for data: 1390320468
I0117 15:13:27.566812 42184 layer_factory.hpp:77] Creating layer conv5_3_relu5_3_0_split
I0117 15:13:27.566818 42184 net.cpp:86] Creating Layer conv5_3_relu5_3_0_split
I0117 15:13:27.566823 42184 net.cpp:408] conv5_3_relu5_3_0_split <- conv5_3
I0117 15:13:27.566830 42184 net.cpp:382] conv5_3_relu5_3_0_split -> conv5_3_relu5_3_0_split_0
I0117 15:13:27.566839 42184 net.cpp:382] conv5_3_relu5_3_0_split -> conv5_3_relu5_3_0_split_1
I0117 15:13:27.566905 42184 net.cpp:124] Setting up conv5_3_relu5_3_0_split
I0117 15:13:27.566911 42184 net.cpp:131] Top shape: 1 512 38 63 (1225728)
I0117 15:13:27.566915 42184 net.cpp:131] Top shape: 1 512 38 63 (1225728)
I0117 15:13:27.566920 42184 net.cpp:139] Memory required for data: 1400126292
I0117 15:13:27.566922 42184 layer_factory.hpp:77] Creating layer rpn_conv/3x3
I0117 15:13:27.566936 42184 net.cpp:86] Creating Layer rpn_conv/3x3
I0117 15:13:27.566941 42184 net.cpp:408] rpn_conv/3x3 <- conv5_3_relu5_3_0_split_0
I0117 15:13:27.566947 42184 net.cpp:382] rpn_conv/3x3 -> rpn/output
I0117 15:13:27.595113 42184 net.cpp:124] Setting up rpn_conv/3x3
I0117 15:13:27.595130 42184 net.cpp:131] Top shape: 1 512 38 63 (1225728)
I0117 15:13:27.595134 42184 net.cpp:139] Memory required for data: 1405029204
I0117 15:13:27.595140 42184 layer_factory.hpp:77] Creating layer rpn_relu/3x3
I0117 15:13:27.595149 42184 net.cpp:86] Creating Layer rpn_relu/3x3
I0117 15:13:27.595154 42184 net.cpp:408] rpn_relu/3x3 <- rpn/output
I0117 15:13:27.595158 42184 net.cpp:369] rpn_relu/3x3 -> rpn/output (in-place)
I0117 15:13:27.595757 42184 net.cpp:124] Setting up rpn_relu/3x3
I0117 15:13:27.595770 42184 net.cpp:131] Top shape: 1 512 38 63 (1225728)
I0117 15:13:27.595774 42184 net.cpp:139] Memory required for data: 1409932116
I0117 15:13:27.595777 42184 layer_factory.hpp:77] Creating layer rpn/output_rpn_relu/3x3_0_split
I0117 15:13:27.595788 42184 net.cpp:86] Creating Layer rpn/output_rpn_relu/3x3_0_split
I0117 15:13:27.595793 42184 net.cpp:408] rpn/output_rpn_relu/3x3_0_split <- rpn/output
I0117 15:13:27.595798 42184 net.cpp:382] rpn/output_rpn_relu/3x3_0_split -> rpn/output_rpn_relu/3x3_0_split_0
I0117 15:13:27.595808 42184 net.cpp:382] rpn/output_rpn_relu/3x3_0_split -> rpn/output_rpn_relu/3x3_0_split_1
I0117 15:13:27.595860 42184 net.cpp:124] Setting up rpn/output_rpn_relu/3x3_0_split
I0117 15:13:27.595876 42184 net.cpp:131] Top shape: 1 512 38 63 (1225728)
I0117 15:13:27.595880 42184 net.cpp:131] Top shape: 1 512 38 63 (1225728)
I0117 15:13:27.595885 42184 net.cpp:139] Memory required for data: 1419737940
I0117 15:13:27.595888 42184 layer_factory.hpp:77] Creating layer rpn_cls_score
I0117 15:13:27.595902 42184 net.cpp:86] Creating Layer rpn_cls_score
I0117 15:13:27.595909 42184 net.cpp:408] rpn_cls_score <- rpn/output_rpn_relu/3x3_0_split_0
I0117 15:13:27.595924 42184 net.cpp:382] rpn_cls_score -> rpn_cls_score
I0117 15:13:27.601855 42184 net.cpp:124] Setting up rpn_cls_score
I0117 15:13:27.601883 42184 net.cpp:131] Top shape: 1 18 38 63 (43092)
I0117 15:13:27.601888 42184 net.cpp:139] Memory required for data: 1419910308
I0117 15:13:27.601897 42184 layer_factory.hpp:77] Creating layer rpn_cls_score_rpn_cls_score_0_split
I0117 15:13:27.601903 42184 net.cpp:86] Creating Layer rpn_cls_score_rpn_cls_score_0_split
I0117 15:13:27.601909 42184 net.cpp:408] rpn_cls_score_rpn_cls_score_0_split <- rpn_cls_score
I0117 15:13:27.601918 42184 net.cpp:382] rpn_cls_score_rpn_cls_score_0_split -> rpn_cls_score_rpn_cls_score_0_split_0
I0117 15:13:27.601938 42184 net.cpp:382] rpn_cls_score_rpn_cls_score_0_split -> rpn_cls_score_rpn_cls_score_0_split_1
I0117 15:13:27.601979 42184 net.cpp:124] Setting up rpn_cls_score_rpn_cls_score_0_split
I0117 15:13:27.601990 42184 net.cpp:131] Top shape: 1 18 38 63 (43092)
I0117 15:13:27.601995 42184 net.cpp:131] Top shape: 1 18 38 63 (43092)
I0117 15:13:27.601999 42184 net.cpp:139] Memory required for data: 1420255044
I0117 15:13:27.602002 42184 layer_factory.hpp:77] Creating layer rpn_bbox_pred
I0117 15:13:27.602021 42184 net.cpp:86] Creating Layer rpn_bbox_pred
I0117 15:13:27.602032 42184 net.cpp:408] rpn_bbox_pred <- rpn/output_rpn_relu/3x3_0_split_1
I0117 15:13:27.602041 42184 net.cpp:382] rpn_bbox_pred -> rpn_bbox_pred
I0117 15:13:27.603855 42184 net.cpp:124] Setting up rpn_bbox_pred
I0117 15:13:27.603871 42184 net.cpp:131] Top shape: 1 36 38 63 (86184)
I0117 15:13:27.603874 42184 net.cpp:139] Memory required for data: 1420599780
I0117 15:13:27.603881 42184 layer_factory.hpp:77] Creating layer rpn_bbox_pred_rpn_bbox_pred_0_split
I0117 15:13:27.603888 42184 net.cpp:86] Creating Layer rpn_bbox_pred_rpn_bbox_pred_0_split
I0117 15:13:27.603891 42184 net.cpp:408] rpn_bbox_pred_rpn_bbox_pred_0_split <- rpn_bbox_pred
I0117 15:13:27.603899 42184 net.cpp:382] rpn_bbox_pred_rpn_bbox_pred_0_split -> rpn_bbox_pred_rpn_bbox_pred_0_split_0
I0117 15:13:27.603907 42184 net.cpp:382] rpn_bbox_pred_rpn_bbox_pred_0_split -> rpn_bbox_pred_rpn_bbox_pred_0_split_1
I0117 15:13:27.603960 42184 net.cpp:124] Setting up rpn_bbox_pred_rpn_bbox_pred_0_split
I0117 15:13:27.603967 42184 net.cpp:131] Top shape: 1 36 38 63 (86184)
I0117 15:13:27.603972 42184 net.cpp:131] Top shape: 1 36 38 63 (86184)
I0117 15:13:27.603976 42184 net.cpp:139] Memory required for data: 1421289252
I0117 15:13:27.603978 42184 layer_factory.hpp:77] Creating layer rpn_cls_score_reshape
I0117 15:13:27.603991 42184 net.cpp:86] Creating Layer rpn_cls_score_reshape
I0117 15:13:27.603997 42184 net.cpp:408] rpn_cls_score_reshape <- rpn_cls_score_rpn_cls_score_0_split_0
I0117 15:13:27.604007 42184 net.cpp:382] rpn_cls_score_reshape -> rpn_cls_score_reshape
I0117 15:13:27.604035 42184 net.cpp:124] Setting up rpn_cls_score_reshape
I0117 15:13:27.604043 42184 net.cpp:131] Top shape: 1 2 342 63 (43092)
I0117 15:13:27.604046 42184 net.cpp:139] Memory required for data: 1421461620
I0117 15:13:27.604051 42184 layer_factory.hpp:77] Creating layer rpn_cls_score_reshape_rpn_cls_score_reshape_0_split
I0117 15:13:27.604063 42184 net.cpp:86] Creating Layer rpn_cls_score_reshape_rpn_cls_score_reshape_0_split
I0117 15:13:27.604069 42184 net.cpp:408] rpn_cls_score_reshape_rpn_cls_score_reshape_0_split <- rpn_cls_score_reshape
I0117 15:13:27.604075 42184 net.cpp:382] rpn_cls_score_reshape_rpn_cls_score_reshape_0_split -> rpn_cls_score_reshape_rpn_cls_score_reshape_0_split_0
I0117 15:13:27.604087 42184 net.cpp:382] rpn_cls_score_reshape_rpn_cls_score_reshape_0_split -> rpn_cls_score_reshape_rpn_cls_score_reshape_0_split_1
I0117 15:13:27.604121 42184 net.cpp:124] Setting up rpn_cls_score_reshape_rpn_cls_score_reshape_0_split
I0117 15:13:27.604135 42184 net.cpp:131] Top shape: 1 2 342 63 (43092)
I0117 15:13:27.604140 42184 net.cpp:131] Top shape: 1 2 342 63 (43092)
I0117 15:13:27.604143 42184 net.cpp:139] Memory required for data: 1421806356
I0117 15:13:27.604146 42184 layer_factory.hpp:77] Creating layer rpn-data
I0117 15:13:27.606093 42184 net.cpp:86] Creating Layer rpn-data
I0117 15:13:27.606107 42184 net.cpp:408] rpn-data <- rpn_cls_score_rpn_cls_score_0_split_1
I0117 15:13:27.606127 42184 net.cpp:408] rpn-data <- gt_boxes_input-data_2_split_0
I0117 15:13:27.606132 42184 net.cpp:408] rpn-data <- im_info_input-data_1_split_0
I0117 15:13:27.606135 42184 net.cpp:408] rpn-data <- data_input-data_0_split_1
I0117 15:13:27.606142 42184 net.cpp:382] rpn-data -> rpn_labels
I0117 15:13:27.606149 42184 net.cpp:382] rpn-data -> rpn_bbox_targets
I0117 15:13:27.606156 42184 net.cpp:382] rpn-data -> rpn_bbox_inside_weights
I0117 15:13:27.606165 42184 net.cpp:382] rpn-data -> rpn_bbox_outside_weights
I0117 15:13:27.607161 42184 net.cpp:124] Setting up rpn-data
I0117 15:13:27.607177 42184 net.cpp:131] Top shape: 1 1 342 63 (21546)
I0117 15:13:27.607182 42184 net.cpp:131] Top shape: 1 36 38 63 (86184)
I0117 15:13:27.607185 42184 net.cpp:131] Top shape: 1 36 38 63 (86184)
I0117 15:13:27.607188 42184 net.cpp:131] Top shape: 1 36 38 63 (86184)
I0117 15:13:27.607192 42184 net.cpp:139] Memory required for data: 1422926748
I0117 15:13:27.607195 42184 layer_factory.hpp:77] Creating layer rpn_loss_cls
I0117 15:13:27.607203 42184 net.cpp:86] Creating Layer rpn_loss_cls
I0117 15:13:27.607209 42184 net.cpp:408] rpn_loss_cls <- rpn_cls_score_reshape_rpn_cls_score_reshape_0_split_0
I0117 15:13:27.607214 42184 net.cpp:408] rpn_loss_cls <- rpn_labels
…
I0117 15:13:27.608587 42184 net.cpp:131] Top shape: (1)
I0117 15:13:27.608590 42184 net.cpp:134]     with loss weight 1
I0117 15:13:27.608595 42184 net.cpp:139] Memory required for data: 1422926756
I0117 15:13:27.608598 42184 layer_factory.hpp:77] Creating layer rpn_cls_prob
I0117 15:13:27.608603 42184 net.cpp:86] Creating Layer rpn_cls_prob
I0117 15:13:27.608608 42184 net.cpp:408] rpn_cls_prob <- rpn_cls_score_reshape_rpn_cls_score_reshape_0_split_1
I0117 15:13:27.608615 42184 net.cpp:382] rpn_cls_prob -> rpn_cls_prob
I0117 15:13:27.609246 42184 net.cpp:124] Setting up rpn_cls_prob
I0117 15:13:27.609272 42184 net.cpp:131] Top shape: 1 2 342 63 (43092)
I0117 15:13:27.609275 42184 net.cpp:139] Memory required for data: 1423099124
I0117 15:13:27.609280 42184 layer_factory.hpp:77] Creating layer rpn_cls_prob_reshape
I0117 15:13:27.609289 42184 net.cpp:86] Creating Layer rpn_cls_prob_reshape
I0117 15:13:27.609293 42184 net.cpp:408] rpn_cls_prob_reshape <- rpn_cls_prob
I0117 15:13:27.609302 42184 net.cpp:382] rpn_cls_prob_reshape -> rpn_cls_prob_reshape
I0117 15:13:27.609338 42184 net.cpp:124] Setting up rpn_cls_prob_reshape
I0117 15:13:27.609345 42184 net.cpp:131] Top shape: 1 18 38 63 (43092)
I0117 15:13:27.609349 42184 net.cpp:139] Memory required for data: 1423271492
I0117 15:13:27.609352 42184 layer_factory.hpp:77] Creating layer proposal
I0117 15:13:27.625073 42184 net.cpp:86] Creating Layer proposal
I0117 15:13:27.625088 42184 net.cpp:408] proposal <- rpn_cls_prob_reshape
I0117 15:13:27.625105 42184 net.cpp:408] proposal <- rpn_bbox_pred_rpn_bbox_pred_0_split_1
I0117 15:13:27.625111 42184 net.cpp:408] proposal <- im_info_input-data_1_split_1
I0117 15:13:27.625118 42184 net.cpp:382] proposal -> rpn_rois
I0117 15:13:27.626498 42184 net.cpp:124] Setting up proposal
I0117 15:13:27.626513 42184 net.cpp:131] Top shape: 1 5 (5)
I0117 15:13:27.626518 42184 net.cpp:139] Memory required for data: 1423271512
I0117 15:13:27.626521 42184 layer_factory.hpp:77] Creating layer roi-data
I0117 15:13:27.627043 42184 net.cpp:86] Creating Layer roi-data
I0117 15:13:27.627056 42184 net.cpp:408] roi-data <- rpn_rois
I0117 15:13:27.627063 42184 net.cpp:408] roi-data <- gt_boxes_input-data_2_split_1
I0117 15:13:27.627068 42184 net.cpp:382] roi-data -> rois
I0117 15:13:27.627075 42184 net.cpp:382] roi-data -> labels
I0117 15:13:27.627082 42184 net.cpp:382] roi-data -> bbox_targets
I0117 15:13:27.627087 42184 net.cpp:382] roi-data -> bbox_inside_weights
I0117 15:13:27.627094 42184 net.cpp:382] roi-data -> bbox_outside_weights
I0117 15:13:27.627528 42184 net.cpp:124] Setting up roi-data
I0117 15:13:27.627543 42184 net.cpp:131] Top shape: 1 5 (5)
I0117 15:13:27.627547 42184 net.cpp:131] Top shape: 1 1 (1)
I0117 15:13:27.627550 42184 net.cpp:131] Top shape: 1 36 (36)
I0117 15:13:27.627554 42184 net.cpp:131] Top shape: 1 36 (36)
I0117 15:13:27.627557 42184 net.cpp:131] Top shape: 1 36 (36)
I0117 15:13:27.627560 42184 net.cpp:139] Memory required for data: 1423271968
I0117 15:13:27.627564 42184 layer_factory.hpp:77] Creating layer roi_pool5
I0117 15:13:27.627576 42184 net.cpp:86] Creating Layer roi_pool5
I0117 15:13:27.627580 42184 net.cpp:408] roi_pool5 <- conv5_3_relu5_3_0_split_1
I0117 15:13:27.627585 42184 net.cpp:408] roi_pool5 <- rois
I0117 15:13:27.627591 42184 net.cpp:382] roi_pool5 -> pool5
I0117 15:13:27.627609 42184 roi_pooling_layer.cpp:30] Spatial scale: 0.0625
I0117 15:13:27.627650 42184 net.cpp:124] Setting up roi_pool5
I0117 15:13:27.627658 42184 net.cpp:131] Top shape: 1 512 7 7 (25088)
I0117 15:13:27.627662 42184 net.cpp:139] Memory required for data: 1423372320
I0117 15:13:27.627665 42184 layer_factory.hpp:77] Creating layer fc6
I0117 15:13:27.627676 42184 net.cpp:86] Creating Layer fc6
I0117 15:13:27.627679 42184 net.cpp:408] fc6 <- pool5
I0117 15:13:27.627686 42184 net.cpp:382] fc6 -> fc6
I0117 15:13:27.970389 42184 net.cpp:124] Setting up fc6
I0117 15:13:27.970425 42184 net.cpp:131] Top shape: 1 4096 (4096)
I0117 15:13:27.970429 42184 net.cpp:139] Memory required for data: 1423388704
I0117 15:13:27.970451 42184 layer_factory.hpp:77] Creating layer relu6
I0117 15:13:27.970463 42184 net.cpp:86] Creating Layer relu6
I0117 15:13:27.970468 42184 net.cpp:408] relu6 <- fc6
I0117 15:13:27.970476 42184 net.cpp:369] relu6 -> fc6 (in-place)
I0117 15:13:27.970945 42184 net.cpp:124] Setting up relu6
I0117 15:13:27.970958 42184 net.cpp:131] Top shape: 1 4096 (4096)
I0117 15:13:27.970962 42184 net.cpp:139] Memory required for data: 1423405088
I0117 15:13:27.970965 42184 layer_factory.hpp:77] Creating layer drop6
I0117 15:13:27.970973 42184 net.cpp:86] Creating Layer drop6
I0117 15:13:27.970976 42184 net.cpp:408] drop6 <- fc6
I0117 15:13:27.970985 42184 net.cpp:369] drop6 -> fc6 (in-place)
I0117 15:13:27.971021 42184 net.cpp:124] Setting up drop6
I0117 15:13:27.971027 42184 net.cpp:131] Top shape: 1 4096 (4096)
I0117 15:13:27.971030 42184 net.cpp:139] Memory required for data: 1423421472
I0117 15:13:27.971035 42184 layer_factory.hpp:77] Creating layer fc7
I0117 15:13:27.971056 42184 net.cpp:86] Creating Layer fc7
I0117 15:13:27.971068 42184 net.cpp:408] fc7 <- fc6
I0117 15:13:27.971076 42184 net.cpp:382] fc7 -> fc7
I0117 15:13:28.042488 42184 net.cpp:124] Setting up fc7
I0117 15:13:28.042532 42184 net.cpp:131] Top shape: 1 4096 (4096)
I0117 15:13:28.042536 42184 net.cpp:139] Memory required for data: 1423437856
I0117 15:13:28.042547 42184 layer_factory.hpp:77] Creating layer relu7
I0117 15:13:28.042559 42184 net.cpp:86] Creating Layer relu7
I0117 15:13:28.042563 42184 net.cpp:408] relu7 <- fc7
I0117 15:13:28.042572 42184 net.cpp:369] relu7 -> fc7 (in-place)
I0117 15:13:28.044927 42184 net.cpp:124] Setting up relu7
I0117 15:13:28.044945 42184 net.cpp:131] Top shape: 1 4096 (4096)
I0117 15:13:28.044958 42184 net.cpp:139] Memory required for data: 1423454240
I0117 15:13:28.044963 42184 layer_factory.hpp:77] Creating layer drop7
I0117 15:13:28.044971 42184 net.cpp:86] Creating Layer drop7
I0117 15:13:28.044975 42184 net.cpp:408] drop7 <- fc7
I0117 15:13:28.044986 42184 net.cpp:369] drop7 -> fc7 (in-place)
I0117 15:13:28.045017 42184 net.cpp:124] Setting up drop7
I0117 15:13:28.045027 42184 net.cpp:131] Top shape: 1 4096 (4096)
I0117 15:13:28.045030 42184 net.cpp:139] Memory required for data: 1423470624
I0117 15:13:28.045035 42184 layer_factory.hpp:77] Creating layer fc7_drop7_0_split
I0117 15:13:28.045043 42184 net.cpp:86] Creating Layer fc7_drop7_0_split
I0117 15:13:28.045049 42184 net.cpp:408] fc7_drop7_0_split <- fc7
I0117 15:13:28.045068 42184 net.cpp:382] fc7_drop7_0_split -> fc7_drop7_0_split_0
I0117 15:13:28.045079 42184 net.cpp:382] fc7_drop7_0_split -> fc7_drop7_0_split_1
I0117 15:13:28.045116 42184 net.cpp:124] Setting up fc7_drop7_0_split
I0117 15:13:28.045126 42184 net.cpp:131] Top shape: 1 4096 (4096)
I0117 15:13:28.045130 42184 net.cpp:131] Top shape: 1 4096 (4096)
I0117 15:13:28.045133 42184 net.cpp:139] Memory required for data: 1423503392
I0117 15:13:28.045137 42184 layer_factory.hpp:77] Creating layer cls_score
I0117 15:13:28.045148 42184 net.cpp:86] Creating Layer cls_score
I0117 15:13:28.045153 42184 net.cpp:408] cls_score <- fc7_drop7_0_split_0
I0117 15:13:28.045163 42184 net.cpp:382] cls_score -> cls_score
I0117 15:13:28.045676 42184 net.cpp:124] Setting up cls_score
I0117 15:13:28.045686 42184 net.cpp:131] Top shape: 1 9 (9)
I0117 15:13:28.045689 42184 net.cpp:139] Memory required for data: 1423503428
I0117 15:13:28.045696 42184 layer_factory.hpp:77] Creating layer bbox_pred
I0117 15:13:28.045704 42184 net.cpp:86] Creating Layer bbox_pred
I0117 15:13:28.045708 42184 net.cpp:408] bbox_pred <- fc7_drop7_0_split_1
I0117 15:13:28.045713 42184 net.cpp:382] bbox_pred -> bbox_pred
I0117 15:13:28.047278 42184 net.cpp:124] Setting up bbox_pred
I0117 15:13:28.047288 42184 net.cpp:131] Top shape: 1 36 (36)
I0117 15:13:28.047291 42184 net.cpp:139] Memory required for data: 1423503572
I0117 15:13:28.047297 42184 layer_factory.hpp:77] Creating layer loss_cls
I0117 15:13:28.047304 42184 net.cpp:86] Creating Layer loss_cls
I0117 15:13:28.047307 42184 net.cpp:408] loss_cls <- cls_score
I0117 15:13:28.047312 42184 net.cpp:408] loss_cls <- labels
I0117 15:13:28.047317 42184 net.cpp:382] loss_cls -> loss_cls
…
I0117 16:10:08.075525 17969 upgrade_proto.cpp:72] Successfully upgraded file specified using deprecated input fields.
W0117 16:10:08.075529 17969 upgrade_proto.cpp:74] Note that future Caffe releases will only support input layers and not input fields.
I0117 16:10:08.075870 17969 net.cpp:53] Initializing net from parameters: 
name: "VGG_ILSVRC_16_layers"
state {
  phase: TEST
  level: 0
}
layer {
  name: "input"
  type: "Input"
  top: "data"
  top: "im_info"
  input_param {
    shape {
      dim: 1
      dim: 3
      dim: 224
      dim: 224
    }
    shape {
      dim: 1
      dim: 3
    }
  }
}
layer {
  name: "conv1_1"
  type: "Convolution"
  bottom: "data"
  top: "conv1_1"
  param {
    lr_mult: 0
    decay_mult: 0
  }
  param {
    lr_mult: 0
    decay_mult: 0
  }
  convolution_param {
    num_output: 64
    pad: 1
    kernel_size: 3
  }
}
layer {
  name: "relu1_1"
  type: "ReLU"
  bottom: "conv1_1"
  top: "conv1_1"
}
layer {
  name: "conv1_2"
  type: "Convolution"
  bottom: "conv1_1"
  top: "conv1_2"
  param {
    lr_mult: 0
    decay_mult: 0
  }
  param {
    lr_mult: 0
    decay_mult: 0
  }
  convolution_param {
    num_output: 64
    pad: 1
    kernel_size: 3
  }
}
layer {
  name: "relu1_2"
  type: "ReLU"
  bottom: "conv1_2"
  top: "conv1_2"
}
layer {
  name: "pool1"
  type: "Pooling"
  bottom: "conv1_2"
  top: "pool1"
  pooling_param {
    pool: MAX
    kernel_size: 2
    stride: 2
  }
}
layer {
  name: "conv2_1"
  type: "Convolution"
  bottom: "pool1"
  top: "conv2_1"
  param {
    lr_mult: 0
    decay_mult: 0
  }
  param {
    lr_mult: 0
    decay_mult: 0
  }
  convolution_param {
    num_output: 128
    pad: 1
    kernel_size: 3
  }
}
layer {
  name: "relu2_1"
  type: "ReLU"
  bottom: "conv2_1"
  top: "conv2_1"
}
layer {
  name: "conv2_2"
  type: "Convolution"
  bottom: "conv2_1"
  top: "conv2_2"
  param {
    lr_mult: 0
    decay_mult: 0
  }
  param {
    lr_mult: 0
    decay_mult: 0
  }
  convolution_param {
    num_output: 128
    pad: 1
    kernel_size: 3
  }
}
layer {
  name: "relu2_2"
  type: "ReLU"
  bottom: "conv2_2"
  top: "conv2_2"
}
layer {
  name: "pool2"
  type: "Pooling"
  bottom: "conv2_2"
  top: "pool2"
  pooling_param {
    pool: MAX
    kernel_size: 2
    stride: 2
  }
}
layer {
  name: "conv3_1"
  type: "Convolution"
  bottom: "pool2"
  top: "conv3_1"
  param {
    lr_mult: 1
    decay_mult: 1
  }
  param {
    lr_mult: 2
    decay_mult: 0
  }
  convolution_param {
    num_output: 256
    pad: 1
    kernel_size: 3
  }
}
layer {
  name: "relu3_1"
  type: "ReLU"
  bottom: "conv3_1"
  top: "conv3_1"
}
layer {
  name: "conv3_2"
  type: "Convolution"
  bottom: "conv3_1"
  top: "conv3_2"
  param {
    lr_mult: 1
    decay_mult: 1
  }
  param {
    lr_mult: 2
    decay_mult: 0
  }
  convolution_param {
    num_output: 256
    pad: 1
    kernel_size: 3
  }
}
layer {
  name: "relu3_2"
  type: "ReLU"
  bottom: "conv3_2"
  top: "conv3_2"
}
layer {
  name: "conv3_3"
  type: "Convolution"
  bottom: "conv3_2"
  top: "conv3_3"
  param {
    lr_mult: 1
    decay_mult: 1
  }
  param {
    lr_mult: 2
    decay_mult: 0
  }
  convolution_param {
    num_output: 256
    pad: 1
    kernel_size: 3
  }
}
layer {
  name: "relu3_3"
  type: "ReLU"
  bottom: "conv3_3"
  top: "conv3_3"
}
layer {
  name: "pool3"
  type: "Pooling"
  bottom: "conv3_3"
  top: "pool3"
  pooling_param {
    pool: MAX
    kernel_size: 2
    stride: 2
  }
}
layer {
  name: "conv4_1"
  type: "Convolution"
  bottom: "pool3"
  top: "conv4_1"
  param {
    lr_mult: 1
    decay_mult: 1
  }
  param {
    lr_mult: 2
    decay_mult: 0
  }
  convolution_param {
    num_output: 512
    pad: 1
    kernel_size: 3
  }
}
layer {
  name: "relu4_1"
  type: "ReLU"
  bottom: "conv4_1"
  top: "conv4_1"
}
layer {
  name: "conv4_2"
  type: "Convolution"
  bottom: "conv4_1"
  top: "conv4_2"
  param {
    lr_mult: 1
    decay_mult: 1
  }
  param {
    lr_mult: 2
    decay_mult: 0
  }
  convolution_param {
    num_output: 512
    pad: 1
    kernel_size: 3
  }
}
layer {
  name: "relu4_2"
  type: "ReLU"
  bottom: "conv4_2"
  top: "conv4_2"
}
layer {
  name: "conv4_3"
  type: "Convolution"
  bottom: "conv4_2"
  top: "conv4_3"
  param {
    lr_mult: 1
    decay_mult: 1
  }
  param {
    lr_mult: 2
    decay_mult: 0
  }
  convolution_param {
    num_output: 512
    pad: 1
    kernel_size: 3
  }
}
layer {
  name: "relu4_3"
  type: "ReLU"
  bottom: "conv4_3"
  top: "conv4_3"
}
layer {
  name: "pool4"
  type: "Pooling"
  bottom: "conv4_3"
  top: "pool4"
  pooling_param {
    pool: MAX
    kernel_size: 2
    stride: 2
  }
}
layer {
  name: "conv5_1"
  type: "Convolution"
  bottom: "pool4"
  top: "conv5_1"
  param {
    lr_mult: 1
    decay_mult: 1
  }
  param {
    lr_mult: 2
    decay_mult: 0
  }
  convolution_param {
    num_output: 512
    pad: 1
    kernel_size: 3
  }
}
layer {
  name: "relu5_1"
  type: "ReLU"
  bottom: "conv5_1"
  top: "conv5_1"
}
layer {
  name: "conv5_2"
  type: "Convolution"
  bottom: "conv5_1"
  top: "conv5_2"
  param {
    lr_mult: 1
    decay_mult: 1
  }
  param {
    lr_mult: 2
    decay_mult: 0
  }
  convolution_param {
    num_output: 512
    pad: 1
    kernel_size: 3
  }
}
layer {
  name: "relu5_2"
  type: "ReLU"
  bottom: "conv5_2"
  top: "conv5_2"
}
layer {
  name: "conv5_3"
  type: "Convolution"
  bottom: "conv5_2"
  top: "conv5_3"
  param {
    lr_mult: 1
    decay_mult: 1
  }
  param {
    lr_mult: 2
    decay_mult: 0
  }
  convolution_param {
    num_output: 512
    pad: 1
    kernel_size: 3
  }
}
layer {
  name: "relu5_3"
  type: "ReLU"
  bottom: "conv5_3"
  top: "conv5_3"
}
layer {
  name: "rpn_conv/3x3"
  type: "Convolution"
  bottom: "conv5_3"
  top: "rpn/output"
  param {
    lr_mult: 1
    decay_mult: 1
  }
  param {
    lr_mult: 2
    decay_mult: 0
  }
  convolution_param {
    num_output: 512
    pad: 1
    kernel_size: 3
    stride: 1
    weight_filler {
      type: "gaussian"
      std: 0.01
    }
    bias_filler {
      type: "constant"
      value: 0
    }
  }
}
layer {
  name: "rpn_relu/3x3"
  type: "ReLU"
  bottom: "rpn/output"
  top: "rpn/output"
}
layer {
  name: "rpn_cls_score"
  type: "Convolution"
  bottom: "rpn/output"
  top: "rpn_cls_score"
  param {
    lr_mult: 1
    decay_mult: 1
  }
  param {
    lr_mult: 2
    decay_mult: 0
  }
  convolution_param {
    num_output: 18
    pad: 0
    kernel_size: 1
    stride: 1
    weight_filler {
      type: "gaussian"
      std: 0.01
    }
    bias_filler {
      type: "constant"
      value: 0
    }
  }
}
layer {
  name: "rpn_bbox_pred"
  type: "Convolution"
  bottom: "rpn/output"
  top: "rpn_bbox_pred"
  param {
    lr_mult: 1
    decay_mult: 1
  }
  param {
    lr_mult: 2
    decay_mult: 0
  }
  convolution_param {
    num_output: 36
    pad: 0
    kernel_size: 1
    stride: 1
    weight_filler {
      type: "gaussian"
      std: 0.01
    }
    bias_filler {
      type: "constant"
      value: 0
    }
  }
}
layer {
  name: "rpn_cls_score_reshape"
  type: "Reshape"
  bottom: "rpn_cls_score"
  top: "rpn_cls_score_reshape"
  reshape_param {
    shape {
      dim: 0
      dim: 2
      dim: -1
      dim: 0
    }
  }
}
layer {
  name: "rpn_cls_prob"
  type: "Softmax"
  bottom: "rpn_cls_score_reshape"
  top: "rpn_cls_prob"
}
layer {
  name: "rpn_cls_prob_reshape"
  type: "Reshape"
  bottom: "rpn_cls_prob"
  top: "rpn_cls_prob_reshape"
  reshape_param {
    shape {
      dim: 0
      dim: 18
      dim: -1
      dim: 0
    }
  }
}
layer {
  name: "proposal"
  type: "Python"
  bottom: "rpn_cls_prob_reshape"
  bottom: "rpn_bbox_pred"
  bottom: "im_info"
  top: "rois"
  python_param {
    module: "rpn.proposal_layer"
    layer: "ProposalLayer"
    param_str: "\'feat_stride\': 16"
  }
}
layer {
  name: "roi_pool5"
  type: "ROIPooling"
  bottom: "conv5_3"
  bottom: "rois"
  top: "pool5"
  roi_pooling_param {
    pooled_h: 7
    pooled_w: 7
    spatial_scale: 0.0625
  }
}
layer {
  name: "fc6"
  type: "InnerProduct"
  bottom: "pool5"
  top: "fc6"
  param {
    lr_mult: 1
    decay_mult: 1
  }
  param {
    lr_mult: 2
    decay_mult: 0
  }
  inner_product_param {
    num_output: 4096
  }
}
layer {
  name: "relu6"
  type: "ReLU"
  bottom: "fc6"
  top: "fc6"
}
layer {
  name: "drop6"
  type: "Dropout"
  bottom: "fc6"
  top: "fc6"
  dropout_param {
    dropout_ratio: 0.5
  }
}
layer {
  name: "fc7"
  type: "InnerProduct"
  bottom: "fc6"
  top: "fc7"
  param {
    lr_mult: 1
    decay_mult: 1
  }
  param {
    lr_mult: 2
    decay_mult: 0
  }
  inner_product_param {
    num_output: 4096
  }
}
layer {
  name: "relu7"
  type: "ReLU"
  bottom: "fc7"
  top: "fc7"
}
layer {
  name: "drop7"
  type: "Dropout"
  bottom: "fc7"
  top: "fc7"
  dropout_param {
    dropout_ratio: 0.5
  }
}
layer {
  name: "cls_score"
  type: "InnerProduct"
  bottom: "fc7"
  top: "cls_score"
  param {
    lr_mult: 1
    decay_mult: 1
  }
  param {
    lr_mult: 2
    decay_mult: 0
  }
  inner_product_param {
    num_output: 9
    weight_filler {
      type: "gaussian"
      std: 0.01
    }
    bias_filler {
      type: "constant"
      value: 0
    }
  }
}
layer {
  name: "bbox_pred"
  type: "InnerProduct"
  bottom: "fc7"
  top: "bbox_pred"
  param {
    lr_mult: 1
    decay_mult: 1
  }
  param {
    lr_mult: 2
    decay_mult: 0
  }
  inner_product_param {
    num_output: 36
    weight_filler {
      type: "gaussian"
      std: 0.001
    }
    bias_filler {
      type: "constant"
      value: 0
    }
  }
}
layer {
  name: "cls_prob"
  type: "Softmax"
  bottom: "cls_score"
  top: "cls_prob"
}
I0117 16:10:08.076102 17969 layer_factory.hpp:77] Creating layer input
I0117 16:10:08.076118 17969 net.cpp:86] Creating Layer input
I0117 16:10:08.076124 17969 net.cpp:382] input -> data
I0117 16:10:08.076135 17969 net.cpp:382] input -> im_info
I0117 16:10:08.101893 17969 net.cpp:124] Setting up input
I0117 16:10:08.101927 17969 net.cpp:131] Top shape: 1 3 224 224 (150528)
I0117 16:10:08.101933 17969 net.cpp:131] Top shape: 1 3 (3)
I0117 16:10:08.101935 17969 net.cpp:139] Memory required for data: 602124
I0117 16:10:08.101940 17969 layer_factory.hpp:77] Creating layer conv1_1
I0117 16:10:08.101953 17969 net.cpp:86] Creating Layer conv1_1
I0117 16:10:08.101958 17969 net.cpp:408] conv1_1 <- data
I0117 16:10:08.101966 17969 net.cpp:382] conv1_1 -> conv1_1
I0117 16:10:09.071910 17969 net.cpp:124] Setting up conv1_1
I0117 16:10:09.071945 17969 net.cpp:131] Top shape: 1 64 224 224 (3211264)
I0117 16:10:09.071950 17969 net.cpp:139] Memory required for data: 13447180
I0117 16:10:09.071969 17969 layer_factory.hpp:77] Creating layer relu1_1
I0117 16:10:09.071982 17969 net.cpp:86] Creating Layer relu1_1
I0117 16:10:09.071987 17969 net.cpp:408] relu1_1 <- conv1_1
I0117 16:10:09.071996 17969 net.cpp:369] relu1_1 -> conv1_1 (in-place)
I0117 16:10:09.072412 17969 net.cpp:124] Setting up relu1_1
I0117 16:10:09.072440 17969 net.cpp:131] Top shape: 1 64 224 224 (3211264)
I0117 16:10:09.072444 17969 net.cpp:139] Memory required for data: 26292236
I0117 16:10:09.072448 17969 layer_factory.hpp:77] Creating layer conv1_2
I0117 16:10:09.072461 17969 net.cpp:86] Creating Layer conv1_2
I0117 16:10:09.072466 17969 net.cpp:408] conv1_2 <- conv1_1
I0117 16:10:09.072482 17969 net.cpp:382] conv1_2 -> conv1_2
I0117 16:10:09.074252 17969 net.cpp:124] Setting up conv1_2
I0117 16:10:09.074270 17969 net.cpp:131] Top shape: 1 64 224 224 (3211264)
I0117 16:10:09.074273 17969 net.cpp:139] Memory required for data: 39137292
I0117 16:10:09.074285 17969 layer_factory.hpp:77] Creating layer relu1_2
I0117 16:10:09.074292 17969 net.cpp:86] Creating Layer relu1_2
I0117 16:10:09.074296 17969 net.cpp:408] relu1_2 <- conv1_2
I0117 16:10:09.074303 17969 net.cpp:369] relu1_2 -> conv1_2 (in-place)
I0117 16:10:09.074904 17969 net.cpp:124] Setting up relu1_2
I0117 16:10:09.074919 17969 net.cpp:131] Top shape: 1 64 224 224 (3211264)
I0117 16:10:09.074923 17969 net.cpp:139] Memory required for data: 51982348
I0117 16:10:09.074926 17969 layer_factory.hpp:77] Creating layer pool1
I0117 16:10:09.074934 17969 net.cpp:86] Creating Layer pool1
I0117 16:10:09.074937 17969 net.cpp:408] pool1 <- conv1_2
I0117 16:10:09.074944 17969 net.cpp:382] pool1 -> pool1
I0117 16:10:09.075001 17969 net.cpp:124] Setting up pool1
I0117 16:10:09.075008 17969 net.cpp:131] Top shape: 1 64 112 112 (802816)
I0117 16:10:09.075011 17969 net.cpp:139] Memory required for data: 55193612
I0117 16:10:09.075016 17969 layer_factory.hpp:77] Creating layer conv2_1
I0117 16:10:09.075024 17969 net.cpp:86] Creating Layer conv2_1
I0117 16:10:09.075028 17969 net.cpp:408] conv2_1 <- pool1
I0117 16:10:09.075034 17969 net.cpp:382] conv2_1 -> conv2_1
I0117 16:10:09.076838 17969 net.cpp:124] Setting up conv2_1
I0117 16:10:09.076853 17969 net.cpp:131] Top shape: 1 128 112 112 (1605632)
I0117 16:10:09.076856 17969 net.cpp:139] Memory required for data: 61616140
I0117 16:10:09.076884 17969 layer_factory.hpp:77] Creating layer relu2_1
I0117 16:10:09.076901 17969 net.cpp:86] Creating Layer relu2_1
I0117 16:10:09.076905 17969 net.cpp:408] relu2_1 <- conv2_1
I0117 16:10:09.076913 17969 net.cpp:369] relu2_1 -> conv2_1 (in-place)
I0117 16:10:09.077291 17969 net.cpp:124] Setting up relu2_1
I0117 16:10:09.077306 17969 net.cpp:131] Top shape: 1 128 112 112 (1605632)
I0117 16:10:09.077309 17969 net.cpp:139] Memory required for data: 68038668
I0117 16:10:09.077313 17969 layer_factory.hpp:77] Creating layer conv2_2
I0117 16:10:09.077325 17969 net.cpp:86] Creating Layer conv2_2
I0117 16:10:09.077329 17969 net.cpp:408] conv2_2 <- conv2_1
I0117 16:10:09.077338 17969 net.cpp:382] conv2_2 -> conv2_2
I0117 16:10:09.080693 17969 net.cpp:124] Setting up conv2_2
I0117 16:10:09.080708 17969 net.cpp:131] Top shape: 1 128 112 112 (1605632)
I0117 16:10:09.080713 17969 net.cpp:139] Memory required for data: 74461196
I0117 16:10:09.080719 17969 layer_factory.hpp:77] Creating layer relu2_2
I0117 16:10:09.080730 17969 net.cpp:86] Creating Layer relu2_2
I0117 16:10:09.080735 17969 net.cpp:408] relu2_2 <- conv2_2
I0117 16:10:09.080740 17969 net.cpp:369] relu2_2 -> conv2_2 (in-place)
I0117 16:10:09.081331 17969 net.cpp:124] Setting up relu2_2
I0117 16:10:09.081346 17969 net.cpp:131] Top shape: 1 128 112 112 (1605632)
I0117 16:10:09.081351 17969 net.cpp:139] Memory required for data: 80883724
I0117 16:10:09.081353 17969 layer_factory.hpp:77] Creating layer pool2
I0117 16:10:09.081360 17969 net.cpp:86] Creating Layer pool2
I0117 16:10:09.081375 17969 net.cpp:408] pool2 <- conv2_2
I0117 16:10:09.081383 17969 net.cpp:382] pool2 -> pool2
I0117 16:10:09.081424 17969 net.cpp:124] Setting up pool2
I0117 16:10:09.081434 17969 net.cpp:131] Top shape: 1 128 56 56 (401408)
I0117 16:10:09.081437 17969 net.cpp:139] Memory required for data: 82489356
I0117 16:10:09.081440 17969 layer_factory.hpp:77] Creating layer conv3_1
I0117 16:10:09.081450 17969 net.cpp:86] Creating Layer conv3_1
I0117 16:10:09.081454 17969 net.cpp:408] conv3_1 <- pool2
I0117 16:10:09.081462 17969 net.cpp:382] conv3_1 -> conv3_1
I0117 16:10:09.086133 17969 net.cpp:124] Setting up conv3_1
I0117 16:10:09.086153 17969 net.cpp:131] Top shape: 1 256 56 56 (802816)
I0117 16:10:09.086158 17969 net.cpp:139] Memory required for data: 85700620
I0117 16:10:09.086166 17969 layer_factory.hpp:77] Creating layer relu3_1
I0117 16:10:09.086174 17969 net.cpp:86] Creating Layer relu3_1
I0117 16:10:09.086176 17969 net.cpp:408] relu3_1 <- conv3_1
I0117 16:10:09.086181 17969 net.cpp:369] relu3_1 -> conv3_1 (in-place)
I0117 16:10:09.086547 17969 net.cpp:124] Setting up relu3_1
I0117 16:10:09.086562 17969 net.cpp:131] Top shape: 1 256 56 56 (802816)
I0117 16:10:09.086566 17969 net.cpp:139] Memory required for data: 88911884
I0117 16:10:09.086570 17969 layer_factory.hpp:77] Creating layer conv3_2
I0117 16:10:09.086577 17969 net.cpp:86] Creating Layer conv3_2
I0117 16:10:09.086580 17969 net.cpp:408] conv3_2 <- conv3_1
I0117 16:10:09.086588 17969 net.cpp:382] conv3_2 -> conv3_2
I0117 16:10:09.090037 17969 net.cpp:124] Setting up conv3_2
I0117 16:10:09.090054 17969 net.cpp:131] Top shape: 1 256 56 56 (802816)
I0117 16:10:09.090057 17969 net.cpp:139] Memory required for data: 92123148
I0117 16:10:09.090065 17969 layer_factory.hpp:77] Creating layer relu3_2
I0117 16:10:09.090070 17969 net.cpp:86] Creating Layer relu3_2
I0117 16:10:09.090075 17969 net.cpp:408] relu3_2 <- conv3_2
I0117 16:10:09.090081 17969 net.cpp:369] relu3_2 -> conv3_2 (in-place)
I0117 16:10:09.090634 17969 net.cpp:124] Setting up relu3_2
I0117 16:10:09.090649 17969 net.cpp:131] Top shape: 1 256 56 56 (802816)
I0117 16:10:09.090653 17969 net.cpp:139] Memory required for data: 95334412
I0117 16:10:09.090656 17969 layer_factory.hpp:77] Creating layer conv3_3
I0117 16:10:09.090667 17969 net.cpp:86] Creating Layer conv3_3
I0117 16:10:09.090672 17969 net.cpp:408] conv3_3 <- conv3_2
I0117 16:10:09.090678 17969 net.cpp:382] conv3_3 -> conv3_3
I0117 16:10:09.095199 17969 net.cpp:124] Setting up conv3_3
I0117 16:10:09.095216 17969 net.cpp:131] Top shape: 1 256 56 56 (802816)
I0117 16:10:09.095219 17969 net.cpp:139] Memory required for data: 98545676
I0117 16:10:09.095227 17969 layer_factory.hpp:77] Creating layer relu3_3
I0117 16:10:09.095237 17969 net.cpp:86] Creating Layer relu3_3
I0117 16:10:09.095242 17969 net.cpp:408] relu3_3 <- conv3_3
I0117 16:10:09.095247 17969 net.cpp:369] relu3_3 -> conv3_3 (in-place)
I0117 16:10:09.095788 17969 net.cpp:124] Setting up relu3_3
I0117 16:10:09.095804 17969 net.cpp:131] Top shape: 1 256 56 56 (802816)
I0117 16:10:09.095808 17969 net.cpp:139] Memory required for data: 101756940
I0117 16:10:09.095811 17969 layer_factory.hpp:77] Creating layer pool3
I0117 16:10:09.095818 17969 net.cpp:86] Creating Layer pool3
I0117 16:10:09.095821 17969 net.cpp:408] pool3 <- conv3_3
I0117 16:10:09.095829 17969 net.cpp:382] pool3 -> pool3
I0117 16:10:09.095882 17969 net.cpp:124] Setting up pool3
I0117 16:10:09.095893 17969 net.cpp:131] Top shape: 1 256 28 28 (200704)
I0117 16:10:09.095896 17969 net.cpp:139] Memory required for data: 102559756
I0117 16:10:09.095901 17969 layer_factory.hpp:77] Creating layer conv4_1
I0117 16:10:09.095909 17969 net.cpp:86] Creating Layer conv4_1
I0117 16:10:09.095913 17969 net.cpp:408] conv4_1 <- pool3
I0117 16:10:09.095923 17969 net.cpp:382] conv4_1 -> conv4_1
I0117 16:10:09.100605 17969 net.cpp:124] Setting up conv4_1
I0117 16:10:09.100626 17969 net.cpp:131] Top shape: 1 512 28 28 (401408)
I0117 16:10:09.100630 17969 net.cpp:139] Memory required for data: 104165388
I0117 16:10:09.100638 17969 layer_factory.hpp:77] Creating layer relu4_1
I0117 16:10:09.100646 17969 net.cpp:86] Creating Layer relu4_1
I0117 16:10:09.100649 17969 net.cpp:408] relu4_1 <- conv4_1
I0117 16:10:09.100654 17969 net.cpp:369] relu4_1 -> conv4_1 (in-place)
I0117 16:10:09.101053 17969 net.cpp:124] Setting up relu4_1
I0117 16:10:09.101081 17969 net.cpp:131] Top shape: 1 512 28 28 (401408)
I0117 16:10:09.101085 17969 net.cpp:139] Memory required for data: 105771020
I0117 16:10:09.101089 17969 layer_factory.hpp:77] Creating layer conv4_2
I0117 16:10:09.101100 17969 net.cpp:86] Creating Layer conv4_2
I0117 16:10:09.101104 17969 net.cpp:408] conv4_2 <- conv4_1
I0117 16:10:09.101114 17969 net.cpp:382] conv4_2 -> conv4_2
I0117 16:10:09.107983 17969 net.cpp:124] Setting up conv4_2
I0117 16:10:09.108000 17969 net.cpp:131] Top shape: 1 512 28 28 (401408)
I0117 16:10:09.108003 17969 net.cpp:139] Memory required for data: 107376652
I0117 16:10:09.108016 17969 layer_factory.hpp:77] Creating layer relu4_2
I0117 16:10:09.108022 17969 net.cpp:86] Creating Layer relu4_2
I0117 16:10:09.108026 17969 net.cpp:408] relu4_2 <- conv4_2
I0117 16:10:09.108031 17969 net.cpp:369] relu4_2 -> conv4_2 (in-place)
I0117 16:10:09.108583 17969 net.cpp:124] Setting up relu4_2
I0117 16:10:09.108597 17969 net.cpp:131] Top shape: 1 512 28 28 (401408)
I0117 16:10:09.108602 17969 net.cpp:139] Memory required for data: 108982284
I0117 16:10:09.108605 17969 layer_factory.hpp:77] Creating layer conv4_3
I0117 16:10:09.108614 17969 net.cpp:86] Creating Layer conv4_3
I0117 16:10:09.108618 17969 net.cpp:408] conv4_3 <- conv4_2
I0117 16:10:09.108624 17969 net.cpp:382] conv4_3 -> conv4_3
I0117 16:10:09.117117 17969 net.cpp:124] Setting up conv4_3
I0117 16:10:09.117148 17969 net.cpp:131] Top shape: 1 512 28 28 (401408)
I0117 16:10:09.117152 17969 net.cpp:139] Memory required for data: 110587916
I0117 16:10:09.117159 17969 layer_factory.hpp:77] Creating layer relu4_3
I0117 16:10:09.117167 17969 net.cpp:86] Creating Layer relu4_3
I0117 16:10:09.117172 17969 net.cpp:408] relu4_3 <- conv4_3
I0117 16:10:09.117179 17969 net.cpp:369] relu4_3 -> conv4_3 (in-place)
I0117 16:10:09.117581 17969 net.cpp:124] Setting up relu4_3
I0117 16:10:09.117594 17969 net.cpp:131] Top shape: 1 512 28 28 (401408)
I0117 16:10:09.117597 17969 net.cpp:139] Memory required for data: 112193548
I0117 16:10:09.117600 17969 layer_factory.hpp:77] Creating layer pool4
I0117 16:10:09.117607 17969 net.cpp:86] Creating Layer pool4
I0117 16:10:09.117611 17969 net.cpp:408] pool4 <- conv4_3
I0117 16:10:09.117619 17969 net.cpp:382] pool4 -> pool4
I0117 16:10:09.117671 17969 net.cpp:124] Setting up pool4
I0117 16:10:09.117682 17969 net.cpp:131] Top shape: 1 512 14 14 (100352)
I0117 16:10:09.117686 17969 net.cpp:139] Memory required for data: 112594956
I0117 16:10:09.117689 17969 layer_factory.hpp:77] Creating layer conv5_1
I0117 16:10:09.117697 17969 net.cpp:86] Creating Layer conv5_1
I0117 16:10:09.117700 17969 net.cpp:408] conv5_1 <- pool4
I0117 16:10:09.117708 17969 net.cpp:382] conv5_1 -> conv5_1
I0117 16:10:09.132200 17969 net.cpp:124] Setting up conv5_1
I0117 16:10:09.132232 17969 net.cpp:131] Top shape: 1 512 14 14 (100352)
I0117 16:10:09.132237 17969 net.cpp:139] Memory required for data: 112996364
I0117 16:10:09.132244 17969 layer_factory.hpp:77] Creating layer relu5_1
I0117 16:10:09.132251 17969 net.cpp:86] Creating Layer relu5_1
I0117 16:10:09.132256 17969 net.cpp:408] relu5_1 <- conv5_1
I0117 16:10:09.132263 17969 net.cpp:369] relu5_1 -> conv5_1 (in-place)
I0117 16:10:09.132938 17969 net.cpp:124] Setting up relu5_1
I0117 16:10:09.132954 17969 net.cpp:131] Top shape: 1 512 14 14 (100352)
I0117 16:10:09.132958 17969 net.cpp:139] Memory required for data: 113397772
I0117 16:10:09.132962 17969 layer_factory.hpp:77] Creating layer conv5_2
I0117 16:10:09.132972 17969 net.cpp:86] Creating Layer conv5_2
I0117 16:10:09.132977 17969 net.cpp:408] conv5_2 <- conv5_1
I0117 16:10:09.132985 17969 net.cpp:382] conv5_2 -> conv5_2
I0117 16:10:09.140027 17969 net.cpp:124] Setting up conv5_2
I0117 16:10:09.140043 17969 net.cpp:131] Top shape: 1 512 14 14 (100352)
I0117 16:10:09.140048 17969 net.cpp:139] Memory required for data: 113799180
I0117 16:10:09.140054 17969 layer_factory.hpp:77] Creating layer relu5_2
I0117 16:10:09.140060 17969 net.cpp:86] Creating Layer relu5_2
I0117 16:10:09.140064 17969 net.cpp:408] relu5_2 <- conv5_2
I0117 16:10:09.140072 17969 net.cpp:369] relu5_2 -> conv5_2 (in-place)
I0117 16:10:09.140444 17969 net.cpp:124] Setting up relu5_2
I0117 16:10:09.140456 17969 net.cpp:131] Top shape: 1 512 14 14 (100352)
I0117 16:10:09.140460 17969 net.cpp:139] Memory required for data: 114200588
I0117 16:10:09.140463 17969 layer_factory.hpp:77] Creating layer conv5_3
I0117 16:10:09.140473 17969 net.cpp:86] Creating Layer conv5_3
I0117 16:10:09.140477 17969 net.cpp:408] conv5_3 <- conv5_2
I0117 16:10:09.140483 17969 net.cpp:382] conv5_3 -> conv5_3
I0117 16:10:09.152441 17969 net.cpp:124] Setting up conv5_3
I0117 16:10:09.152459 17969 net.cpp:131] Top shape: 1 512 14 14 (100352)
I0117 16:10:09.152463 17969 net.cpp:139] Memory required for data: 114601996
I0117 16:10:09.152470 17969 layer_factory.hpp:77] Creating layer relu5_3
I0117 16:10:09.152477 17969 net.cpp:86] Creating Layer relu5_3
I0117 16:10:09.152480 17969 net.cpp:408] relu5_3 <- conv5_3
I0117 16:10:09.152488 17969 net.cpp:369] relu5_3 -> conv5_3 (in-place)
I0117 16:10:09.154611 17969 net.cpp:124] Setting up relu5_3
I0117 16:10:09.154630 17969 net.cpp:131] Top shape: 1 512 14 14 (100352)
I0117 16:10:09.154634 17969 net.cpp:139] Memory required for data: 115003404
I0117 16:10:09.154639 17969 layer_factory.hpp:77] Creating layer conv5_3_relu5_3_0_split
I0117 16:10:09.154645 17969 net.cpp:86] Creating Layer conv5_3_relu5_3_0_split
I0117 16:10:09.154649 17969 net.cpp:408] conv5_3_relu5_3_0_split <- conv5_3
I0117 16:10:09.154664 17969 net.cpp:382] conv5_3_relu5_3_0_split -> conv5_3_relu5_3_0_split_0
I0117 16:10:09.154671 17969 net.cpp:382] conv5_3_relu5_3_0_split -> conv5_3_relu5_3_0_split_1
I0117 16:10:09.154722 17969 net.cpp:124] Setting up conv5_3_relu5_3_0_split
I0117 16:10:09.154732 17969 net.cpp:131] Top shape: 1 512 14 14 (100352)
I0117 16:10:09.154737 17969 net.cpp:131] Top shape: 1 512 14 14 (100352)
I0117 16:10:09.154740 17969 net.cpp:139] Memory required for data: 115806220
I0117 16:10:09.154743 17969 layer_factory.hpp:77] Creating layer rpn_conv/3x3
I0117 16:10:09.154763 17969 net.cpp:86] Creating Layer rpn_conv/3x3
I0117 16:10:09.154768 17969 net.cpp:408] rpn_conv/3x3 <- conv5_3_relu5_3_0_split_0
I0117 16:10:09.154774 17969 net.cpp:382] rpn_conv/3x3 -> rpn/output
I0117 16:10:09.184814 17969 net.cpp:124] Setting up rpn_conv/3x3
I0117 16:10:09.184834 17969 net.cpp:131] Top shape: 1 512 14 14 (100352)
I0117 16:10:09.184837 17969 net.cpp:139] Memory required for data: 116207628
I0117 16:10:09.184844 17969 layer_factory.hpp:77] Creating layer rpn_relu/3x3
I0117 16:10:09.184850 17969 net.cpp:86] Creating Layer rpn_relu/3x3
I0117 16:10:09.184854 17969 net.cpp:408] rpn_relu/3x3 <- rpn/output
I0117 16:10:09.184897 17969 net.cpp:369] rpn_relu/3x3 -> rpn/output (in-place)
I0117 16:10:09.185499 17969 net.cpp:124] Setting up rpn_relu/3x3
I0117 16:10:09.185514 17969 net.cpp:131] Top shape: 1 512 14 14 (100352)
I0117 16:10:09.185518 17969 net.cpp:139] Memory required for data: 116609036
I0117 16:10:09.185521 17969 layer_factory.hpp:77] Creating layer rpn/output_rpn_relu/3x3_0_split
I0117 16:10:09.185530 17969 net.cpp:86] Creating Layer rpn/output_rpn_relu/3x3_0_split
I0117 16:10:09.185534 17969 net.cpp:408] rpn/output_rpn_relu/3x3_0_split <- rpn/output
I0117 16:10:09.185540 17969 net.cpp:382] rpn/output_rpn_relu/3x3_0_split -> rpn/output_rpn_relu/3x3_0_split_0
I0117 16:10:09.185550 17969 net.cpp:382] rpn/output_rpn_relu/3x3_0_split -> rpn/output_rpn_relu/3x3_0_split_1
I0117 16:10:09.185601 17969 net.cpp:124] Setting up rpn/output_rpn_relu/3x3_0_split
I0117 16:10:09.185619 17969 net.cpp:131] Top shape: 1 512 14 14 (100352)
I0117 16:10:09.185624 17969 net.cpp:131] Top shape: 1 512 14 14 (100352)
I0117 16:10:09.185627 17969 net.cpp:139] Memory required for data: 117411852
I0117 16:10:09.185631 17969 layer_factory.hpp:77] Creating layer rpn_cls_score
I0117 16:10:09.185642 17969 net.cpp:86] Creating Layer rpn_cls_score
I0117 16:10:09.185647 17969 net.cpp:408] rpn_cls_score <- rpn/output_rpn_relu/3x3_0_split_0
I0117 16:10:09.185655 17969 net.cpp:382] rpn_cls_score -> rpn_cls_score
I0117 16:10:09.187402 17969 net.cpp:124] Setting up rpn_cls_score
I0117 16:10:09.187429 17969 net.cpp:131] Top shape: 1 18 14 14 (3528)
I0117 16:10:09.187433 17969 net.cpp:139] Memory required for data: 117425964
I0117 16:10:09.187440 17969 layer_factory.hpp:77] Creating layer rpn_bbox_pred
I0117 16:10:09.187453 17969 net.cpp:86] Creating Layer rpn_bbox_pred
I0117 16:10:09.187458 17969 net.cpp:408] rpn_bbox_pred <- rpn/output_rpn_relu/3x3_0_split_1
I0117 16:10:09.187465 17969 net.cpp:382] rpn_bbox_pred -> rpn_bbox_pred
I0117 16:10:09.189318 17969 net.cpp:124] Setting up rpn_bbox_pred
I0117 16:10:09.189334 17969 net.cpp:131] Top shape: 1 36 14 14 (7056)
I0117 16:10:09.189350 17969 net.cpp:139] Memory required for data: 117454188
I0117 16:10:09.189357 17969 layer_factory.hpp:77] Creating layer rpn_cls_score_reshape
I0117 16:10:09.189368 17969 net.cpp:86] Creating Layer rpn_cls_score_reshape
I0117 16:10:09.189373 17969 net.cpp:408] rpn_cls_score_reshape <- rpn_cls_score
I0117 16:10:09.189379 17969 net.cpp:382] rpn_cls_score_reshape -> rpn_cls_score_reshape
I0117 16:10:09.189432 17969 net.cpp:124] Setting up rpn_cls_score_reshape
I0117 16:10:09.189445 17969 net.cpp:131] Top shape: 1 2 126 14 (3528)
I0117 16:10:09.189448 17969 net.cpp:139] Memory required for data: 117468300
I0117 16:10:09.189452 17969 layer_factory.hpp:77] Creating layer rpn_cls_prob
I0117 16:10:09.189460 17969 net.cpp:86] Creating Layer rpn_cls_prob
I0117 16:10:09.189465 17969 net.cpp:408] rpn_cls_prob <- rpn_cls_score_reshape
I0117 16:10:09.189471 17969 net.cpp:382] rpn_cls_prob -> rpn_cls_prob
I0117 16:10:09.189927 17969 net.cpp:124] Setting up rpn_cls_prob
I0117 16:10:09.189951 17969 net.cpp:131] Top shape: 1 2 126 14 (3528)
I0117 16:10:09.189955 17969 net.cpp:139] Memory required for data: 117482412
I0117 16:10:09.189970 17969 layer_factory.hpp:77] Creating layer rpn_cls_prob_reshape
I0117 16:10:09.189990 17969 net.cpp:86] Creating Layer rpn_cls_prob_reshape
I0117 16:10:09.189993 17969 net.cpp:408] rpn_cls_prob_reshape <- rpn_cls_prob
I0117 16:10:09.190001 17969 net.cpp:382] rpn_cls_prob_reshape -> rpn_cls_prob_reshape
I0117 16:10:09.190035 17969 net.cpp:124] Setting up rpn_cls_prob_reshape
I0117 16:10:09.190042 17969 net.cpp:131] Top shape: 1 18 14 14 (3528)
I0117 16:10:09.190045 17969 net.cpp:139] Memory required for data: 117496524
I0117 16:10:09.190048 17969 layer_factory.hpp:77] Creating layer proposal
I0117 16:10:09.191052 17969 net.cpp:86] Creating Layer proposal
I0117 16:10:09.191066 17969 net.cpp:408] proposal <- rpn_cls_prob_reshape
I0117 16:10:09.191072 17969 net.cpp:408] proposal <- rpn_bbox_pred
I0117 16:10:09.191076 17969 net.cpp:408] proposal <- im_info
I0117 16:10:09.191082 17969 net.cpp:382] proposal -> rois
I0117 16:10:09.191963 17969 net.cpp:124] Setting up proposal
I0117 16:10:09.191978 17969 net.cpp:131] Top shape: 1 5 (5)
I0117 16:10:09.191982 17969 net.cpp:139] Memory required for data: 117496544
I0117 16:10:09.191985 17969 layer_factory.hpp:77] Creating layer roi_pool5
I0117 16:10:09.191993 17969 net.cpp:86] Creating Layer roi_pool5
I0117 16:10:09.191998 17969 net.cpp:408] roi_pool5 <- conv5_3_relu5_3_0_split_1
I0117 16:10:09.192001 17969 net.cpp:408] roi_pool5 <- rois
I0117 16:10:09.192008 17969 net.cpp:382] roi_pool5 -> pool5
I0117 16:10:09.192020 17969 roi_pooling_layer.cpp:30] Spatial scale: 0.0625
I0117 16:10:09.192075 17969 net.cpp:124] Setting up roi_pool5
I0117 16:10:09.192085 17969 net.cpp:131] Top shape: 1 512 7 7 (25088)
I0117 16:10:09.192090 17969 net.cpp:139] Memory required for data: 117596896
I0117 16:10:09.192092 17969 layer_factory.hpp:77] Creating layer fc6
I0117 16:10:09.192099 17969 net.cpp:86] Creating Layer fc6
I0117 16:10:09.192103 17969 net.cpp:408] fc6 <- pool5
I0117 16:10:09.192111 17969 net.cpp:382] fc6 -> fc6
I0117 16:10:09.454998 17969 net.cpp:124] Setting up fc6
I0117 16:10:09.455040 17969 net.cpp:131] Top shape: 1 4096 (4096)
I0117 16:10:09.455044 17969 net.cpp:139] Memory required for data: 117613280
I0117 16:10:09.455067 17969 layer_factory.hpp:77] Creating layer relu6
I0117 16:10:09.455080 17969 net.cpp:86] Creating Layer relu6
I0117 16:10:09.455085 17969 net.cpp:408] relu6 <- fc6
I0117 16:10:09.455091 17969 net.cpp:369] relu6 -> fc6 (in-place)
I0117 16:10:09.455871 17969 net.cpp:124] Setting up relu6
I0117 16:10:09.455885 17969 net.cpp:131] Top shape: 1 4096 (4096)
I0117 16:10:09.455888 17969 net.cpp:139] Memory required for data: 117629664
I0117 16:10:09.455893 17969 layer_factory.hpp:77] Creating layer drop6
I0117 16:10:09.455900 17969 net.cpp:86] Creating Layer drop6
I0117 16:10:09.455904 17969 net.cpp:408] drop6 <- fc6
I0117 16:10:09.455911 17969 net.cpp:369] drop6 -> fc6 (in-place)
I0117 16:10:09.455936 17969 net.cpp:124] Setting up drop6
I0117 16:10:09.455952 17969 net.cpp:131] Top shape: 1 4096 (4096)
I0117 16:10:09.455955 17969 net.cpp:139] Memory required for data: 117646048
I0117 16:10:09.455960 17969 layer_factory.hpp:77] Creating layer fc7
I0117 16:10:09.455981 17969 net.cpp:86] Creating Layer fc7
I0117 16:10:09.455986 17969 net.cpp:408] fc7 <- fc6
I0117 16:10:09.456004 17969 net.cpp:382] fc7 -> fc7
I0117 16:10:09.500490 17969 net.cpp:124] Setting up fc7
I0117 16:10:09.500531 17969 net.cpp:131] Top shape: 1 4096 (4096)
I0117 16:10:09.500535 17969 net.cpp:139] Memory required for data: 117662432
I0117 16:10:09.500546 17969 layer_factory.hpp:77] Creating layer relu7
I0117 16:10:09.500560 17969 net.cpp:86] Creating Layer relu7
I0117 16:10:09.500566 17969 net.cpp:408] relu7 <- fc7
I0117 16:10:09.500572 17969 net.cpp:369] relu7 -> fc7 (in-place)
I0117 16:10:09.501066 17969 net.cpp:124] Setting up relu7
I0117 16:10:09.501081 17969 net.cpp:131] Top shape: 1 4096 (4096)
I0117 16:10:09.501085 17969 net.cpp:139] Memory required for data: 117678816
I0117 16:10:09.501088 17969 layer_factory.hpp:77] Creating layer drop7
I0117 16:10:09.501107 17969 net.cpp:86] Creating Layer drop7
I0117 16:10:09.501111 17969 net.cpp:408] drop7 <- fc7
I0117 16:10:09.501119 17969 net.cpp:369] drop7 -> fc7 (in-place)
I0117 16:10:09.501149 17969 net.cpp:124] Setting up drop7
I0117 16:10:09.501158 17969 net.cpp:131] Top shape: 1 4096 (4096)
I0117 16:10:09.501161 17969 net.cpp:139] Memory required for data: 117695200
I0117 16:10:09.501165 17969 layer_factory.hpp:77] Creating layer fc7_drop7_0_split
I0117 16:10:09.501171 17969 net.cpp:86] Creating Layer fc7_drop7_0_split
I0117 16:10:09.501175 17969 net.cpp:408] fc7_drop7_0_split <- fc7
I0117 16:10:09.501183 17969 net.cpp:382] fc7_drop7_0_split -> fc7_drop7_0_split_0
I0117 16:10:09.501191 17969 net.cpp:382] fc7_drop7_0_split -> fc7_drop7_0_split_1
I0117 16:10:09.501227 17969 net.cpp:124] Setting up fc7_drop7_0_split
I0117 16:10:09.501236 17969 net.cpp:131] Top shape: 1 4096 (4096)
I0117 16:10:09.501240 17969 net.cpp:131] Top shape: 1 4096 (4096)
I0117 16:10:09.501243 17969 net.cpp:139] Memory required for data: 117727968
I0117 16:10:09.501247 17969 layer_factory.hpp:77] Creating layer cls_score
I0117 16:10:09.501260 17969 net.cpp:86] Creating Layer cls_score
I0117 16:10:09.501263 17969 net.cpp:408] cls_score <- fc7_drop7_0_split_0
I0117 16:10:09.501272 17969 net.cpp:382] cls_score -> cls_score
I0117 16:10:09.501807 17969 net.cpp:124] Setting up cls_score
I0117 16:10:09.501818 17969 net.cpp:131] Top shape: 1 9 (9)
I0117 16:10:09.501821 17969 net.cpp:139] Memory required for data: 117728004
I0117 16:10:09.501828 17969 layer_factory.hpp:77] Creating layer bbox_pred
I0117 16:10:09.501837 17969 net.cpp:86] Creating Layer bbox_pred
I0117 16:10:09.501842 17969 net.cpp:408] bbox_pred <- fc7_drop7_0_split_1
I0117 16:10:09.501847 17969 net.cpp:382] bbox_pred -> bbox_pred
I0117 16:10:09.503448 17969 net.cpp:124] Setting up bbox_pred
I0117 16:10:09.503458 17969 net.cpp:131] Top shape: 1 36 (36)
I0117 16:10:09.503473 17969 net.cpp:139] Memory required for data: 117728148
I0117 16:10:09.503479 17969 layer_factory.hpp:77] Creating layer cls_prob
I0117 16:10:09.503485 17969 net.cpp:86] Creating Layer cls_prob
I0117 16:10:09.503489 17969 net.cpp:408] cls_prob <- cls_score
I0117 16:10:09.503494 17969 net.cpp:382] cls_prob -> cls_prob
I0117 16:10:09.507468 17969 net.cpp:124] Setting up cls_prob
I0117 16:10:09.507485 17969 net.cpp:131] Top shape: 1 9 (9)
I0117 16:10:09.507500 17969 net.cpp:139] Memory required for data: 117728184
I0117 16:10:09.507504 17969 net.cpp:202] cls_prob does not need backward computation.
I0117 16:10:09.507509 17969 net.cpp:202] bbox_pred does not need backward computation.
I0117 16:10:09.507513 17969 net.cpp:202] cls_score does not need backward computation.
I0117 16:10:09.507516 17969 net.cpp:202] fc7_drop7_0_split does not need backward computation.
…
