…
snapshot_prefix: "vgg16_faster_rcnn"
average_loss: 100
iter_size: 2
I0109 18:13:10.991905 32941 solver.cpp:92] Creating training net from train_net file: models/pascal_voc/VGG16/faster_rcnn_end2end/train.prototxt
I0109 18:13:10.992533 32941 net.cpp:53] Initializing net from parameters: 
name: "VGG_ILSVRC_16_layers"
state {
  phase: TRAIN
}
layer {
  name: "input-data"
  type: "Python"
  top: "data"
  top: "im_info"
  top: "gt_boxes"
  python_param {
    module: "roi_data_layer.layer"
    layer: "RoIDataLayer"
    param_str: "\'num_classes\': 9"
  }
}
layer {
  name: "conv1_1"
  type: "Convolution"
  bottom: "data"
  top: "conv1_1"
  param {
    lr_mult: 0
    decay_mult: 0
  }
  param {
    lr_mult: 0
    decay_mult: 0
  }
  convolution_param {
    num_output: 64
    pad: 1
    kernel_size: 3
  }
}
layer {
  name: "relu1_1"
  type: "ReLU"
  bottom: "conv1_1"
  top: "conv1_1"
}
layer {
  name: "conv1_2"
  type: "Convolution"
  bottom: "conv1_1"
  top: "conv1_2"
  param {
    lr_mult: 0
    decay_mult: 0
  }
  param {
    lr_mult: 0
    decay_mult: 0
  }
  convolution_param {
    num_output: 64
    pad: 1
    kernel_size: 3
  }
}
layer {
  name: "relu1_2"
  type: "ReLU"
  bottom: "conv1_2"
  top: "conv1_2"
}
layer {
  name: "pool1"
  type: "Pooling"
  bottom: "conv1_2"
  top: "pool1"
  pooling_param {
    pool: MAX
    kernel_size: 2
    stride: 2
  }
}
layer {
  name: "conv2_1"
  type: "Convolution"
  bottom: "pool1"
  top: "conv2_1"
  param {
    lr_mult: 0
    decay_mult: 0
  }
  param {
    lr_mult: 0
    decay_mult: 0
  }
  convolution_param {
    num_output: 128
    pad: 1
    kernel_size: 3
  }
}
layer {
  name: "relu2_1"
  type: "ReLU"
  bottom: "conv2_1"
  top: "conv2_1"
}
layer {
  name: "conv2_2"
  type: "Convolution"
  bottom: "conv2_1"
  top: "conv2_2"
  param {
    lr_mult: 0
    decay_mult: 0
  }
  param {
    lr_mult: 0
    decay_mult: 0
  }
  convolution_param {
    num_output: 128
    pad: 1
    kernel_size: 3
  }
}
layer {
  name: "relu2_2"
  type: "ReLU"
  bottom: "conv2_2"
  top: "conv2_2"
}
layer {
  name: "pool2"
  type: "Pooling"
  bottom: "conv2_2"
  top: "pool2"
  pooling_param {
    pool: MAX
    kernel_size: 2
    stride: 2
  }
}
layer {
  name: "conv3_1"
  type: "Convolution"
  bottom: "pool2"
  top: "conv3_1"
  param {
    lr_mult: 1
  }
  param {
    lr_mult: 2
  }
  convolution_param {
    num_output: 256
    pad: 1
    kernel_size: 3
  }
}
layer {
  name: "relu3_1"
  type: "ReLU"
  bottom: "conv3_1"
  top: "conv3_1"
}
layer {
  name: "conv3_2"
  type: "Convolution"
  bottom: "conv3_1"
  top: "conv3_2"
  param {
    lr_mult: 1
  }
  param {
    lr_mult: 2
  }
  convolution_param {
    num_output: 256
    pad: 1
    kernel_size: 3
  }
}
layer {
  name: "relu3_2"
  type: "ReLU"
  bottom: "conv3_2"
  top: "conv3_2"
}
layer {
  name: "conv3_3"
  type: "Convolution"
  bottom: "conv3_2"
  top: "conv3_3"
  param {
    lr_mult: 1
  }
  param {
    lr_mult: 2
  }
  convolution_param {
    num_output: 256
    pad: 1
    kernel_size: 3
  }
}
layer {
  name: "relu3_3"
  type: "ReLU"
  bottom: "conv3_3"
  top: "conv3_3"
}
layer {
  name: "pool3"
  type: "Pooling"
  bottom: "conv3_3"
  top: "pool3"
  pooling_param {
    pool: MAX
    kernel_size: 2
    stride: 2
  }
}
layer {
  name: "conv4_1"
  type: "Convolution"
  bottom: "pool3"
  top: "conv4_1"
  param {
    lr_mult: 1
  }
  param {
    lr_mult: 2
  }
  convolution_param {
    num_output: 512
    pad: 1
    kernel_size: 3
  }
}
layer {
  name: "relu4_1"
  type: "ReLU"
  bottom: "conv4_1"
  top: "conv4_1"
}
layer {
  name: "conv4_2"
  type: "Convolution"
  bottom: "conv4_1"
  top: "conv4_2"
  param {
    lr_mult: 1
  }
  param {
    lr_mult: 2
  }
  convolution_param {
    num_output: 512
    pad: 1
    kernel_size: 3
  }
}
layer {
  name: "relu4_2"
  type: "ReLU"
  bottom: "conv4_2"
  top: "conv4_2"
}
layer {
  name: "conv4_3"
  type: "Convolution"
  bottom: "conv4_2"
  top: "conv4_3"
  param {
    lr_mult: 1
  }
  param {
    lr_mult: 2
  }
  convolution_param {
    num_output: 512
    pad: 1
    kernel_size: 3
  }
}
layer {
  name: "relu4_3"
  type: "ReLU"
  bottom: "conv4_3"
  top: "conv4_3"
}
layer {
  name: "pool4"
  type: "Pooling"
  bottom: "conv4_3"
  top: "pool4"
  pooling_param {
    pool: MAX
    kernel_size: 2
    stride: 2
  }
}
layer {
  name: "conv5_1"
  type: "Convolution"
  bottom: "pool4"
  top: "conv5_1"
  param {
    lr_mult: 1
  }
  param {
    lr_mult: 2
  }
  convolution_param {
    num_output: 512
    pad: 1
    kernel_size: 3
  }
}
layer {
  name: "relu5_1"
  type: "ReLU"
  bottom: "conv5_1"
  top: "conv5_1"
}
layer {
  name: "conv5_2"
  type: "Convolution"
  bottom: "conv5_1"
  top: "conv5_2"
  param {
    lr_mult: 1
  }
  param {
    lr_mult: 2
  }
  convolution_param {
    num_output: 512
    pad: 1
    kernel_size: 3
  }
}
layer {
  name: "relu5_2"
  type: "ReLU"
  bottom: "conv5_2"
  top: "conv5_2"
}
layer {
  name: "conv5_3"
  type: "Convolution"
  bottom: "conv5_2"
  top: "conv5_3"
  param {
    lr_mult: 1
  }
  param {
    lr_mult: 2
  }
  convolution_param {
    num_output: 512
    pad: 1
    kernel_size: 3
  }
}
layer {
  name: "relu5_3"
  type: "ReLU"
  bottom: "conv5_3"
  top: "conv5_3"
}
layer {
  name: "rpn_conv/3x3"
  type: "Convolution"
  bottom: "conv5_3"
  top: "rpn/output"
  param {
    lr_mult: 1
  }
  param {
    lr_mult: 2
  }
  convolution_param {
    num_output: 512
    pad: 1
    kernel_size: 3
    stride: 1
    weight_filler {
      type: "gaussian"
      std: 0.01
    }
    bias_filler {
      type: "constant"
      value: 0
    }
  }
}
layer {
  name: "rpn_relu/3x3"
  type: "ReLU"
  bottom: "rpn/output"
  top: "rpn/output"
}
layer {
  name: "rpn_cls_score"
  type: "Convolution"
  bottom: "rpn/output"
  top: "rpn_cls_score"
  param {
    lr_mult: 1
  }
  param {
    lr_mult: 2
  }
  convolution_param {
    num_output: 18
    pad: 0
    kernel_size: 1
    stride: 1
    weight_filler {
      type: "gaussian"
      std: 0.01
    }
    bias_filler {
      type: "constant"
      value: 0
    }
  }
}
layer {
  name: "rpn_bbox_pred"
  type: "Convolution"
  bottom: "rpn/output"
  top: "rpn_bbox_pred"
  param {
    lr_mult: 1
  }
  param {
    lr_mult: 2
  }
  convolution_param {
    num_output: 36
    pad: 0
    kernel_size: 1
    stride: 1
    weight_filler {
      type: "gaussian"
      std: 0.01
    }
    bias_filler {
      type: "constant"
      value: 0
    }
  }
}
layer {
  name: "rpn_cls_score_reshape"
  type: "Reshape"
  bottom: "rpn_cls_score"
  top: "rpn_cls_score_reshape"
  reshape_param {
    shape {
      dim: 0
      dim: 2
      dim: -1
      dim: 0
    }
  }
}
layer {
  name: "rpn-data"
  type: "Python"
  bottom: "rpn_cls_score"
  bottom: "gt_boxes"
  bottom: "im_info"
  bottom: "data"
  top: "rpn_labels"
  top: "rpn_bbox_targets"
  top: "rpn_bbox_inside_weights"
  top: "rpn_bbox_outside_weights"
  python_param {
    module: "rpn.anchor_target_layer"
    layer: "AnchorTargetLayer"
    param_str: "\'feat_stride\': 16"
  }
}
layer {
  name: "rpn_loss_cls"
  type: "SoftmaxWithLoss"
  bottom: "rpn_cls_score_reshape"
  bottom: "rpn_labels"
  top: "rpn_cls_loss"
  loss_weight: 1
  propagate_down: true
  propagate_down: false
  loss_param {
    ignore_label: -1
    normalize: true
  }
}
layer {
  name: "rpn_loss_bbox"
  type: "SmoothL1Loss"
  bottom: "rpn_bbox_pred"
  bottom: "rpn_bbox_targets"
  bottom: "rpn_bbox_inside_weights"
  bottom: "rpn_bbox_outside_weights"
  top: "rpn_loss_bbox"
  loss_weight: 1
  smooth_l1_loss_param {
    sigma: 3
  }
}
layer {
  name: "rpn_cls_prob"
  type: "Softmax"
  bottom: "rpn_cls_score_reshape"
  top: "rpn_cls_prob"
}
layer {
  name: "rpn_cls_prob_reshape"
  type: "Reshape"
  bottom: "rpn_cls_prob"
  top: "rpn_cls_prob_reshape"
  reshape_param {
    shape {
      dim: 0
      dim: 18
      dim: -1
      dim: 0
    }
  }
}
layer {
  name: "proposal"
  type: "Python"
  bottom: "rpn_cls_prob_reshape"
  bottom: "rpn_bbox_pred"
  bottom: "im_info"
  top: "rpn_rois"
  python_param {
    module: "rpn.proposal_layer"
    layer: "ProposalLayer"
    param_str: "\'feat_stride\': 16"
  }
}
layer {
  name: "roi-data"
  type: "Python"
  bottom: "rpn_rois"
  bottom: "gt_boxes"
  top: "rois"
  top: "labels"
  top: "bbox_targets"
  top: "bbox_inside_weights"
  top: "bbox_outside_weights"
  python_param {
    module: "rpn.proposal_target_layer"
    layer: "ProposalTargetLayer"
    param_str: "\'num_classes\': 9"
  }
}
layer {
  name: "roi_pool5"
  type: "ROIPooling"
  bottom: "conv5_3"
  bottom: "rois"
  top: "pool5"
  roi_pooling_param {
    pooled_h: 7
    pooled_w: 7
    spatial_scale: 0.0625
  }
}
layer {
  name: "fc6"
  type: "InnerProduct"
  bottom: "pool5"
  top: "fc6"
  param {
    lr_mult: 1
  }
  param {
    lr_mult: 2
  }
  inner_product_param {
    num_output: 4096
  }
}
layer {
  name: "relu6"
  type: "ReLU"
  bottom: "fc6"
  top: "fc6"
}
layer {
  name: "drop6"
  type: "Dropout"
  bottom: "fc6"
  top: "fc6"
  dropout_param {
    dropout_ratio: 0.5
  }
}
layer {
  name: "fc7"
  type: "InnerProduct"
  bottom: "fc6"
  top: "fc7"
  param {
    lr_mult: 1
  }
  param {
    lr_mult: 2
  }
  inner_product_param {
    num_output: 4096
  }
}
layer {
  name: "relu7"
  type: "ReLU"
  bottom: "fc7"
  top: "fc7"
}
layer {
  name: "drop7"
  type: "Dropout"
  bottom: "fc7"
  top: "fc7"
  dropout_param {
    dropout_ratio: 0.5
  }
}
layer {
  name: "cls_score"
  type: "InnerProduct"
  bottom: "fc7"
  top: "cls_score"
  param {
    lr_mult: 1
  }
  param {
    lr_mult: 2
  }
  inner_product_param {
    num_output: 9
    weight_filler {
      type: "gaussian"
      std: 0.01
    }
    bias_filler {
      type: "constant"
      value: 0
    }
  }
}
layer {
  name: "bbox_pred"
  type: "InnerProduct"
  bottom: "fc7"
  top: "bbox_pred"
  param {
    lr_mult: 1
  }
  param {
    lr_mult: 2
  }
  inner_product_param {
    num_output: 36
    weight_filler {
      type: "gaussian"
      std: 0.001
    }
    bias_filler {
      type: "constant"
      value: 0
    }
  }
}
layer {
  name: "loss_cls"
  type: "SoftmaxWithLoss"
  bottom: "cls_score"
  bottom: "labels"
  top: "loss_cls"
  loss_weight: 1
  propagate_down: true
  propagate_down: false
}
layer {
  name: "loss_bbox"
  type: "SmoothL1Loss"
  bottom: "bbox_pred"
  bottom: "bbox_targets"
  bottom: "bbox_inside_weights"
  bottom: "bbox_outside_weights"
  top: "loss_bbox"
  loss_weight: 1
}
I0109 18:13:10.992746 32941 layer_factory.hpp:77] Creating layer input-data
I0109 18:13:11.014134 32941 net.cpp:86] Creating Layer input-data
I0109 18:13:11.014163 32941 net.cpp:382] input-data -> data
I0109 18:13:11.014176 32941 net.cpp:382] input-data -> im_info
I0109 18:13:11.014183 32941 net.cpp:382] input-data -> gt_boxes
RoiDataLayer: name_to_top: {'im_info': 1, 'gt_boxes': 2, 'data': 0}
I0109 18:13:11.016321 32941 net.cpp:124] Setting up input-data
I0109 18:13:11.016338 32941 net.cpp:131] Top shape: 1 3 600 1000 (1800000)
I0109 18:13:11.016348 32941 net.cpp:131] Top shape: 1 3 (3)
I0109 18:13:11.016353 32941 net.cpp:131] Top shape: 1 4 (4)
I0109 18:13:11.016356 32941 net.cpp:139] Memory required for data: 7200028
I0109 18:13:11.016362 32941 layer_factory.hpp:77] Creating layer data_input-data_0_split
I0109 18:13:11.016373 32941 net.cpp:86] Creating Layer data_input-data_0_split
I0109 18:13:11.016378 32941 net.cpp:408] data_input-data_0_split <- data
I0109 18:13:11.016386 32941 net.cpp:382] data_input-data_0_split -> data_input-data_0_split_0
I0109 18:13:11.016393 32941 net.cpp:382] data_input-data_0_split -> data_input-data_0_split_1
I0109 18:13:11.016427 32941 net.cpp:124] Setting up data_input-data_0_split
I0109 18:13:11.016436 32941 net.cpp:131] Top shape: 1 3 600 1000 (1800000)
I0109 18:13:11.016441 32941 net.cpp:131] Top shape: 1 3 600 1000 (1800000)
I0109 18:13:11.016444 32941 net.cpp:139] Memory required for data: 21600028
I0109 18:13:11.016448 32941 layer_factory.hpp:77] Creating layer im_info_input-data_1_split
I0109 18:13:11.016454 32941 net.cpp:86] Creating Layer im_info_input-data_1_split
I0109 18:13:11.016458 32941 net.cpp:408] im_info_input-data_1_split <- im_info
I0109 18:13:11.016463 32941 net.cpp:382] im_info_input-data_1_split -> im_info_input-data_1_split_0
I0109 18:13:11.016470 32941 net.cpp:382] im_info_input-data_1_split -> im_info_input-data_1_split_1
I0109 18:13:11.016495 32941 net.cpp:124] Setting up im_info_input-data_1_split
I0109 18:13:11.016502 32941 net.cpp:131] Top shape: 1 3 (3)
I0109 18:13:11.016507 32941 net.cpp:131] Top shape: 1 3 (3)
I0109 18:13:11.016510 32941 net.cpp:139] Memory required for data: 21600052
I0109 18:13:11.016513 32941 layer_factory.hpp:77] Creating layer gt_boxes_input-data_2_split
I0109 18:13:11.016520 32941 net.cpp:86] Creating Layer gt_boxes_input-data_2_split
I0109 18:13:11.016522 32941 net.cpp:408] gt_boxes_input-data_2_split <- gt_boxes
I0109 18:13:11.016528 32941 net.cpp:382] gt_boxes_input-data_2_split -> gt_boxes_input-data_2_split_0
I0109 18:13:11.016535 32941 net.cpp:382] gt_boxes_input-data_2_split -> gt_boxes_input-data_2_split_1
I0109 18:13:11.016561 32941 net.cpp:124] Setting up gt_boxes_input-data_2_split
I0109 18:13:11.016569 32941 net.cpp:131] Top shape: 1 4 (4)
I0109 18:13:11.016573 32941 net.cpp:131] Top shape: 1 4 (4)
I0109 18:13:11.016577 32941 net.cpp:139] Memory required for data: 21600084
I0109 18:13:11.016580 32941 layer_factory.hpp:77] Creating layer conv1_1
I0109 18:13:11.016592 32941 net.cpp:86] Creating Layer conv1_1
I0109 18:13:11.016595 32941 net.cpp:408] conv1_1 <- data_input-data_0_split_0
I0109 18:13:11.016602 32941 net.cpp:382] conv1_1 -> conv1_1
I0109 18:13:12.148244 32941 net.cpp:124] Setting up conv1_1
I0109 18:13:12.148281 32941 net.cpp:131] Top shape: 1 64 600 1000 (38400000)
I0109 18:13:12.148288 32941 net.cpp:139] Memory required for data: 175200084
I0109 18:13:12.148313 32941 layer_factory.hpp:77] Creating layer relu1_1
I0109 18:13:12.148332 32941 net.cpp:86] Creating Layer relu1_1
I0109 18:13:12.148342 32941 net.cpp:408] relu1_1 <- conv1_1
I0109 18:13:12.148350 32941 net.cpp:369] relu1_1 -> conv1_1 (in-place)
I0109 18:13:12.148669 32941 net.cpp:124] Setting up relu1_1
I0109 18:13:12.148682 32941 net.cpp:131] Top shape: 1 64 600 1000 (38400000)
I0109 18:13:12.148686 32941 net.cpp:139] Memory required for data: 328800084
I0109 18:13:12.148690 32941 layer_factory.hpp:77] Creating layer conv1_2
I0109 18:13:12.148706 32941 net.cpp:86] Creating Layer conv1_2
I0109 18:13:12.148711 32941 net.cpp:408] conv1_2 <- conv1_1
I0109 18:13:12.148718 32941 net.cpp:382] conv1_2 -> conv1_2
I0109 18:13:12.154424 32941 net.cpp:124] Setting up conv1_2
I0109 18:13:12.154445 32941 net.cpp:131] Top shape: 1 64 600 1000 (38400000)
I0109 18:13:12.154450 32941 net.cpp:139] Memory required for data: 482400084
I0109 18:13:12.154461 32941 layer_factory.hpp:77] Creating layer relu1_2
I0109 18:13:12.154470 32941 net.cpp:86] Creating Layer relu1_2
I0109 18:13:12.154475 32941 net.cpp:408] relu1_2 <- conv1_2
I0109 18:13:12.154482 32941 net.cpp:369] relu1_2 -> conv1_2 (in-place)
I0109 18:13:12.154996 32941 net.cpp:124] Setting up relu1_2
I0109 18:13:12.155014 32941 net.cpp:131] Top shape: 1 64 600 1000 (38400000)
I0109 18:13:12.155017 32941 net.cpp:139] Memory required for data: 636000084
I0109 18:13:12.155021 32941 layer_factory.hpp:77] Creating layer pool1
I0109 18:13:12.155035 32941 net.cpp:86] Creating Layer pool1
I0109 18:13:12.155040 32941 net.cpp:408] pool1 <- conv1_2
I0109 18:13:12.155048 32941 net.cpp:382] pool1 -> pool1
I0109 18:13:12.155092 32941 net.cpp:124] Setting up pool1
I0109 18:13:12.155099 32941 net.cpp:131] Top shape: 1 64 300 500 (9600000)
I0109 18:13:12.155102 32941 net.cpp:139] Memory required for data: 674400084
I0109 18:13:12.155107 32941 layer_factory.hpp:77] Creating layer conv2_1
I0109 18:13:12.155119 32941 net.cpp:86] Creating Layer conv2_1
I0109 18:13:12.155123 32941 net.cpp:408] conv2_1 <- pool1
I0109 18:13:12.155130 32941 net.cpp:382] conv2_1 -> conv2_1
I0109 18:13:12.157040 32941 net.cpp:124] Setting up conv2_1
I0109 18:13:12.157058 32941 net.cpp:131] Top shape: 1 128 300 500 (19200000)
I0109 18:13:12.157063 32941 net.cpp:139] Memory required for data: 751200084
I0109 18:13:12.157074 32941 layer_factory.hpp:77] Creating layer relu2_1
I0109 18:13:12.157083 32941 net.cpp:86] Creating Layer relu2_1
I0109 18:13:12.157088 32941 net.cpp:408] relu2_1 <- conv2_1
I0109 18:13:12.157094 32941 net.cpp:369] relu2_1 -> conv2_1 (in-place)
I0109 18:13:12.157444 32941 net.cpp:124] Setting up relu2_1
I0109 18:13:12.157457 32941 net.cpp:131] Top shape: 1 128 300 500 (19200000)
I0109 18:13:12.157461 32941 net.cpp:139] Memory required for data: 828000084
I0109 18:13:12.157465 32941 layer_factory.hpp:77] Creating layer conv2_2
I0109 18:13:12.157477 32941 net.cpp:86] Creating Layer conv2_2
I0109 18:13:12.157481 32941 net.cpp:408] conv2_2 <- conv2_1
I0109 18:13:12.157490 32941 net.cpp:382] conv2_2 -> conv2_2
I0109 18:13:12.167740 32941 net.cpp:124] Setting up conv2_2
I0109 18:13:12.167793 32941 net.cpp:131] Top shape: 1 128 300 500 (19200000)
I0109 18:13:12.167798 32941 net.cpp:139] Memory required for data: 904800084
I0109 18:13:12.167816 32941 layer_factory.hpp:77] Creating layer relu2_2
I0109 18:13:12.167843 32941 net.cpp:86] Creating Layer relu2_2
I0109 18:13:12.167850 32941 net.cpp:408] relu2_2 <- conv2_2
I0109 18:13:12.167860 32941 net.cpp:369] relu2_2 -> conv2_2 (in-place)
I0109 18:13:12.168442 32941 net.cpp:124] Setting up relu2_2
I0109 18:13:12.168460 32941 net.cpp:131] Top shape: 1 128 300 500 (19200000)
I0109 18:13:12.168463 32941 net.cpp:139] Memory required for data: 981600084
I0109 18:13:12.168468 32941 layer_factory.hpp:77] Creating layer pool2
I0109 18:13:12.168478 32941 net.cpp:86] Creating Layer pool2
I0109 18:13:12.168483 32941 net.cpp:408] pool2 <- conv2_2
I0109 18:13:12.168491 32941 net.cpp:382] pool2 -> pool2
I0109 18:13:12.168547 32941 net.cpp:124] Setting up pool2
I0109 18:13:12.168568 32941 net.cpp:131] Top shape: 1 128 150 250 (4800000)
I0109 18:13:12.168572 32941 net.cpp:139] Memory required for data: 1000800084
I0109 18:13:12.168576 32941 layer_factory.hpp:77] Creating layer conv3_1
I0109 18:13:12.168591 32941 net.cpp:86] Creating Layer conv3_1
I0109 18:13:12.168596 32941 net.cpp:408] conv3_1 <- pool2
I0109 18:13:12.168602 32941 net.cpp:382] conv3_1 -> conv3_1
I0109 18:13:12.173123 32941 net.cpp:124] Setting up conv3_1
I0109 18:13:12.173158 32941 net.cpp:131] Top shape: 1 256 150 250 (9600000)
I0109 18:13:12.173162 32941 net.cpp:139] Memory required for data: 1039200084
I0109 18:13:12.173185 32941 layer_factory.hpp:77] Creating layer relu3_1
I0109 18:13:12.173195 32941 net.cpp:86] Creating Layer relu3_1
I0109 18:13:12.173200 32941 net.cpp:408] relu3_1 <- conv3_1
I0109 18:13:12.173211 32941 net.cpp:369] relu3_1 -> conv3_1 (in-place)
I0109 18:13:12.173779 32941 net.cpp:124] Setting up relu3_1
I0109 18:13:12.173799 32941 net.cpp:131] Top shape: 1 256 150 250 (9600000)
I0109 18:13:12.173804 32941 net.cpp:139] Memory required for data: 1077600084
I0109 18:13:12.173812 32941 layer_factory.hpp:77] Creating layer conv3_2
I0109 18:13:12.173835 32941 net.cpp:86] Creating Layer conv3_2
I0109 18:13:12.173840 32941 net.cpp:408] conv3_2 <- conv3_1
I0109 18:13:12.173852 32941 net.cpp:382] conv3_2 -> conv3_2
I0109 18:13:12.179468 32941 net.cpp:124] Setting up conv3_2
I0109 18:13:12.179517 32941 net.cpp:131] Top shape: 1 256 150 250 (9600000)
I0109 18:13:12.179522 32941 net.cpp:139] Memory required for data: 1116000084
I0109 18:13:12.179538 32941 layer_factory.hpp:77] Creating layer relu3_2
I0109 18:13:12.179554 32941 net.cpp:86] Creating Layer relu3_2
I0109 18:13:12.179560 32941 net.cpp:408] relu3_2 <- conv3_2
I0109 18:13:12.179574 32941 net.cpp:369] relu3_2 -> conv3_2 (in-place)
I0109 18:13:12.183444 32941 net.cpp:124] Setting up relu3_2
I0109 18:13:12.183475 32941 net.cpp:131] Top shape: 1 256 150 250 (9600000)
I0109 18:13:12.183481 32941 net.cpp:139] Memory required for data: 1154400084
I0109 18:13:12.183488 32941 layer_factory.hpp:77] Creating layer conv3_3
I0109 18:13:12.183506 32941 net.cpp:86] Creating Layer conv3_3
I0109 18:13:12.183512 32941 net.cpp:408] conv3_3 <- conv3_2
I0109 18:13:12.183526 32941 net.cpp:382] conv3_3 -> conv3_3
I0109 18:13:12.191293 32941 net.cpp:124] Setting up conv3_3
I0109 18:13:12.191323 32941 net.cpp:131] Top shape: 1 256 150 250 (9600000)
I0109 18:13:12.191329 32941 net.cpp:139] Memory required for data: 1192800084
I0109 18:13:12.191339 32941 layer_factory.hpp:77] Creating layer relu3_3
I0109 18:13:12.191349 32941 net.cpp:86] Creating Layer relu3_3
I0109 18:13:12.191354 32941 net.cpp:408] relu3_3 <- conv3_3
I0109 18:13:12.191365 32941 net.cpp:369] relu3_3 -> conv3_3 (in-place)
I0109 18:13:12.192025 32941 net.cpp:124] Setting up relu3_3
I0109 18:13:12.192041 32941 net.cpp:131] Top shape: 1 256 150 250 (9600000)
I0109 18:13:12.192045 32941 net.cpp:139] Memory required for data: 1231200084
I0109 18:13:12.192051 32941 layer_factory.hpp:77] Creating layer pool3
I0109 18:13:12.192061 32941 net.cpp:86] Creating Layer pool3
I0109 18:13:12.192065 32941 net.cpp:408] pool3 <- conv3_3
I0109 18:13:12.192075 32941 net.cpp:382] pool3 -> pool3
I0109 18:13:12.192121 32941 net.cpp:124] Setting up pool3
I0109 18:13:12.192131 32941 net.cpp:131] Top shape: 1 256 75 125 (2400000)
I0109 18:13:12.192134 32941 net.cpp:139] Memory required for data: 1240800084
I0109 18:13:12.192139 32941 layer_factory.hpp:77] Creating layer conv4_1
I0109 18:13:12.192157 32941 net.cpp:86] Creating Layer conv4_1
I0109 18:13:12.192163 32941 net.cpp:408] conv4_1 <- pool3
I0109 18:13:12.192169 32941 net.cpp:382] conv4_1 -> conv4_1
I0109 18:13:12.198652 32941 net.cpp:124] Setting up conv4_1
I0109 18:13:12.198685 32941 net.cpp:131] Top shape: 1 512 75 125 (4800000)
I0109 18:13:12.198690 32941 net.cpp:139] Memory required for data: 1260000084
I0109 18:13:12.198701 32941 layer_factory.hpp:77] Creating layer relu4_1
I0109 18:13:12.198711 32941 net.cpp:86] Creating Layer relu4_1
I0109 18:13:12.198717 32941 net.cpp:408] relu4_1 <- conv4_1
I0109 18:13:12.198727 32941 net.cpp:369] relu4_1 -> conv4_1 (in-place)
I0109 18:13:12.199157 32941 net.cpp:124] Setting up relu4_1
I0109 18:13:12.199174 32941 net.cpp:131] Top shape: 1 512 75 125 (4800000)
I0109 18:13:12.199178 32941 net.cpp:139] Memory required for data: 1279200084
I0109 18:13:12.199182 32941 layer_factory.hpp:77] Creating layer conv4_2
I0109 18:13:12.199196 32941 net.cpp:86] Creating Layer conv4_2
I0109 18:13:12.199200 32941 net.cpp:408] conv4_2 <- conv4_1
I0109 18:13:12.199208 32941 net.cpp:382] conv4_2 -> conv4_2
I0109 18:13:12.222867 32941 net.cpp:124] Setting up conv4_2
I0109 18:13:12.222904 32941 net.cpp:131] Top shape: 1 512 75 125 (4800000)
I0109 18:13:12.222910 32941 net.cpp:139] Memory required for data: 1298400084
I0109 18:13:12.222930 32941 layer_factory.hpp:77] Creating layer relu4_2
I0109 18:13:12.222942 32941 net.cpp:86] Creating Layer relu4_2
I0109 18:13:12.222947 32941 net.cpp:408] relu4_2 <- conv4_2
I0109 18:13:12.222954 32941 net.cpp:369] relu4_2 -> conv4_2 (in-place)
I0109 18:13:12.223628 32941 net.cpp:124] Setting up relu4_2
I0109 18:13:12.223645 32941 net.cpp:131] Top shape: 1 512 75 125 (4800000)
I0109 18:13:12.223649 32941 net.cpp:139] Memory required for data: 1317600084
I0109 18:13:12.223654 32941 layer_factory.hpp:77] Creating layer conv4_3
I0109 18:13:12.223666 32941 net.cpp:86] Creating Layer conv4_3
I0109 18:13:12.223671 32941 net.cpp:408] conv4_3 <- conv4_2
I0109 18:13:12.223680 32941 net.cpp:382] conv4_3 -> conv4_3
I0109 18:13:12.235900 32941 net.cpp:124] Setting up conv4_3
I0109 18:13:12.235935 32941 net.cpp:131] Top shape: 1 512 75 125 (4800000)
I0109 18:13:12.235939 32941 net.cpp:139] Memory required for data: 1336800084
I0109 18:13:12.235951 32941 layer_factory.hpp:77] Creating layer relu4_3
I0109 18:13:12.235961 32941 net.cpp:86] Creating Layer relu4_3
I0109 18:13:12.235967 32941 net.cpp:408] relu4_3 <- conv4_3
I0109 18:13:12.235975 32941 net.cpp:369] relu4_3 -> conv4_3 (in-place)
I0109 18:13:12.236560 32941 net.cpp:124] Setting up relu4_3
I0109 18:13:12.236577 32941 net.cpp:131] Top shape: 1 512 75 125 (4800000)
I0109 18:13:12.236582 32941 net.cpp:139] Memory required for data: 1356000084
I0109 18:13:12.236585 32941 layer_factory.hpp:77] Creating layer pool4
I0109 18:13:12.236595 32941 net.cpp:86] Creating Layer pool4
I0109 18:13:12.236599 32941 net.cpp:408] pool4 <- conv4_3
I0109 18:13:12.236606 32941 net.cpp:382] pool4 -> pool4
I0109 18:13:12.236654 32941 net.cpp:124] Setting up pool4
I0109 18:13:12.236662 32941 net.cpp:131] Top shape: 1 512 38 63 (1225728)
I0109 18:13:12.236666 32941 net.cpp:139] Memory required for data: 1360902996
I0109 18:13:12.236671 32941 layer_factory.hpp:77] Creating layer conv5_1
I0109 18:13:12.236685 32941 net.cpp:86] Creating Layer conv5_1
I0109 18:13:12.236690 32941 net.cpp:408] conv5_1 <- pool4
I0109 18:13:12.236696 32941 net.cpp:382] conv5_1 -> conv5_1
I0109 18:13:12.250447 32941 net.cpp:124] Setting up conv5_1
I0109 18:13:12.250484 32941 net.cpp:131] Top shape: 1 512 38 63 (1225728)
I0109 18:13:12.250489 32941 net.cpp:139] Memory required for data: 1365805908
I0109 18:13:12.250500 32941 layer_factory.hpp:77] Creating layer relu5_1
I0109 18:13:12.250511 32941 net.cpp:86] Creating Layer relu5_1
I0109 18:13:12.250517 32941 net.cpp:408] relu5_1 <- conv5_1
I0109 18:13:12.250527 32941 net.cpp:369] relu5_1 -> conv5_1 (in-place)
I0109 18:13:12.251180 32941 net.cpp:124] Setting up relu5_1
I0109 18:13:12.251197 32941 net.cpp:131] Top shape: 1 512 38 63 (1225728)
I0109 18:13:12.251201 32941 net.cpp:139] Memory required for data: 1370708820
I0109 18:13:12.251205 32941 layer_factory.hpp:77] Creating layer conv5_2
I0109 18:13:12.251219 32941 net.cpp:86] Creating Layer conv5_2
I0109 18:13:12.251224 32941 net.cpp:408] conv5_2 <- conv5_1
I0109 18:13:12.251233 32941 net.cpp:382] conv5_2 -> conv5_2
I0109 18:13:12.260939 32941 net.cpp:124] Setting up conv5_2
I0109 18:13:12.260974 32941 net.cpp:131] Top shape: 1 512 38 63 (1225728)
I0109 18:13:12.260979 32941 net.cpp:139] Memory required for data: 1375611732
I0109 18:13:12.260991 32941 layer_factory.hpp:77] Creating layer relu5_2
I0109 18:13:12.261003 32941 net.cpp:86] Creating Layer relu5_2
I0109 18:13:12.261008 32941 net.cpp:408] relu5_2 <- conv5_2
I0109 18:13:12.261018 32941 net.cpp:369] relu5_2 -> conv5_2 (in-place)
I0109 18:13:12.261449 32941 net.cpp:124] Setting up relu5_2
I0109 18:13:12.261464 32941 net.cpp:131] Top shape: 1 512 38 63 (1225728)
I0109 18:13:12.261467 32941 net.cpp:139] Memory required for data: 1380514644
I0109 18:13:12.261472 32941 layer_factory.hpp:77] Creating layer conv5_3
I0109 18:13:12.261493 32941 net.cpp:86] Creating Layer conv5_3
I0109 18:13:12.261498 32941 net.cpp:408] conv5_3 <- conv5_2
I0109 18:13:12.261505 32941 net.cpp:382] conv5_3 -> conv5_3
I0109 18:13:12.272007 32941 net.cpp:124] Setting up conv5_3
I0109 18:13:12.272043 32941 net.cpp:131] Top shape: 1 512 38 63 (1225728)
I0109 18:13:12.272048 32941 net.cpp:139] Memory required for data: 1385417556
I0109 18:13:12.272059 32941 layer_factory.hpp:77] Creating layer relu5_3
I0109 18:13:12.272074 32941 net.cpp:86] Creating Layer relu5_3
I0109 18:13:12.272080 32941 net.cpp:408] relu5_3 <- conv5_3
I0109 18:13:12.272087 32941 net.cpp:369] relu5_3 -> conv5_3 (in-place)
I0109 18:13:12.274629 32941 net.cpp:124] Setting up relu5_3
I0109 18:13:12.274652 32941 net.cpp:131] Top shape: 1 512 38 63 (1225728)
I0109 18:13:12.274657 32941 net.cpp:139] Memory required for data: 1390320468
I0109 18:13:12.274663 32941 layer_factory.hpp:77] Creating layer conv5_3_relu5_3_0_split
I0109 18:13:12.274672 32941 net.cpp:86] Creating Layer conv5_3_relu5_3_0_split
I0109 18:13:12.274677 32941 net.cpp:408] conv5_3_relu5_3_0_split <- conv5_3
I0109 18:13:12.274688 32941 net.cpp:382] conv5_3_relu5_3_0_split -> conv5_3_relu5_3_0_split_0
I0109 18:13:12.274698 32941 net.cpp:382] conv5_3_relu5_3_0_split -> conv5_3_relu5_3_0_split_1
I0109 18:13:12.274745 32941 net.cpp:124] Setting up conv5_3_relu5_3_0_split
I0109 18:13:12.274755 32941 net.cpp:131] Top shape: 1 512 38 63 (1225728)
I0109 18:13:12.274760 32941 net.cpp:131] Top shape: 1 512 38 63 (1225728)
I0109 18:13:12.274762 32941 net.cpp:139] Memory required for data: 1400126292
I0109 18:13:12.274766 32941 layer_factory.hpp:77] Creating layer rpn_conv/3x3
I0109 18:13:12.274782 32941 net.cpp:86] Creating Layer rpn_conv/3x3
I0109 18:13:12.274788 32941 net.cpp:408] rpn_conv/3x3 <- conv5_3_relu5_3_0_split_0
I0109 18:13:12.274840 32941 net.cpp:382] rpn_conv/3x3 -> rpn/output
I0109 18:13:12.315429 32941 net.cpp:124] Setting up rpn_conv/3x3
I0109 18:13:12.315465 32941 net.cpp:131] Top shape: 1 512 38 63 (1225728)
I0109 18:13:12.315470 32941 net.cpp:139] Memory required for data: 1405029204
I0109 18:13:12.315482 32941 layer_factory.hpp:77] Creating layer rpn_relu/3x3
I0109 18:13:12.315497 32941 net.cpp:86] Creating Layer rpn_relu/3x3
I0109 18:13:12.315502 32941 net.cpp:408] rpn_relu/3x3 <- rpn/output
I0109 18:13:12.315511 32941 net.cpp:369] rpn_relu/3x3 -> rpn/output (in-place)
I0109 18:13:12.316331 32941 net.cpp:124] Setting up rpn_relu/3x3
I0109 18:13:12.316351 32941 net.cpp:131] Top shape: 1 512 38 63 (1225728)
I0109 18:13:12.316356 32941 net.cpp:139] Memory required for data: 1409932116
I0109 18:13:12.316363 32941 layer_factory.hpp:77] Creating layer rpn/output_rpn_relu/3x3_0_split
I0109 18:13:12.316370 32941 net.cpp:86] Creating Layer rpn/output_rpn_relu/3x3_0_split
I0109 18:13:12.316375 32941 net.cpp:408] rpn/output_rpn_relu/3x3_0_split <- rpn/output
I0109 18:13:12.316385 32941 net.cpp:382] rpn/output_rpn_relu/3x3_0_split -> rpn/output_rpn_relu/3x3_0_split_0
I0109 18:13:12.316392 32941 net.cpp:382] rpn/output_rpn_relu/3x3_0_split -> rpn/output_rpn_relu/3x3_0_split_1
I0109 18:13:12.316434 32941 net.cpp:124] Setting up rpn/output_rpn_relu/3x3_0_split
I0109 18:13:12.316445 32941 net.cpp:131] Top shape: 1 512 38 63 (1225728)
I0109 18:13:12.316450 32941 net.cpp:131] Top shape: 1 512 38 63 (1225728)
I0109 18:13:12.316453 32941 net.cpp:139] Memory required for data: 1419737940
I0109 18:13:12.316457 32941 layer_factory.hpp:77] Creating layer rpn_cls_score
I0109 18:13:12.316471 32941 net.cpp:86] Creating Layer rpn_cls_score
I0109 18:13:12.316478 32941 net.cpp:408] rpn_cls_score <- rpn/output_rpn_relu/3x3_0_split_0
I0109 18:13:12.316485 32941 net.cpp:382] rpn_cls_score -> rpn_cls_score
I0109 18:13:12.320909 32941 net.cpp:124] Setting up rpn_cls_score
I0109 18:13:12.320942 32941 net.cpp:131] Top shape: 1 18 38 63 (43092)
I0109 18:13:12.320948 32941 net.cpp:139] Memory required for data: 1419910308
I0109 18:13:12.320960 32941 layer_factory.hpp:77] Creating layer rpn_cls_score_rpn_cls_score_0_split
I0109 18:13:12.320974 32941 net.cpp:86] Creating Layer rpn_cls_score_rpn_cls_score_0_split
I0109 18:13:12.320981 32941 net.cpp:408] rpn_cls_score_rpn_cls_score_0_split <- rpn_cls_score
I0109 18:13:12.320991 32941 net.cpp:382] rpn_cls_score_rpn_cls_score_0_split -> rpn_cls_score_rpn_cls_score_0_split_0
I0109 18:13:12.321023 32941 net.cpp:382] rpn_cls_score_rpn_cls_score_0_split -> rpn_cls_score_rpn_cls_score_0_split_1
I0109 18:13:12.321085 32941 net.cpp:124] Setting up rpn_cls_score_rpn_cls_score_0_split
I0109 18:13:12.321099 32941 net.cpp:131] Top shape: 1 18 38 63 (43092)
I0109 18:13:12.321106 32941 net.cpp:131] Top shape: 1 18 38 63 (43092)
I0109 18:13:12.321110 32941 net.cpp:139] Memory required for data: 1420255044
I0109 18:13:12.321118 32941 layer_factory.hpp:77] Creating layer rpn_bbox_pred
I0109 18:13:12.321136 32941 net.cpp:86] Creating Layer rpn_bbox_pred
I0109 18:13:12.321144 32941 net.cpp:408] rpn_bbox_pred <- rpn/output_rpn_relu/3x3_0_split_1
I0109 18:13:12.321157 32941 net.cpp:382] rpn_bbox_pred -> rpn_bbox_pred
I0109 18:13:12.335616 32941 net.cpp:124] Setting up rpn_bbox_pred
I0109 18:13:12.335664 32941 net.cpp:131] Top shape: 1 36 38 63 (86184)
I0109 18:13:12.335670 32941 net.cpp:139] Memory required for data: 1420599780
I0109 18:13:12.335685 32941 layer_factory.hpp:77] Creating layer rpn_bbox_pred_rpn_bbox_pred_0_split
I0109 18:13:12.335700 32941 net.cpp:86] Creating Layer rpn_bbox_pred_rpn_bbox_pred_0_split
I0109 18:13:12.335707 32941 net.cpp:408] rpn_bbox_pred_rpn_bbox_pred_0_split <- rpn_bbox_pred
I0109 18:13:12.335721 32941 net.cpp:382] rpn_bbox_pred_rpn_bbox_pred_0_split -> rpn_bbox_pred_rpn_bbox_pred_0_split_0
I0109 18:13:12.335741 32941 net.cpp:382] rpn_bbox_pred_rpn_bbox_pred_0_split -> rpn_bbox_pred_rpn_bbox_pred_0_split_1
I0109 18:13:12.335803 32941 net.cpp:124] Setting up rpn_bbox_pred_rpn_bbox_pred_0_split
I0109 18:13:12.335815 32941 net.cpp:131] Top shape: 1 36 38 63 (86184)
I0109 18:13:12.335821 32941 net.cpp:131] Top shape: 1 36 38 63 (86184)
I0109 18:13:12.335826 32941 net.cpp:139] Memory required for data: 1421289252
I0109 18:13:12.335831 32941 layer_factory.hpp:77] Creating layer rpn_cls_score_reshape
I0109 18:13:12.335844 32941 net.cpp:86] Creating Layer rpn_cls_score_reshape
I0109 18:13:12.335851 32941 net.cpp:408] rpn_cls_score_reshape <- rpn_cls_score_rpn_cls_score_0_split_0
I0109 18:13:12.335862 32941 net.cpp:382] rpn_cls_score_reshape -> rpn_cls_score_reshape
I0109 18:13:12.335902 32941 net.cpp:124] Setting up rpn_cls_score_reshape
I0109 18:13:12.335914 32941 net.cpp:131] Top shape: 1 2 342 63 (43092)
I0109 18:13:12.335919 32941 net.cpp:139] Memory required for data: 1421461620
I0109 18:13:12.335927 32941 layer_factory.hpp:77] Creating layer rpn_cls_score_reshape_rpn_cls_score_reshape_0_split
I0109 18:13:12.335935 32941 net.cpp:86] Creating Layer rpn_cls_score_reshape_rpn_cls_score_reshape_0_split
I0109 18:13:12.335949 32941 net.cpp:408] rpn_cls_score_reshape_rpn_cls_score_reshape_0_split <- rpn_cls_score_reshape
I0109 18:13:12.335960 32941 net.cpp:382] rpn_cls_score_reshape_rpn_cls_score_reshape_0_split -> rpn_cls_score_reshape_rpn_cls_score_reshape_0_split_0
I0109 18:13:12.335973 32941 net.cpp:382] rpn_cls_score_reshape_rpn_cls_score_reshape_0_split -> rpn_cls_score_reshape_rpn_cls_score_reshape_0_split_1
I0109 18:13:12.336020 32941 net.cpp:124] Setting up rpn_cls_score_reshape_rpn_cls_score_reshape_0_split
I0109 18:13:12.336033 32941 net.cpp:131] Top shape: 1 2 342 63 (43092)
I0109 18:13:12.336040 32941 net.cpp:131] Top shape: 1 2 342 63 (43092)
I0109 18:13:12.336045 32941 net.cpp:139] Memory required for data: 1421806356
I0109 18:13:12.336050 32941 layer_factory.hpp:77] Creating layer rpn-data
I0109 18:13:12.337726 32941 net.cpp:86] Creating Layer rpn-data
I0109 18:13:12.337749 32941 net.cpp:408] rpn-data <- rpn_cls_score_rpn_cls_score_0_split_1
I0109 18:13:12.337759 32941 net.cpp:408] rpn-data <- gt_boxes_input-data_2_split_0
I0109 18:13:12.337765 32941 net.cpp:408] rpn-data <- im_info_input-data_1_split_0
I0109 18:13:12.337771 32941 net.cpp:408] rpn-data <- data_input-data_0_split_1
I0109 18:13:12.337785 32941 net.cpp:382] rpn-data -> rpn_labels
I0109 18:13:12.337798 32941 net.cpp:382] rpn-data -> rpn_bbox_targets
I0109 18:13:12.337811 32941 net.cpp:382] rpn-data -> rpn_bbox_inside_weights
I0109 18:13:12.337824 32941 net.cpp:382] rpn-data -> rpn_bbox_outside_weights
I0109 18:13:12.339318 32941 net.cpp:124] Setting up rpn-data
I0109 18:13:12.339341 32941 net.cpp:131] Top shape: 1 1 342 63 (21546)
I0109 18:13:12.339350 32941 net.cpp:131] Top shape: 1 36 38 63 (86184)
I0109 18:13:12.339357 32941 net.cpp:131] Top shape: 1 36 38 63 (86184)
I0109 18:13:12.339363 32941 net.cpp:131] Top shape: 1 36 38 63 (86184)
I0109 18:13:12.339368 32941 net.cpp:139] Memory required for data: 1422926748
I0109 18:13:12.339375 32941 layer_factory.hpp:77] Creating layer rpn_loss_cls
I0109 18:13:12.339385 32941 net.cpp:86] Creating Layer rpn_loss_cls
I0109 18:13:12.339395 32941 net.cpp:408] rpn_loss_cls <- rpn_cls_score_reshape_rpn_cls_score_reshape_0_split_0
I0109 18:13:12.339401 32941 net.cpp:408] rpn_loss_cls <- rpn_labels
…
I0109 18:13:12.341596 32941 net.cpp:131] Top shape: (1)
I0109 18:13:12.341601 32941 net.cpp:134]     with loss weight 1
I0109 18:13:12.341609 32941 net.cpp:139] Memory required for data: 1422926756
I0109 18:13:12.341615 32941 layer_factory.hpp:77] Creating layer rpn_cls_prob
I0109 18:13:12.341624 32941 net.cpp:86] Creating Layer rpn_cls_prob
I0109 18:13:12.341629 32941 net.cpp:408] rpn_cls_prob <- rpn_cls_score_reshape_rpn_cls_score_reshape_0_split_1
I0109 18:13:12.341640 32941 net.cpp:382] rpn_cls_prob -> rpn_cls_prob
I0109 18:13:12.360884 32941 net.cpp:124] Setting up rpn_cls_prob
I0109 18:13:12.360929 32941 net.cpp:131] Top shape: 1 2 342 63 (43092)
I0109 18:13:12.360937 32941 net.cpp:139] Memory required for data: 1423099124
I0109 18:13:12.360949 32941 layer_factory.hpp:77] Creating layer rpn_cls_prob_reshape
I0109 18:13:12.360966 32941 net.cpp:86] Creating Layer rpn_cls_prob_reshape
I0109 18:13:12.360975 32941 net.cpp:408] rpn_cls_prob_reshape <- rpn_cls_prob
I0109 18:13:12.360993 32941 net.cpp:382] rpn_cls_prob_reshape -> rpn_cls_prob_reshape
I0109 18:13:12.361043 32941 net.cpp:124] Setting up rpn_cls_prob_reshape
I0109 18:13:12.361059 32941 net.cpp:131] Top shape: 1 18 38 63 (43092)
I0109 18:13:12.361065 32941 net.cpp:139] Memory required for data: 1423271492
I0109 18:13:12.361071 32941 layer_factory.hpp:77] Creating layer proposal
I0109 18:13:12.366667 32941 net.cpp:86] Creating Layer proposal
I0109 18:13:12.366691 32941 net.cpp:408] proposal <- rpn_cls_prob_reshape
I0109 18:13:12.366701 32941 net.cpp:408] proposal <- rpn_bbox_pred_rpn_bbox_pred_0_split_1
I0109 18:13:12.366709 32941 net.cpp:408] proposal <- im_info_input-data_1_split_1
I0109 18:13:12.366719 32941 net.cpp:382] proposal -> rpn_rois
I0109 18:13:12.368407 32941 net.cpp:124] Setting up proposal
I0109 18:13:12.368432 32941 net.cpp:131] Top shape: 1 5 (5)
I0109 18:13:12.368438 32941 net.cpp:139] Memory required for data: 1423271512
I0109 18:13:12.368444 32941 layer_factory.hpp:77] Creating layer roi-data
I0109 18:13:12.368958 32941 net.cpp:86] Creating Layer roi-data
I0109 18:13:12.368980 32941 net.cpp:408] roi-data <- rpn_rois
I0109 18:13:12.368990 32941 net.cpp:408] roi-data <- gt_boxes_input-data_2_split_1
I0109 18:13:12.369002 32941 net.cpp:382] roi-data -> rois
I0109 18:13:12.369014 32941 net.cpp:382] roi-data -> labels
I0109 18:13:12.369026 32941 net.cpp:382] roi-data -> bbox_targets
I0109 18:13:12.369040 32941 net.cpp:382] roi-data -> bbox_inside_weights
I0109 18:13:12.369051 32941 net.cpp:382] roi-data -> bbox_outside_weights
I0109 18:13:12.369762 32941 net.cpp:124] Setting up roi-data
I0109 18:13:12.369784 32941 net.cpp:131] Top shape: 1 5 (5)
I0109 18:13:12.369791 32941 net.cpp:131] Top shape: 1 1 (1)
I0109 18:13:12.369797 32941 net.cpp:131] Top shape: 1 36 (36)
I0109 18:13:12.369804 32941 net.cpp:131] Top shape: 1 36 (36)
I0109 18:13:12.369810 32941 net.cpp:131] Top shape: 1 36 (36)
I0109 18:13:12.369815 32941 net.cpp:139] Memory required for data: 1423271968
I0109 18:13:12.369822 32941 layer_factory.hpp:77] Creating layer roi_pool5
I0109 18:13:12.369840 32941 net.cpp:86] Creating Layer roi_pool5
I0109 18:13:12.369848 32941 net.cpp:408] roi_pool5 <- conv5_3_relu5_3_0_split_1
I0109 18:13:12.369855 32941 net.cpp:408] roi_pool5 <- rois
I0109 18:13:12.369865 32941 net.cpp:382] roi_pool5 -> pool5
I0109 18:13:12.369877 32941 roi_pooling_layer.cpp:30] Spatial scale: 0.0625
I0109 18:13:12.369946 32941 net.cpp:124] Setting up roi_pool5
I0109 18:13:12.369958 32941 net.cpp:131] Top shape: 1 512 7 7 (25088)
I0109 18:13:12.369964 32941 net.cpp:139] Memory required for data: 1423372320
I0109 18:13:12.369971 32941 layer_factory.hpp:77] Creating layer fc6
I0109 18:13:12.369982 32941 net.cpp:86] Creating Layer fc6
I0109 18:13:12.369988 32941 net.cpp:408] fc6 <- pool5
I0109 18:13:12.369999 32941 net.cpp:382] fc6 -> fc6
I0109 18:13:12.749799 32941 net.cpp:124] Setting up fc6
I0109 18:13:12.749837 32941 net.cpp:131] Top shape: 1 4096 (4096)
I0109 18:13:12.749841 32941 net.cpp:139] Memory required for data: 1423388704
I0109 18:13:12.749864 32941 layer_factory.hpp:77] Creating layer relu6
I0109 18:13:12.749876 32941 net.cpp:86] Creating Layer relu6
I0109 18:13:12.749881 32941 net.cpp:408] relu6 <- fc6
I0109 18:13:12.749888 32941 net.cpp:369] relu6 -> fc6 (in-place)
I0109 18:13:12.750339 32941 net.cpp:124] Setting up relu6
I0109 18:13:12.750352 32941 net.cpp:131] Top shape: 1 4096 (4096)
I0109 18:13:12.750356 32941 net.cpp:139] Memory required for data: 1423405088
I0109 18:13:12.750360 32941 layer_factory.hpp:77] Creating layer drop6
I0109 18:13:12.750376 32941 net.cpp:86] Creating Layer drop6
I0109 18:13:12.750381 32941 net.cpp:408] drop6 <- fc6
I0109 18:13:12.750386 32941 net.cpp:369] drop6 -> fc6 (in-place)
I0109 18:13:12.750416 32941 net.cpp:124] Setting up drop6
I0109 18:13:12.750423 32941 net.cpp:131] Top shape: 1 4096 (4096)
I0109 18:13:12.750427 32941 net.cpp:139] Memory required for data: 1423421472
I0109 18:13:12.750430 32941 layer_factory.hpp:77] Creating layer fc7
I0109 18:13:12.750438 32941 net.cpp:86] Creating Layer fc7
I0109 18:13:12.750442 32941 net.cpp:408] fc7 <- fc6
I0109 18:13:12.750455 32941 net.cpp:382] fc7 -> fc7
I0109 18:13:12.813083 32941 net.cpp:124] Setting up fc7
I0109 18:13:12.813130 32941 net.cpp:131] Top shape: 1 4096 (4096)
I0109 18:13:12.813135 32941 net.cpp:139] Memory required for data: 1423437856
I0109 18:13:12.813149 32941 layer_factory.hpp:77] Creating layer relu7
I0109 18:13:12.813164 32941 net.cpp:86] Creating Layer relu7
I0109 18:13:12.813171 32941 net.cpp:408] relu7 <- fc7
I0109 18:13:12.813184 32941 net.cpp:369] relu7 -> fc7 (in-place)
I0109 18:13:12.815951 32941 net.cpp:124] Setting up relu7
I0109 18:13:12.815984 32941 net.cpp:131] Top shape: 1 4096 (4096)
I0109 18:13:12.815989 32941 net.cpp:139] Memory required for data: 1423454240
I0109 18:13:12.815994 32941 layer_factory.hpp:77] Creating layer drop7
I0109 18:13:12.816006 32941 net.cpp:86] Creating Layer drop7
I0109 18:13:12.816011 32941 net.cpp:408] drop7 <- fc7
I0109 18:13:12.816018 32941 net.cpp:369] drop7 -> fc7 (in-place)
I0109 18:13:12.816056 32941 net.cpp:124] Setting up drop7
I0109 18:13:12.816062 32941 net.cpp:131] Top shape: 1 4096 (4096)
I0109 18:13:12.816066 32941 net.cpp:139] Memory required for data: 1423470624
I0109 18:13:12.816071 32941 layer_factory.hpp:77] Creating layer fc7_drop7_0_split
I0109 18:13:12.816078 32941 net.cpp:86] Creating Layer fc7_drop7_0_split
I0109 18:13:12.816083 32941 net.cpp:408] fc7_drop7_0_split <- fc7
I0109 18:13:12.816092 32941 net.cpp:382] fc7_drop7_0_split -> fc7_drop7_0_split_0
I0109 18:13:12.816100 32941 net.cpp:382] fc7_drop7_0_split -> fc7_drop7_0_split_1
I0109 18:13:12.816140 32941 net.cpp:124] Setting up fc7_drop7_0_split
I0109 18:13:12.816156 32941 net.cpp:131] Top shape: 1 4096 (4096)
I0109 18:13:12.816161 32941 net.cpp:131] Top shape: 1 4096 (4096)
I0109 18:13:12.816165 32941 net.cpp:139] Memory required for data: 1423503392
I0109 18:13:12.816169 32941 layer_factory.hpp:77] Creating layer cls_score
I0109 18:13:12.816180 32941 net.cpp:86] Creating Layer cls_score
I0109 18:13:12.816185 32941 net.cpp:408] cls_score <- fc7_drop7_0_split_0
I0109 18:13:12.816195 32941 net.cpp:382] cls_score -> cls_score
I0109 18:13:12.816792 32941 net.cpp:124] Setting up cls_score
I0109 18:13:12.816803 32941 net.cpp:131] Top shape: 1 9 (9)
I0109 18:13:12.816812 32941 net.cpp:139] Memory required for data: 1423503428
I0109 18:13:12.816819 32941 layer_factory.hpp:77] Creating layer bbox_pred
I0109 18:13:12.816829 32941 net.cpp:86] Creating Layer bbox_pred
I0109 18:13:12.816833 32941 net.cpp:408] bbox_pred <- fc7_drop7_0_split_1
I0109 18:13:12.816840 32941 net.cpp:382] bbox_pred -> bbox_pred
I0109 18:13:12.818842 32941 net.cpp:124] Setting up bbox_pred
I0109 18:13:12.818856 32941 net.cpp:131] Top shape: 1 36 (36)
I0109 18:13:12.818859 32941 net.cpp:139] Memory required for data: 1423503572
I0109 18:13:12.818867 32941 layer_factory.hpp:77] Creating layer loss_cls
I0109 18:13:12.818876 32941 net.cpp:86] Creating Layer loss_cls
I0109 18:13:12.818879 32941 net.cpp:408] loss_cls <- cls_score
I0109 18:13:12.818886 32941 net.cpp:408] loss_cls <- labels
I0109 18:13:12.818892 32941 net.cpp:382] loss_cls -> loss_cls
…
I0109 18:57:02.730173 33366 upgrade_proto.cpp:72] Successfully upgraded file specified using deprecated input fields.
W0109 18:57:02.730180 33366 upgrade_proto.cpp:74] Note that future Caffe releases will only support input layers and not input fields.
I0109 18:57:02.730638 33366 net.cpp:53] Initializing net from parameters: 
name: "VGG_ILSVRC_16_layers"
state {
  phase: TEST
  level: 0
}
layer {
  name: "input"
  type: "Input"
  top: "data"
  top: "im_info"
  input_param {
    shape {
      dim: 1
      dim: 3
      dim: 224
      dim: 224
    }
    shape {
      dim: 1
      dim: 3
    }
  }
}
layer {
  name: "conv1_1"
  type: "Convolution"
  bottom: "data"
  top: "conv1_1"
  param {
    lr_mult: 0
    decay_mult: 0
  }
  param {
    lr_mult: 0
    decay_mult: 0
  }
  convolution_param {
    num_output: 64
    pad: 1
    kernel_size: 3
  }
}
layer {
  name: "relu1_1"
  type: "ReLU"
  bottom: "conv1_1"
  top: "conv1_1"
}
layer {
  name: "conv1_2"
  type: "Convolution"
  bottom: "conv1_1"
  top: "conv1_2"
  param {
    lr_mult: 0
    decay_mult: 0
  }
  param {
    lr_mult: 0
    decay_mult: 0
  }
  convolution_param {
    num_output: 64
    pad: 1
    kernel_size: 3
  }
}
layer {
  name: "relu1_2"
  type: "ReLU"
  bottom: "conv1_2"
  top: "conv1_2"
}
layer {
  name: "pool1"
  type: "Pooling"
  bottom: "conv1_2"
  top: "pool1"
  pooling_param {
    pool: MAX
    kernel_size: 2
    stride: 2
  }
}
layer {
  name: "conv2_1"
  type: "Convolution"
  bottom: "pool1"
  top: "conv2_1"
  param {
    lr_mult: 0
    decay_mult: 0
  }
  param {
    lr_mult: 0
    decay_mult: 0
  }
  convolution_param {
    num_output: 128
    pad: 1
    kernel_size: 3
  }
}
layer {
  name: "relu2_1"
  type: "ReLU"
  bottom: "conv2_1"
  top: "conv2_1"
}
layer {
  name: "conv2_2"
  type: "Convolution"
  bottom: "conv2_1"
  top: "conv2_2"
  param {
    lr_mult: 0
    decay_mult: 0
  }
  param {
    lr_mult: 0
    decay_mult: 0
  }
  convolution_param {
    num_output: 128
    pad: 1
    kernel_size: 3
  }
}
layer {
  name: "relu2_2"
  type: "ReLU"
  bottom: "conv2_2"
  top: "conv2_2"
}
layer {
  name: "pool2"
  type: "Pooling"
  bottom: "conv2_2"
  top: "pool2"
  pooling_param {
    pool: MAX
    kernel_size: 2
    stride: 2
  }
}
layer {
  name: "conv3_1"
  type: "Convolution"
  bottom: "pool2"
  top: "conv3_1"
  param {
    lr_mult: 1
    decay_mult: 1
  }
  param {
    lr_mult: 2
    decay_mult: 0
  }
  convolution_param {
    num_output: 256
    pad: 1
    kernel_size: 3
  }
}
layer {
  name: "relu3_1"
  type: "ReLU"
  bottom: "conv3_1"
  top: "conv3_1"
}
layer {
  name: "conv3_2"
  type: "Convolution"
  bottom: "conv3_1"
  top: "conv3_2"
  param {
    lr_mult: 1
    decay_mult: 1
  }
  param {
    lr_mult: 2
    decay_mult: 0
  }
  convolution_param {
    num_output: 256
    pad: 1
    kernel_size: 3
  }
}
layer {
  name: "relu3_2"
  type: "ReLU"
  bottom: "conv3_2"
  top: "conv3_2"
}
layer {
  name: "conv3_3"
  type: "Convolution"
  bottom: "conv3_2"
  top: "conv3_3"
  param {
    lr_mult: 1
    decay_mult: 1
  }
  param {
    lr_mult: 2
    decay_mult: 0
  }
  convolution_param {
    num_output: 256
    pad: 1
    kernel_size: 3
  }
}
layer {
  name: "relu3_3"
  type: "ReLU"
  bottom: "conv3_3"
  top: "conv3_3"
}
layer {
  name: "pool3"
  type: "Pooling"
  bottom: "conv3_3"
  top: "pool3"
  pooling_param {
    pool: MAX
    kernel_size: 2
    stride: 2
  }
}
layer {
  name: "conv4_1"
  type: "Convolution"
  bottom: "pool3"
  top: "conv4_1"
  param {
    lr_mult: 1
    decay_mult: 1
  }
  param {
    lr_mult: 2
    decay_mult: 0
  }
  convolution_param {
    num_output: 512
    pad: 1
    kernel_size: 3
  }
}
layer {
  name: "relu4_1"
  type: "ReLU"
  bottom: "conv4_1"
  top: "conv4_1"
}
layer {
  name: "conv4_2"
  type: "Convolution"
  bottom: "conv4_1"
  top: "conv4_2"
  param {
    lr_mult: 1
    decay_mult: 1
  }
  param {
    lr_mult: 2
    decay_mult: 0
  }
  convolution_param {
    num_output: 512
    pad: 1
    kernel_size: 3
  }
}
layer {
  name: "relu4_2"
  type: "ReLU"
  bottom: "conv4_2"
  top: "conv4_2"
}
layer {
  name: "conv4_3"
  type: "Convolution"
  bottom: "conv4_2"
  top: "conv4_3"
  param {
    lr_mult: 1
    decay_mult: 1
  }
  param {
    lr_mult: 2
    decay_mult: 0
  }
  convolution_param {
    num_output: 512
    pad: 1
    kernel_size: 3
  }
}
layer {
  name: "relu4_3"
  type: "ReLU"
  bottom: "conv4_3"
  top: "conv4_3"
}
layer {
  name: "pool4"
  type: "Pooling"
  bottom: "conv4_3"
  top: "pool4"
  pooling_param {
    pool: MAX
    kernel_size: 2
    stride: 2
  }
}
layer {
  name: "conv5_1"
  type: "Convolution"
  bottom: "pool4"
  top: "conv5_1"
  param {
    lr_mult: 1
    decay_mult: 1
  }
  param {
    lr_mult: 2
    decay_mult: 0
  }
  convolution_param {
    num_output: 512
    pad: 1
    kernel_size: 3
  }
}
layer {
  name: "relu5_1"
  type: "ReLU"
  bottom: "conv5_1"
  top: "conv5_1"
}
layer {
  name: "conv5_2"
  type: "Convolution"
  bottom: "conv5_1"
  top: "conv5_2"
  param {
    lr_mult: 1
    decay_mult: 1
  }
  param {
    lr_mult: 2
    decay_mult: 0
  }
  convolution_param {
    num_output: 512
    pad: 1
    kernel_size: 3
  }
}
layer {
  name: "relu5_2"
  type: "ReLU"
  bottom: "conv5_2"
  top: "conv5_2"
}
layer {
  name: "conv5_3"
  type: "Convolution"
  bottom: "conv5_2"
  top: "conv5_3"
  param {
    lr_mult: 1
    decay_mult: 1
  }
  param {
    lr_mult: 2
    decay_mult: 0
  }
  convolution_param {
    num_output: 512
    pad: 1
    kernel_size: 3
  }
}
layer {
  name: "relu5_3"
  type: "ReLU"
  bottom: "conv5_3"
  top: "conv5_3"
}
layer {
  name: "rpn_conv/3x3"
  type: "Convolution"
  bottom: "conv5_3"
  top: "rpn/output"
  param {
    lr_mult: 1
    decay_mult: 1
  }
  param {
    lr_mult: 2
    decay_mult: 0
  }
  convolution_param {
    num_output: 512
    pad: 1
    kernel_size: 3
    stride: 1
    weight_filler {
      type: "gaussian"
      std: 0.01
    }
    bias_filler {
      type: "constant"
      value: 0
    }
  }
}
layer {
  name: "rpn_relu/3x3"
  type: "ReLU"
  bottom: "rpn/output"
  top: "rpn/output"
}
layer {
  name: "rpn_cls_score"
  type: "Convolution"
  bottom: "rpn/output"
  top: "rpn_cls_score"
  param {
    lr_mult: 1
    decay_mult: 1
  }
  param {
    lr_mult: 2
    decay_mult: 0
  }
  convolution_param {
    num_output: 18
    pad: 0
    kernel_size: 1
    stride: 1
    weight_filler {
      type: "gaussian"
      std: 0.01
    }
    bias_filler {
      type: "constant"
      value: 0
    }
  }
}
layer {
  name: "rpn_bbox_pred"
  type: "Convolution"
  bottom: "rpn/output"
  top: "rpn_bbox_pred"
  param {
    lr_mult: 1
    decay_mult: 1
  }
  param {
    lr_mult: 2
    decay_mult: 0
  }
  convolution_param {
    num_output: 36
    pad: 0
    kernel_size: 1
    stride: 1
    weight_filler {
      type: "gaussian"
      std: 0.01
    }
    bias_filler {
      type: "constant"
      value: 0
    }
  }
}
layer {
  name: "rpn_cls_score_reshape"
  type: "Reshape"
  bottom: "rpn_cls_score"
  top: "rpn_cls_score_reshape"
  reshape_param {
    shape {
      dim: 0
      dim: 2
      dim: -1
      dim: 0
    }
  }
}
layer {
  name: "rpn_cls_prob"
  type: "Softmax"
  bottom: "rpn_cls_score_reshape"
  top: "rpn_cls_prob"
}
layer {
  name: "rpn_cls_prob_reshape"
  type: "Reshape"
  bottom: "rpn_cls_prob"
  top: "rpn_cls_prob_reshape"
  reshape_param {
    shape {
      dim: 0
      dim: 18
      dim: -1
      dim: 0
    }
  }
}
layer {
  name: "proposal"
  type: "Python"
  bottom: "rpn_cls_prob_reshape"
  bottom: "rpn_bbox_pred"
  bottom: "im_info"
  top: "rois"
  python_param {
    module: "rpn.proposal_layer"
    layer: "ProposalLayer"
    param_str: "\'feat_stride\': 16"
  }
}
layer {
  name: "roi_pool5"
  type: "ROIPooling"
  bottom: "conv5_3"
  bottom: "rois"
  top: "pool5"
  roi_pooling_param {
    pooled_h: 7
    pooled_w: 7
    spatial_scale: 0.0625
  }
}
layer {
  name: "fc6"
  type: "InnerProduct"
  bottom: "pool5"
  top: "fc6"
  param {
    lr_mult: 1
    decay_mult: 1
  }
  param {
    lr_mult: 2
    decay_mult: 0
  }
  inner_product_param {
    num_output: 4096
  }
}
layer {
  name: "relu6"
  type: "ReLU"
  bottom: "fc6"
  top: "fc6"
}
layer {
  name: "drop6"
  type: "Dropout"
  bottom: "fc6"
  top: "fc6"
  dropout_param {
    dropout_ratio: 0.5
  }
}
layer {
  name: "fc7"
  type: "InnerProduct"
  bottom: "fc6"
  top: "fc7"
  param {
    lr_mult: 1
    decay_mult: 1
  }
  param {
    lr_mult: 2
    decay_mult: 0
  }
  inner_product_param {
    num_output: 4096
  }
}
layer {
  name: "relu7"
  type: "ReLU"
  bottom: "fc7"
  top: "fc7"
}
layer {
  name: "drop7"
  type: "Dropout"
  bottom: "fc7"
  top: "fc7"
  dropout_param {
    dropout_ratio: 0.5
  }
}
layer {
  name: "cls_score"
  type: "InnerProduct"
  bottom: "fc7"
  top: "cls_score"
  param {
    lr_mult: 1
    decay_mult: 1
  }
  param {
    lr_mult: 2
    decay_mult: 0
  }
  inner_product_param {
    num_output: 9
    weight_filler {
      type: "gaussian"
      std: 0.01
    }
    bias_filler {
      type: "constant"
      value: 0
    }
  }
}
layer {
  name: "bbox_pred"
  type: "InnerProduct"
  bottom: "fc7"
  top: "bbox_pred"
  param {
    lr_mult: 1
    decay_mult: 1
  }
  param {
    lr_mult: 2
    decay_mult: 0
  }
  inner_product_param {
    num_output: 36
    weight_filler {
      type: "gaussian"
      std: 0.001
    }
    bias_filler {
      type: "constant"
      value: 0
    }
  }
}
layer {
  name: "cls_prob"
  type: "Softmax"
  bottom: "cls_score"
  top: "cls_prob"
}
I0109 18:57:02.730890 33366 layer_factory.hpp:77] Creating layer input
I0109 18:57:02.730909 33366 net.cpp:86] Creating Layer input
I0109 18:57:02.730917 33366 net.cpp:382] input -> data
I0109 18:57:02.730931 33366 net.cpp:382] input -> im_info
I0109 18:57:02.763398 33366 net.cpp:124] Setting up input
I0109 18:57:02.763429 33366 net.cpp:131] Top shape: 1 3 224 224 (150528)
I0109 18:57:02.763435 33366 net.cpp:131] Top shape: 1 3 (3)
I0109 18:57:02.763438 33366 net.cpp:139] Memory required for data: 602124
I0109 18:57:02.763445 33366 layer_factory.hpp:77] Creating layer conv1_1
I0109 18:57:02.763466 33366 net.cpp:86] Creating Layer conv1_1
I0109 18:57:02.763470 33366 net.cpp:408] conv1_1 <- data
I0109 18:57:02.763478 33366 net.cpp:382] conv1_1 -> conv1_1
I0109 18:57:03.877813 33366 net.cpp:124] Setting up conv1_1
I0109 18:57:03.877849 33366 net.cpp:131] Top shape: 1 64 224 224 (3211264)
I0109 18:57:03.877854 33366 net.cpp:139] Memory required for data: 13447180
I0109 18:57:03.877871 33366 layer_factory.hpp:77] Creating layer relu1_1
I0109 18:57:03.877882 33366 net.cpp:86] Creating Layer relu1_1
I0109 18:57:03.877887 33366 net.cpp:408] relu1_1 <- conv1_1
I0109 18:57:03.877897 33366 net.cpp:369] relu1_1 -> conv1_1 (in-place)
I0109 18:57:03.878266 33366 net.cpp:124] Setting up relu1_1
I0109 18:57:03.878281 33366 net.cpp:131] Top shape: 1 64 224 224 (3211264)
I0109 18:57:03.878285 33366 net.cpp:139] Memory required for data: 26292236
I0109 18:57:03.878289 33366 layer_factory.hpp:77] Creating layer conv1_2
I0109 18:57:03.878299 33366 net.cpp:86] Creating Layer conv1_2
I0109 18:57:03.878304 33366 net.cpp:408] conv1_2 <- conv1_1
I0109 18:57:03.878312 33366 net.cpp:382] conv1_2 -> conv1_2
I0109 18:57:03.881848 33366 net.cpp:124] Setting up conv1_2
I0109 18:57:03.881870 33366 net.cpp:131] Top shape: 1 64 224 224 (3211264)
I0109 18:57:03.881875 33366 net.cpp:139] Memory required for data: 39137292
I0109 18:57:03.881883 33366 layer_factory.hpp:77] Creating layer relu1_2
I0109 18:57:03.881891 33366 net.cpp:86] Creating Layer relu1_2
I0109 18:57:03.881896 33366 net.cpp:408] relu1_2 <- conv1_2
I0109 18:57:03.881902 33366 net.cpp:369] relu1_2 -> conv1_2 (in-place)
I0109 18:57:03.882457 33366 net.cpp:124] Setting up relu1_2
I0109 18:57:03.882473 33366 net.cpp:131] Top shape: 1 64 224 224 (3211264)
I0109 18:57:03.882477 33366 net.cpp:139] Memory required for data: 51982348
I0109 18:57:03.882480 33366 layer_factory.hpp:77] Creating layer pool1
I0109 18:57:03.882488 33366 net.cpp:86] Creating Layer pool1
I0109 18:57:03.882493 33366 net.cpp:408] pool1 <- conv1_2
I0109 18:57:03.882504 33366 net.cpp:382] pool1 -> pool1
I0109 18:57:03.882550 33366 net.cpp:124] Setting up pool1
I0109 18:57:03.882560 33366 net.cpp:131] Top shape: 1 64 112 112 (802816)
I0109 18:57:03.882563 33366 net.cpp:139] Memory required for data: 55193612
I0109 18:57:03.882566 33366 layer_factory.hpp:77] Creating layer conv2_1
I0109 18:57:03.882575 33366 net.cpp:86] Creating Layer conv2_1
I0109 18:57:03.882578 33366 net.cpp:408] conv2_1 <- pool1
I0109 18:57:03.882587 33366 net.cpp:382] conv2_1 -> conv2_1
I0109 18:57:03.885932 33366 net.cpp:124] Setting up conv2_1
I0109 18:57:03.885952 33366 net.cpp:131] Top shape: 1 128 112 112 (1605632)
I0109 18:57:03.885957 33366 net.cpp:139] Memory required for data: 61616140
I0109 18:57:03.885969 33366 layer_factory.hpp:77] Creating layer relu2_1
I0109 18:57:03.885977 33366 net.cpp:86] Creating Layer relu2_1
I0109 18:57:03.885980 33366 net.cpp:408] relu2_1 <- conv2_1
I0109 18:57:03.885988 33366 net.cpp:369] relu2_1 -> conv2_1 (in-place)
I0109 18:57:03.886366 33366 net.cpp:124] Setting up relu2_1
I0109 18:57:03.886382 33366 net.cpp:131] Top shape: 1 128 112 112 (1605632)
I0109 18:57:03.886386 33366 net.cpp:139] Memory required for data: 68038668
I0109 18:57:03.886390 33366 layer_factory.hpp:77] Creating layer conv2_2
I0109 18:57:03.886402 33366 net.cpp:86] Creating Layer conv2_2
I0109 18:57:03.886406 33366 net.cpp:408] conv2_2 <- conv2_1
I0109 18:57:03.886413 33366 net.cpp:382] conv2_2 -> conv2_2
I0109 18:57:03.890046 33366 net.cpp:124] Setting up conv2_2
I0109 18:57:03.890071 33366 net.cpp:131] Top shape: 1 128 112 112 (1605632)
I0109 18:57:03.890076 33366 net.cpp:139] Memory required for data: 74461196
I0109 18:57:03.890084 33366 layer_factory.hpp:77] Creating layer relu2_2
I0109 18:57:03.890092 33366 net.cpp:86] Creating Layer relu2_2
I0109 18:57:03.890096 33366 net.cpp:408] relu2_2 <- conv2_2
I0109 18:57:03.890102 33366 net.cpp:369] relu2_2 -> conv2_2 (in-place)
I0109 18:57:03.890657 33366 net.cpp:124] Setting up relu2_2
I0109 18:57:03.890676 33366 net.cpp:131] Top shape: 1 128 112 112 (1605632)
I0109 18:57:03.890679 33366 net.cpp:139] Memory required for data: 80883724
I0109 18:57:03.890683 33366 layer_factory.hpp:77] Creating layer pool2
I0109 18:57:03.890691 33366 net.cpp:86] Creating Layer pool2
I0109 18:57:03.890695 33366 net.cpp:408] pool2 <- conv2_2
I0109 18:57:03.890703 33366 net.cpp:382] pool2 -> pool2
I0109 18:57:03.890746 33366 net.cpp:124] Setting up pool2
I0109 18:57:03.890753 33366 net.cpp:131] Top shape: 1 128 56 56 (401408)
I0109 18:57:03.890756 33366 net.cpp:139] Memory required for data: 82489356
I0109 18:57:03.890760 33366 layer_factory.hpp:77] Creating layer conv3_1
I0109 18:57:03.890775 33366 net.cpp:86] Creating Layer conv3_1
I0109 18:57:03.890779 33366 net.cpp:408] conv3_1 <- pool2
I0109 18:57:03.890786 33366 net.cpp:382] conv3_1 -> conv3_1
I0109 18:57:03.893993 33366 net.cpp:124] Setting up conv3_1
I0109 18:57:03.894011 33366 net.cpp:131] Top shape: 1 256 56 56 (802816)
I0109 18:57:03.894016 33366 net.cpp:139] Memory required for data: 85700620
I0109 18:57:03.894026 33366 layer_factory.hpp:77] Creating layer relu3_1
I0109 18:57:03.894034 33366 net.cpp:86] Creating Layer relu3_1
I0109 18:57:03.894038 33366 net.cpp:408] relu3_1 <- conv3_1
I0109 18:57:03.894045 33366 net.cpp:369] relu3_1 -> conv3_1 (in-place)
I0109 18:57:03.894412 33366 net.cpp:124] Setting up relu3_1
I0109 18:57:03.894425 33366 net.cpp:131] Top shape: 1 256 56 56 (802816)
I0109 18:57:03.894428 33366 net.cpp:139] Memory required for data: 88911884
I0109 18:57:03.894433 33366 layer_factory.hpp:77] Creating layer conv3_2
I0109 18:57:03.894443 33366 net.cpp:86] Creating Layer conv3_2
I0109 18:57:03.894446 33366 net.cpp:408] conv3_2 <- conv3_1
I0109 18:57:03.894454 33366 net.cpp:382] conv3_2 -> conv3_2
I0109 18:57:03.898032 33366 net.cpp:124] Setting up conv3_2
I0109 18:57:03.898049 33366 net.cpp:131] Top shape: 1 256 56 56 (802816)
I0109 18:57:03.898054 33366 net.cpp:139] Memory required for data: 92123148
I0109 18:57:03.898061 33366 layer_factory.hpp:77] Creating layer relu3_2
I0109 18:57:03.898068 33366 net.cpp:86] Creating Layer relu3_2
I0109 18:57:03.898072 33366 net.cpp:408] relu3_2 <- conv3_2
I0109 18:57:03.898079 33366 net.cpp:369] relu3_2 -> conv3_2 (in-place)
I0109 18:57:03.898643 33366 net.cpp:124] Setting up relu3_2
I0109 18:57:03.898659 33366 net.cpp:131] Top shape: 1 256 56 56 (802816)
I0109 18:57:03.898663 33366 net.cpp:139] Memory required for data: 95334412
I0109 18:57:03.898667 33366 layer_factory.hpp:77] Creating layer conv3_3
I0109 18:57:03.898679 33366 net.cpp:86] Creating Layer conv3_3
I0109 18:57:03.898682 33366 net.cpp:408] conv3_3 <- conv3_2
I0109 18:57:03.898690 33366 net.cpp:382] conv3_3 -> conv3_3
I0109 18:57:03.905359 33366 net.cpp:124] Setting up conv3_3
I0109 18:57:03.905387 33366 net.cpp:131] Top shape: 1 256 56 56 (802816)
I0109 18:57:03.905392 33366 net.cpp:139] Memory required for data: 98545676
I0109 18:57:03.905401 33366 layer_factory.hpp:77] Creating layer relu3_3
I0109 18:57:03.905417 33366 net.cpp:86] Creating Layer relu3_3
I0109 18:57:03.905422 33366 net.cpp:408] relu3_3 <- conv3_3
I0109 18:57:03.905429 33366 net.cpp:369] relu3_3 -> conv3_3 (in-place)
I0109 18:57:03.906008 33366 net.cpp:124] Setting up relu3_3
I0109 18:57:03.906026 33366 net.cpp:131] Top shape: 1 256 56 56 (802816)
I0109 18:57:03.906030 33366 net.cpp:139] Memory required for data: 101756940
I0109 18:57:03.906034 33366 layer_factory.hpp:77] Creating layer pool3
I0109 18:57:03.906042 33366 net.cpp:86] Creating Layer pool3
I0109 18:57:03.906046 33366 net.cpp:408] pool3 <- conv3_3
I0109 18:57:03.906052 33366 net.cpp:382] pool3 -> pool3
I0109 18:57:03.906100 33366 net.cpp:124] Setting up pool3
I0109 18:57:03.906106 33366 net.cpp:131] Top shape: 1 256 28 28 (200704)
I0109 18:57:03.906109 33366 net.cpp:139] Memory required for data: 102559756
I0109 18:57:03.906113 33366 layer_factory.hpp:77] Creating layer conv4_1
I0109 18:57:03.906127 33366 net.cpp:86] Creating Layer conv4_1
I0109 18:57:03.906132 33366 net.cpp:408] conv4_1 <- pool3
I0109 18:57:03.906141 33366 net.cpp:382] conv4_1 -> conv4_1
I0109 18:57:03.923780 33366 net.cpp:124] Setting up conv4_1
I0109 18:57:03.923822 33366 net.cpp:131] Top shape: 1 512 28 28 (401408)
I0109 18:57:03.923828 33366 net.cpp:139] Memory required for data: 104165388
I0109 18:57:03.923840 33366 layer_factory.hpp:77] Creating layer relu4_1
I0109 18:57:03.923856 33366 net.cpp:86] Creating Layer relu4_1
I0109 18:57:03.923862 33366 net.cpp:408] relu4_1 <- conv4_1
I0109 18:57:03.923871 33366 net.cpp:369] relu4_1 -> conv4_1 (in-place)
I0109 18:57:03.924360 33366 net.cpp:124] Setting up relu4_1
I0109 18:57:03.924378 33366 net.cpp:131] Top shape: 1 512 28 28 (401408)
I0109 18:57:03.924383 33366 net.cpp:139] Memory required for data: 105771020
I0109 18:57:03.924388 33366 layer_factory.hpp:77] Creating layer conv4_2
I0109 18:57:03.924402 33366 net.cpp:86] Creating Layer conv4_2
I0109 18:57:03.924408 33366 net.cpp:408] conv4_2 <- conv4_1
I0109 18:57:03.924419 33366 net.cpp:382] conv4_2 -> conv4_2
I0109 18:57:03.932845 33366 net.cpp:124] Setting up conv4_2
I0109 18:57:03.932884 33366 net.cpp:131] Top shape: 1 512 28 28 (401408)
I0109 18:57:03.932889 33366 net.cpp:139] Memory required for data: 107376652
I0109 18:57:03.932906 33366 layer_factory.hpp:77] Creating layer relu4_2
I0109 18:57:03.932919 33366 net.cpp:86] Creating Layer relu4_2
I0109 18:57:03.932924 33366 net.cpp:408] relu4_2 <- conv4_2
I0109 18:57:03.932931 33366 net.cpp:369] relu4_2 -> conv4_2 (in-place)
I0109 18:57:03.933514 33366 net.cpp:124] Setting up relu4_2
I0109 18:57:03.933531 33366 net.cpp:131] Top shape: 1 512 28 28 (401408)
I0109 18:57:03.933535 33366 net.cpp:139] Memory required for data: 108982284
I0109 18:57:03.933539 33366 layer_factory.hpp:77] Creating layer conv4_3
I0109 18:57:03.933552 33366 net.cpp:86] Creating Layer conv4_3
I0109 18:57:03.933555 33366 net.cpp:408] conv4_3 <- conv4_2
I0109 18:57:03.933562 33366 net.cpp:382] conv4_3 -> conv4_3
I0109 18:57:03.948688 33366 net.cpp:124] Setting up conv4_3
I0109 18:57:03.948721 33366 net.cpp:131] Top shape: 1 512 28 28 (401408)
I0109 18:57:03.948726 33366 net.cpp:139] Memory required for data: 110587916
I0109 18:57:03.948736 33366 layer_factory.hpp:77] Creating layer relu4_3
I0109 18:57:03.948746 33366 net.cpp:86] Creating Layer relu4_3
I0109 18:57:03.948751 33366 net.cpp:408] relu4_3 <- conv4_3
I0109 18:57:03.948763 33366 net.cpp:369] relu4_3 -> conv4_3 (in-place)
I0109 18:57:03.949160 33366 net.cpp:124] Setting up relu4_3
I0109 18:57:03.949175 33366 net.cpp:131] Top shape: 1 512 28 28 (401408)
I0109 18:57:03.949179 33366 net.cpp:139] Memory required for data: 112193548
I0109 18:57:03.949183 33366 layer_factory.hpp:77] Creating layer pool4
I0109 18:57:03.949190 33366 net.cpp:86] Creating Layer pool4
I0109 18:57:03.949194 33366 net.cpp:408] pool4 <- conv4_3
I0109 18:57:03.949203 33366 net.cpp:382] pool4 -> pool4
I0109 18:57:03.949245 33366 net.cpp:124] Setting up pool4
I0109 18:57:03.949252 33366 net.cpp:131] Top shape: 1 512 14 14 (100352)
I0109 18:57:03.949256 33366 net.cpp:139] Memory required for data: 112594956
I0109 18:57:03.949260 33366 layer_factory.hpp:77] Creating layer conv5_1
I0109 18:57:03.949271 33366 net.cpp:86] Creating Layer conv5_1
I0109 18:57:03.949275 33366 net.cpp:408] conv5_1 <- pool4
I0109 18:57:03.949282 33366 net.cpp:382] conv5_1 -> conv5_1
I0109 18:57:03.959434 33366 net.cpp:124] Setting up conv5_1
I0109 18:57:03.959473 33366 net.cpp:131] Top shape: 1 512 14 14 (100352)
I0109 18:57:03.959478 33366 net.cpp:139] Memory required for data: 112996364
I0109 18:57:03.959489 33366 layer_factory.hpp:77] Creating layer relu5_1
I0109 18:57:03.959501 33366 net.cpp:86] Creating Layer relu5_1
I0109 18:57:03.959506 33366 net.cpp:408] relu5_1 <- conv5_1
I0109 18:57:03.959513 33366 net.cpp:369] relu5_1 -> conv5_1 (in-place)
I0109 18:57:03.960091 33366 net.cpp:124] Setting up relu5_1
I0109 18:57:03.960108 33366 net.cpp:131] Top shape: 1 512 14 14 (100352)
I0109 18:57:03.960111 33366 net.cpp:139] Memory required for data: 113397772
I0109 18:57:03.960115 33366 layer_factory.hpp:77] Creating layer conv5_2
I0109 18:57:03.960127 33366 net.cpp:86] Creating Layer conv5_2
I0109 18:57:03.960131 33366 net.cpp:408] conv5_2 <- conv5_1
I0109 18:57:03.960140 33366 net.cpp:382] conv5_2 -> conv5_2
I0109 18:57:03.968320 33366 net.cpp:124] Setting up conv5_2
I0109 18:57:03.968358 33366 net.cpp:131] Top shape: 1 512 14 14 (100352)
I0109 18:57:03.968363 33366 net.cpp:139] Memory required for data: 113799180
I0109 18:57:03.968372 33366 layer_factory.hpp:77] Creating layer relu5_2
I0109 18:57:03.968382 33366 net.cpp:86] Creating Layer relu5_2
I0109 18:57:03.968387 33366 net.cpp:408] relu5_2 <- conv5_2
I0109 18:57:03.968397 33366 net.cpp:369] relu5_2 -> conv5_2 (in-place)
I0109 18:57:03.968773 33366 net.cpp:124] Setting up relu5_2
I0109 18:57:03.968789 33366 net.cpp:131] Top shape: 1 512 14 14 (100352)
I0109 18:57:03.968793 33366 net.cpp:139] Memory required for data: 114200588
I0109 18:57:03.968797 33366 layer_factory.hpp:77] Creating layer conv5_3
I0109 18:57:03.968808 33366 net.cpp:86] Creating Layer conv5_3
I0109 18:57:03.968812 33366 net.cpp:408] conv5_3 <- conv5_2
I0109 18:57:03.968819 33366 net.cpp:382] conv5_3 -> conv5_3
I0109 18:57:03.985044 33366 net.cpp:124] Setting up conv5_3
I0109 18:57:03.985090 33366 net.cpp:131] Top shape: 1 512 14 14 (100352)
I0109 18:57:03.985096 33366 net.cpp:139] Memory required for data: 114601996
I0109 18:57:03.985108 33366 layer_factory.hpp:77] Creating layer relu5_3
I0109 18:57:03.985121 33366 net.cpp:86] Creating Layer relu5_3
I0109 18:57:03.985126 33366 net.cpp:408] relu5_3 <- conv5_3
I0109 18:57:03.985137 33366 net.cpp:369] relu5_3 -> conv5_3 (in-place)
I0109 18:57:03.987573 33366 net.cpp:124] Setting up relu5_3
I0109 18:57:03.987593 33366 net.cpp:131] Top shape: 1 512 14 14 (100352)
I0109 18:57:03.987597 33366 net.cpp:139] Memory required for data: 115003404
I0109 18:57:03.987602 33366 layer_factory.hpp:77] Creating layer conv5_3_relu5_3_0_split
I0109 18:57:03.987613 33366 net.cpp:86] Creating Layer conv5_3_relu5_3_0_split
I0109 18:57:03.987618 33366 net.cpp:408] conv5_3_relu5_3_0_split <- conv5_3
I0109 18:57:03.987627 33366 net.cpp:382] conv5_3_relu5_3_0_split -> conv5_3_relu5_3_0_split_0
I0109 18:57:03.987639 33366 net.cpp:382] conv5_3_relu5_3_0_split -> conv5_3_relu5_3_0_split_1
I0109 18:57:03.987687 33366 net.cpp:124] Setting up conv5_3_relu5_3_0_split
I0109 18:57:03.987701 33366 net.cpp:131] Top shape: 1 512 14 14 (100352)
I0109 18:57:03.987706 33366 net.cpp:131] Top shape: 1 512 14 14 (100352)
I0109 18:57:03.987710 33366 net.cpp:139] Memory required for data: 115806220
I0109 18:57:03.987715 33366 layer_factory.hpp:77] Creating layer rpn_conv/3x3
I0109 18:57:03.987740 33366 net.cpp:86] Creating Layer rpn_conv/3x3
I0109 18:57:03.987747 33366 net.cpp:408] rpn_conv/3x3 <- conv5_3_relu5_3_0_split_0
I0109 18:57:03.987756 33366 net.cpp:382] rpn_conv/3x3 -> rpn/output
I0109 18:57:04.024945 33366 net.cpp:124] Setting up rpn_conv/3x3
I0109 18:57:04.024976 33366 net.cpp:131] Top shape: 1 512 14 14 (100352)
I0109 18:57:04.024979 33366 net.cpp:139] Memory required for data: 116207628
I0109 18:57:04.024989 33366 layer_factory.hpp:77] Creating layer rpn_relu/3x3
I0109 18:57:04.025000 33366 net.cpp:86] Creating Layer rpn_relu/3x3
I0109 18:57:04.025005 33366 net.cpp:408] rpn_relu/3x3 <- rpn/output
I0109 18:57:04.025014 33366 net.cpp:369] rpn_relu/3x3 -> rpn/output (in-place)
I0109 18:57:04.025604 33366 net.cpp:124] Setting up rpn_relu/3x3
I0109 18:57:04.025630 33366 net.cpp:131] Top shape: 1 512 14 14 (100352)
I0109 18:57:04.025635 33366 net.cpp:139] Memory required for data: 116609036
I0109 18:57:04.025640 33366 layer_factory.hpp:77] Creating layer rpn/output_rpn_relu/3x3_0_split
I0109 18:57:04.025650 33366 net.cpp:86] Creating Layer rpn/output_rpn_relu/3x3_0_split
I0109 18:57:04.025653 33366 net.cpp:408] rpn/output_rpn_relu/3x3_0_split <- rpn/output
I0109 18:57:04.025660 33366 net.cpp:382] rpn/output_rpn_relu/3x3_0_split -> rpn/output_rpn_relu/3x3_0_split_0
I0109 18:57:04.025667 33366 net.cpp:382] rpn/output_rpn_relu/3x3_0_split -> rpn/output_rpn_relu/3x3_0_split_1
I0109 18:57:04.025717 33366 net.cpp:124] Setting up rpn/output_rpn_relu/3x3_0_split
I0109 18:57:04.025727 33366 net.cpp:131] Top shape: 1 512 14 14 (100352)
I0109 18:57:04.025732 33366 net.cpp:131] Top shape: 1 512 14 14 (100352)
I0109 18:57:04.025734 33366 net.cpp:139] Memory required for data: 117411852
I0109 18:57:04.025738 33366 layer_factory.hpp:77] Creating layer rpn_cls_score
I0109 18:57:04.025751 33366 net.cpp:86] Creating Layer rpn_cls_score
I0109 18:57:04.025758 33366 net.cpp:408] rpn_cls_score <- rpn/output_rpn_relu/3x3_0_split_0
I0109 18:57:04.025768 33366 net.cpp:382] rpn_cls_score -> rpn_cls_score
I0109 18:57:04.027667 33366 net.cpp:124] Setting up rpn_cls_score
I0109 18:57:04.027683 33366 net.cpp:131] Top shape: 1 18 14 14 (3528)
I0109 18:57:04.027688 33366 net.cpp:139] Memory required for data: 117425964
I0109 18:57:04.027694 33366 layer_factory.hpp:77] Creating layer rpn_bbox_pred
I0109 18:57:04.027707 33366 net.cpp:86] Creating Layer rpn_bbox_pred
I0109 18:57:04.027711 33366 net.cpp:408] rpn_bbox_pred <- rpn/output_rpn_relu/3x3_0_split_1
I0109 18:57:04.027720 33366 net.cpp:382] rpn_bbox_pred -> rpn_bbox_pred
I0109 18:57:04.029682 33366 net.cpp:124] Setting up rpn_bbox_pred
I0109 18:57:04.029711 33366 net.cpp:131] Top shape: 1 36 14 14 (7056)
I0109 18:57:04.029716 33366 net.cpp:139] Memory required for data: 117454188
I0109 18:57:04.029722 33366 layer_factory.hpp:77] Creating layer rpn_cls_score_reshape
I0109 18:57:04.029733 33366 net.cpp:86] Creating Layer rpn_cls_score_reshape
I0109 18:57:04.029737 33366 net.cpp:408] rpn_cls_score_reshape <- rpn_cls_score
I0109 18:57:04.029743 33366 net.cpp:382] rpn_cls_score_reshape -> rpn_cls_score_reshape
I0109 18:57:04.029775 33366 net.cpp:124] Setting up rpn_cls_score_reshape
I0109 18:57:04.029784 33366 net.cpp:131] Top shape: 1 2 126 14 (3528)
I0109 18:57:04.029788 33366 net.cpp:139] Memory required for data: 117468300
I0109 18:57:04.029791 33366 layer_factory.hpp:77] Creating layer rpn_cls_prob
I0109 18:57:04.029798 33366 net.cpp:86] Creating Layer rpn_cls_prob
I0109 18:57:04.029801 33366 net.cpp:408] rpn_cls_prob <- rpn_cls_score_reshape
I0109 18:57:04.029809 33366 net.cpp:382] rpn_cls_prob -> rpn_cls_prob
I0109 18:57:04.030259 33366 net.cpp:124] Setting up rpn_cls_prob
I0109 18:57:04.030273 33366 net.cpp:131] Top shape: 1 2 126 14 (3528)
I0109 18:57:04.030277 33366 net.cpp:139] Memory required for data: 117482412
I0109 18:57:04.030282 33366 layer_factory.hpp:77] Creating layer rpn_cls_prob_reshape
I0109 18:57:04.030290 33366 net.cpp:86] Creating Layer rpn_cls_prob_reshape
I0109 18:57:04.030294 33366 net.cpp:408] rpn_cls_prob_reshape <- rpn_cls_prob
I0109 18:57:04.030302 33366 net.cpp:382] rpn_cls_prob_reshape -> rpn_cls_prob_reshape
I0109 18:57:04.030326 33366 net.cpp:124] Setting up rpn_cls_prob_reshape
I0109 18:57:04.030333 33366 net.cpp:131] Top shape: 1 18 14 14 (3528)
I0109 18:57:04.030336 33366 net.cpp:139] Memory required for data: 117496524
I0109 18:57:04.030339 33366 layer_factory.hpp:77] Creating layer proposal
I0109 18:57:04.031411 33366 net.cpp:86] Creating Layer proposal
I0109 18:57:04.031427 33366 net.cpp:408] proposal <- rpn_cls_prob_reshape
I0109 18:57:04.031433 33366 net.cpp:408] proposal <- rpn_bbox_pred
I0109 18:57:04.031438 33366 net.cpp:408] proposal <- im_info
I0109 18:57:04.031445 33366 net.cpp:382] proposal -> rois
I0109 18:57:04.032297 33366 net.cpp:124] Setting up proposal
I0109 18:57:04.032313 33366 net.cpp:131] Top shape: 1 5 (5)
I0109 18:57:04.032328 33366 net.cpp:139] Memory required for data: 117496544
I0109 18:57:04.032332 33366 layer_factory.hpp:77] Creating layer roi_pool5
I0109 18:57:04.032341 33366 net.cpp:86] Creating Layer roi_pool5
I0109 18:57:04.032346 33366 net.cpp:408] roi_pool5 <- conv5_3_relu5_3_0_split_1
I0109 18:57:04.032351 33366 net.cpp:408] roi_pool5 <- rois
I0109 18:57:04.032356 33366 net.cpp:382] roi_pool5 -> pool5
I0109 18:57:04.032364 33366 roi_pooling_layer.cpp:30] Spatial scale: 0.0625
I0109 18:57:04.032414 33366 net.cpp:124] Setting up roi_pool5
I0109 18:57:04.032423 33366 net.cpp:131] Top shape: 1 512 7 7 (25088)
I0109 18:57:04.032428 33366 net.cpp:139] Memory required for data: 117596896
I0109 18:57:04.032430 33366 layer_factory.hpp:77] Creating layer fc6
I0109 18:57:04.032438 33366 net.cpp:86] Creating Layer fc6
I0109 18:57:04.032443 33366 net.cpp:408] fc6 <- pool5
I0109 18:57:04.032450 33366 net.cpp:382] fc6 -> fc6
I0109 18:57:04.315176 33366 net.cpp:124] Setting up fc6
I0109 18:57:04.315249 33366 net.cpp:131] Top shape: 1 4096 (4096)
I0109 18:57:04.315253 33366 net.cpp:139] Memory required for data: 117613280
I0109 18:57:04.315279 33366 layer_factory.hpp:77] Creating layer relu6
I0109 18:57:04.315295 33366 net.cpp:86] Creating Layer relu6
I0109 18:57:04.315299 33366 net.cpp:408] relu6 <- fc6
I0109 18:57:04.315307 33366 net.cpp:369] relu6 -> fc6 (in-place)
I0109 18:57:04.316130 33366 net.cpp:124] Setting up relu6
I0109 18:57:04.316145 33366 net.cpp:131] Top shape: 1 4096 (4096)
I0109 18:57:04.316160 33366 net.cpp:139] Memory required for data: 117629664
I0109 18:57:04.316164 33366 layer_factory.hpp:77] Creating layer drop6
I0109 18:57:04.316174 33366 net.cpp:86] Creating Layer drop6
I0109 18:57:04.316179 33366 net.cpp:408] drop6 <- fc6
I0109 18:57:04.316186 33366 net.cpp:369] drop6 -> fc6 (in-place)
I0109 18:57:04.316213 33366 net.cpp:124] Setting up drop6
I0109 18:57:04.316218 33366 net.cpp:131] Top shape: 1 4096 (4096)
I0109 18:57:04.316222 33366 net.cpp:139] Memory required for data: 117646048
I0109 18:57:04.316226 33366 layer_factory.hpp:77] Creating layer fc7
I0109 18:57:04.316237 33366 net.cpp:86] Creating Layer fc7
I0109 18:57:04.316241 33366 net.cpp:408] fc7 <- fc6
I0109 18:57:04.316246 33366 net.cpp:382] fc7 -> fc7
I0109 18:57:04.366168 33366 net.cpp:124] Setting up fc7
I0109 18:57:04.366209 33366 net.cpp:131] Top shape: 1 4096 (4096)
I0109 18:57:04.366214 33366 net.cpp:139] Memory required for data: 117662432
I0109 18:57:04.366228 33366 layer_factory.hpp:77] Creating layer relu7
I0109 18:57:04.366241 33366 net.cpp:86] Creating Layer relu7
I0109 18:57:04.366246 33366 net.cpp:408] relu7 <- fc7
I0109 18:57:04.366252 33366 net.cpp:369] relu7 -> fc7 (in-place)
I0109 18:57:04.366729 33366 net.cpp:124] Setting up relu7
I0109 18:57:04.366744 33366 net.cpp:131] Top shape: 1 4096 (4096)
I0109 18:57:04.366748 33366 net.cpp:139] Memory required for data: 117678816
I0109 18:57:04.366752 33366 layer_factory.hpp:77] Creating layer drop7
I0109 18:57:04.366760 33366 net.cpp:86] Creating Layer drop7
I0109 18:57:04.366763 33366 net.cpp:408] drop7 <- fc7
I0109 18:57:04.366772 33366 net.cpp:369] drop7 -> fc7 (in-place)
I0109 18:57:04.366798 33366 net.cpp:124] Setting up drop7
I0109 18:57:04.366803 33366 net.cpp:131] Top shape: 1 4096 (4096)
I0109 18:57:04.366807 33366 net.cpp:139] Memory required for data: 117695200
I0109 18:57:04.366811 33366 layer_factory.hpp:77] Creating layer fc7_drop7_0_split
I0109 18:57:04.366822 33366 net.cpp:86] Creating Layer fc7_drop7_0_split
I0109 18:57:04.366825 33366 net.cpp:408] fc7_drop7_0_split <- fc7
I0109 18:57:04.366832 33366 net.cpp:382] fc7_drop7_0_split -> fc7_drop7_0_split_0
I0109 18:57:04.366840 33366 net.cpp:382] fc7_drop7_0_split -> fc7_drop7_0_split_1
I0109 18:57:04.366873 33366 net.cpp:124] Setting up fc7_drop7_0_split
I0109 18:57:04.366883 33366 net.cpp:131] Top shape: 1 4096 (4096)
I0109 18:57:04.366886 33366 net.cpp:131] Top shape: 1 4096 (4096)
I0109 18:57:04.366889 33366 net.cpp:139] Memory required for data: 117727968
I0109 18:57:04.366894 33366 layer_factory.hpp:77] Creating layer cls_score
I0109 18:57:04.366905 33366 net.cpp:86] Creating Layer cls_score
I0109 18:57:04.366909 33366 net.cpp:408] cls_score <- fc7_drop7_0_split_0
I0109 18:57:04.366915 33366 net.cpp:382] cls_score -> cls_score
I0109 18:57:04.367434 33366 net.cpp:124] Setting up cls_score
I0109 18:57:04.367444 33366 net.cpp:131] Top shape: 1 9 (9)
I0109 18:57:04.367449 33366 net.cpp:139] Memory required for data: 117728004
I0109 18:57:04.367455 33366 layer_factory.hpp:77] Creating layer bbox_pred
I0109 18:57:04.367461 33366 net.cpp:86] Creating Layer bbox_pred
I0109 18:57:04.367465 33366 net.cpp:408] bbox_pred <- fc7_drop7_0_split_1
I0109 18:57:04.367473 33366 net.cpp:382] bbox_pred -> bbox_pred
I0109 18:57:04.369274 33366 net.cpp:124] Setting up bbox_pred
I0109 18:57:04.369287 33366 net.cpp:131] Top shape: 1 36 (36)
I0109 18:57:04.369290 33366 net.cpp:139] Memory required for data: 117728148
I0109 18:57:04.369297 33366 layer_factory.hpp:77] Creating layer cls_prob
I0109 18:57:04.369308 33366 net.cpp:86] Creating Layer cls_prob
I0109 18:57:04.369313 33366 net.cpp:408] cls_prob <- cls_score
I0109 18:57:04.369318 33366 net.cpp:382] cls_prob -> cls_prob
I0109 18:57:04.371811 33366 net.cpp:124] Setting up cls_prob
I0109 18:57:04.371827 33366 net.cpp:131] Top shape: 1 9 (9)
I0109 18:57:04.371831 33366 net.cpp:139] Memory required for data: 117728184
I0109 18:57:04.371835 33366 net.cpp:202] cls_prob does not need backward computation.
I0109 18:57:04.371840 33366 net.cpp:202] bbox_pred does not need backward computation.
I0109 18:57:04.371843 33366 net.cpp:202] cls_score does not need backward computation.
I0109 18:57:04.371847 33366 net.cpp:202] fc7_drop7_0_split does not need backward computation.
…
