…
snapshot_prefix: "vgg16_faster_rcnn"
average_loss: 100
iter_size: 2
I0109 19:40:37.480465 34000 solver.cpp:92] Creating training net from train_net file: models/pascal_voc/VGG16/faster_rcnn_end2end/train.prototxt
I0109 19:40:37.481253 34000 net.cpp:53] Initializing net from parameters: 
name: "VGG_ILSVRC_16_layers"
state {
  phase: TRAIN
}
layer {
  name: "input-data"
  type: "Python"
  top: "data"
  top: "im_info"
  top: "gt_boxes"
  python_param {
    module: "roi_data_layer.layer"
    layer: "RoIDataLayer"
    param_str: "\'num_classes\': 9"
  }
}
layer {
  name: "conv1_1"
  type: "Convolution"
  bottom: "data"
  top: "conv1_1"
  param {
    lr_mult: 0
    decay_mult: 0
  }
  param {
    lr_mult: 0
    decay_mult: 0
  }
  convolution_param {
    num_output: 64
    pad: 1
    kernel_size: 3
  }
}
layer {
  name: "relu1_1"
  type: "ReLU"
  bottom: "conv1_1"
  top: "conv1_1"
}
layer {
  name: "conv1_2"
  type: "Convolution"
  bottom: "conv1_1"
  top: "conv1_2"
  param {
    lr_mult: 0
    decay_mult: 0
  }
  param {
    lr_mult: 0
    decay_mult: 0
  }
  convolution_param {
    num_output: 64
    pad: 1
    kernel_size: 3
  }
}
layer {
  name: "relu1_2"
  type: "ReLU"
  bottom: "conv1_2"
  top: "conv1_2"
}
layer {
  name: "pool1"
  type: "Pooling"
  bottom: "conv1_2"
  top: "pool1"
  pooling_param {
    pool: MAX
    kernel_size: 2
    stride: 2
  }
}
layer {
  name: "conv2_1"
  type: "Convolution"
  bottom: "pool1"
  top: "conv2_1"
  param {
    lr_mult: 0
    decay_mult: 0
  }
  param {
    lr_mult: 0
    decay_mult: 0
  }
  convolution_param {
    num_output: 128
    pad: 1
    kernel_size: 3
  }
}
layer {
  name: "relu2_1"
  type: "ReLU"
  bottom: "conv2_1"
  top: "conv2_1"
}
layer {
  name: "conv2_2"
  type: "Convolution"
  bottom: "conv2_1"
  top: "conv2_2"
  param {
    lr_mult: 0
    decay_mult: 0
  }
  param {
    lr_mult: 0
    decay_mult: 0
  }
  convolution_param {
    num_output: 128
    pad: 1
    kernel_size: 3
  }
}
layer {
  name: "relu2_2"
  type: "ReLU"
  bottom: "conv2_2"
  top: "conv2_2"
}
layer {
  name: "pool2"
  type: "Pooling"
  bottom: "conv2_2"
  top: "pool2"
  pooling_param {
    pool: MAX
    kernel_size: 2
    stride: 2
  }
}
layer {
  name: "conv3_1"
  type: "Convolution"
  bottom: "pool2"
  top: "conv3_1"
  param {
    lr_mult: 1
  }
  param {
    lr_mult: 2
  }
  convolution_param {
    num_output: 256
    pad: 1
    kernel_size: 3
  }
}
layer {
  name: "relu3_1"
  type: "ReLU"
  bottom: "conv3_1"
  top: "conv3_1"
}
layer {
  name: "conv3_2"
  type: "Convolution"
  bottom: "conv3_1"
  top: "conv3_2"
  param {
    lr_mult: 1
  }
  param {
    lr_mult: 2
  }
  convolution_param {
    num_output: 256
    pad: 1
    kernel_size: 3
  }
}
layer {
  name: "relu3_2"
  type: "ReLU"
  bottom: "conv3_2"
  top: "conv3_2"
}
layer {
  name: "conv3_3"
  type: "Convolution"
  bottom: "conv3_2"
  top: "conv3_3"
  param {
    lr_mult: 1
  }
  param {
    lr_mult: 2
  }
  convolution_param {
    num_output: 256
    pad: 1
    kernel_size: 3
  }
}
layer {
  name: "relu3_3"
  type: "ReLU"
  bottom: "conv3_3"
  top: "conv3_3"
}
layer {
  name: "pool3"
  type: "Pooling"
  bottom: "conv3_3"
  top: "pool3"
  pooling_param {
    pool: MAX
    kernel_size: 2
    stride: 2
  }
}
layer {
  name: "conv4_1"
  type: "Convolution"
  bottom: "pool3"
  top: "conv4_1"
  param {
    lr_mult: 1
  }
  param {
    lr_mult: 2
  }
  convolution_param {
    num_output: 512
    pad: 1
    kernel_size: 3
  }
}
layer {
  name: "relu4_1"
  type: "ReLU"
  bottom: "conv4_1"
  top: "conv4_1"
}
layer {
  name: "conv4_2"
  type: "Convolution"
  bottom: "conv4_1"
  top: "conv4_2"
  param {
    lr_mult: 1
  }
  param {
    lr_mult: 2
  }
  convolution_param {
    num_output: 512
    pad: 1
    kernel_size: 3
  }
}
layer {
  name: "relu4_2"
  type: "ReLU"
  bottom: "conv4_2"
  top: "conv4_2"
}
layer {
  name: "conv4_3"
  type: "Convolution"
  bottom: "conv4_2"
  top: "conv4_3"
  param {
    lr_mult: 1
  }
  param {
    lr_mult: 2
  }
  convolution_param {
    num_output: 512
    pad: 1
    kernel_size: 3
  }
}
layer {
  name: "relu4_3"
  type: "ReLU"
  bottom: "conv4_3"
  top: "conv4_3"
}
layer {
  name: "pool4"
  type: "Pooling"
  bottom: "conv4_3"
  top: "pool4"
  pooling_param {
    pool: MAX
    kernel_size: 2
    stride: 2
  }
}
layer {
  name: "conv5_1"
  type: "Convolution"
  bottom: "pool4"
  top: "conv5_1"
  param {
    lr_mult: 1
  }
  param {
    lr_mult: 2
  }
  convolution_param {
    num_output: 512
    pad: 1
    kernel_size: 3
  }
}
layer {
  name: "relu5_1"
  type: "ReLU"
  bottom: "conv5_1"
  top: "conv5_1"
}
layer {
  name: "conv5_2"
  type: "Convolution"
  bottom: "conv5_1"
  top: "conv5_2"
  param {
    lr_mult: 1
  }
  param {
    lr_mult: 2
  }
  convolution_param {
    num_output: 512
    pad: 1
    kernel_size: 3
  }
}
layer {
  name: "relu5_2"
  type: "ReLU"
  bottom: "conv5_2"
  top: "conv5_2"
}
layer {
  name: "conv5_3"
  type: "Convolution"
  bottom: "conv5_2"
  top: "conv5_3"
  param {
    lr_mult: 1
  }
  param {
    lr_mult: 2
  }
  convolution_param {
    num_output: 512
    pad: 1
    kernel_size: 3
  }
}
layer {
  name: "relu5_3"
  type: "ReLU"
  bottom: "conv5_3"
  top: "conv5_3"
}
layer {
  name: "rpn_conv/3x3"
  type: "Convolution"
  bottom: "conv5_3"
  top: "rpn/output"
  param {
    lr_mult: 1
  }
  param {
    lr_mult: 2
  }
  convolution_param {
    num_output: 512
    pad: 1
    kernel_size: 3
    stride: 1
    weight_filler {
      type: "gaussian"
      std: 0.01
    }
    bias_filler {
      type: "constant"
      value: 0
    }
  }
}
layer {
  name: "rpn_relu/3x3"
  type: "ReLU"
  bottom: "rpn/output"
  top: "rpn/output"
}
layer {
  name: "rpn_cls_score"
  type: "Convolution"
  bottom: "rpn/output"
  top: "rpn_cls_score"
  param {
    lr_mult: 1
  }
  param {
    lr_mult: 2
  }
  convolution_param {
    num_output: 18
    pad: 0
    kernel_size: 1
    stride: 1
    weight_filler {
      type: "gaussian"
      std: 0.01
    }
    bias_filler {
      type: "constant"
      value: 0
    }
  }
}
layer {
  name: "rpn_bbox_pred"
  type: "Convolution"
  bottom: "rpn/output"
  top: "rpn_bbox_pred"
  param {
    lr_mult: 1
  }
  param {
    lr_mult: 2
  }
  convolution_param {
    num_output: 36
    pad: 0
    kernel_size: 1
    stride: 1
    weight_filler {
      type: "gaussian"
      std: 0.01
    }
    bias_filler {
      type: "constant"
      value: 0
    }
  }
}
layer {
  name: "rpn_cls_score_reshape"
  type: "Reshape"
  bottom: "rpn_cls_score"
  top: "rpn_cls_score_reshape"
  reshape_param {
    shape {
      dim: 0
      dim: 2
      dim: -1
      dim: 0
    }
  }
}
layer {
  name: "rpn-data"
  type: "Python"
  bottom: "rpn_cls_score"
  bottom: "gt_boxes"
  bottom: "im_info"
  bottom: "data"
  top: "rpn_labels"
  top: "rpn_bbox_targets"
  top: "rpn_bbox_inside_weights"
  top: "rpn_bbox_outside_weights"
  python_param {
    module: "rpn.anchor_target_layer"
    layer: "AnchorTargetLayer"
    param_str: "\'feat_stride\': 16"
  }
}
layer {
  name: "rpn_loss_cls"
  type: "SoftmaxWithLoss"
  bottom: "rpn_cls_score_reshape"
  bottom: "rpn_labels"
  top: "rpn_cls_loss"
  loss_weight: 1
  propagate_down: true
  propagate_down: false
  loss_param {
    ignore_label: -1
    normalize: true
  }
}
layer {
  name: "rpn_loss_bbox"
  type: "SmoothL1Loss"
  bottom: "rpn_bbox_pred"
  bottom: "rpn_bbox_targets"
  bottom: "rpn_bbox_inside_weights"
  bottom: "rpn_bbox_outside_weights"
  top: "rpn_loss_bbox"
  loss_weight: 1
  smooth_l1_loss_param {
    sigma: 3
  }
}
layer {
  name: "rpn_cls_prob"
  type: "Softmax"
  bottom: "rpn_cls_score_reshape"
  top: "rpn_cls_prob"
}
layer {
  name: "rpn_cls_prob_reshape"
  type: "Reshape"
  bottom: "rpn_cls_prob"
  top: "rpn_cls_prob_reshape"
  reshape_param {
    shape {
      dim: 0
      dim: 18
      dim: -1
      dim: 0
    }
  }
}
layer {
  name: "proposal"
  type: "Python"
  bottom: "rpn_cls_prob_reshape"
  bottom: "rpn_bbox_pred"
  bottom: "im_info"
  top: "rpn_rois"
  python_param {
    module: "rpn.proposal_layer"
    layer: "ProposalLayer"
    param_str: "\'feat_stride\': 16"
  }
}
layer {
  name: "roi-data"
  type: "Python"
  bottom: "rpn_rois"
  bottom: "gt_boxes"
  top: "rois"
  top: "labels"
  top: "bbox_targets"
  top: "bbox_inside_weights"
  top: "bbox_outside_weights"
  python_param {
    module: "rpn.proposal_target_layer"
    layer: "ProposalTargetLayer"
    param_str: "\'num_classes\': 9"
  }
}
layer {
  name: "roi_pool5"
  type: "ROIPooling"
  bottom: "conv5_3"
  bottom: "rois"
  top: "pool5"
  roi_pooling_param {
    pooled_h: 7
    pooled_w: 7
    spatial_scale: 0.0625
  }
}
layer {
  name: "fc6"
  type: "InnerProduct"
  bottom: "pool5"
  top: "fc6"
  param {
    lr_mult: 1
  }
  param {
    lr_mult: 2
  }
  inner_product_param {
    num_output: 4096
  }
}
layer {
  name: "relu6"
  type: "ReLU"
  bottom: "fc6"
  top: "fc6"
}
layer {
  name: "drop6"
  type: "Dropout"
  bottom: "fc6"
  top: "fc6"
  dropout_param {
    dropout_ratio: 0.5
  }
}
layer {
  name: "fc7"
  type: "InnerProduct"
  bottom: "fc6"
  top: "fc7"
  param {
    lr_mult: 1
  }
  param {
    lr_mult: 2
  }
  inner_product_param {
    num_output: 4096
  }
}
layer {
  name: "relu7"
  type: "ReLU"
  bottom: "fc7"
  top: "fc7"
}
layer {
  name: "drop7"
  type: "Dropout"
  bottom: "fc7"
  top: "fc7"
  dropout_param {
    dropout_ratio: 0.5
  }
}
layer {
  name: "cls_score"
  type: "InnerProduct"
  bottom: "fc7"
  top: "cls_score"
  param {
    lr_mult: 1
  }
  param {
    lr_mult: 2
  }
  inner_product_param {
    num_output: 9
    weight_filler {
      type: "gaussian"
      std: 0.01
    }
    bias_filler {
      type: "constant"
      value: 0
    }
  }
}
layer {
  name: "bbox_pred"
  type: "InnerProduct"
  bottom: "fc7"
  top: "bbox_pred"
  param {
    lr_mult: 1
  }
  param {
    lr_mult: 2
  }
  inner_product_param {
    num_output: 36
    weight_filler {
      type: "gaussian"
      std: 0.001
    }
    bias_filler {
      type: "constant"
      value: 0
    }
  }
}
layer {
  name: "loss_cls"
  type: "SoftmaxWithLoss"
  bottom: "cls_score"
  bottom: "labels"
  top: "loss_cls"
  loss_weight: 1
  propagate_down: true
  propagate_down: false
}
layer {
  name: "loss_bbox"
  type: "SmoothL1Loss"
  bottom: "bbox_pred"
  bottom: "bbox_targets"
  bottom: "bbox_inside_weights"
  bottom: "bbox_outside_weights"
  top: "loss_bbox"
  loss_weight: 1
}
I0109 19:40:37.481515 34000 layer_factory.hpp:77] Creating layer input-data
I0109 19:40:37.505900 34000 net.cpp:86] Creating Layer input-data
I0109 19:40:37.505940 34000 net.cpp:382] input-data -> data
I0109 19:40:37.505954 34000 net.cpp:382] input-data -> im_info
I0109 19:40:37.505964 34000 net.cpp:382] input-data -> gt_boxes
RoiDataLayer: name_to_top: {'data': 0, 'im_info': 1, 'gt_boxes': 2}
I0109 19:40:37.510941 34000 net.cpp:124] Setting up input-data
I0109 19:40:37.510962 34000 net.cpp:131] Top shape: 1 3 600 1000 (1800000)
I0109 19:40:37.510967 34000 net.cpp:131] Top shape: 1 3 (3)
I0109 19:40:37.510972 34000 net.cpp:131] Top shape: 1 4 (4)
I0109 19:40:37.510975 34000 net.cpp:139] Memory required for data: 7200028
I0109 19:40:37.510982 34000 layer_factory.hpp:77] Creating layer data_input-data_0_split
I0109 19:40:37.510993 34000 net.cpp:86] Creating Layer data_input-data_0_split
I0109 19:40:37.510998 34000 net.cpp:408] data_input-data_0_split <- data
I0109 19:40:37.511005 34000 net.cpp:382] data_input-data_0_split -> data_input-data_0_split_0
I0109 19:40:37.511014 34000 net.cpp:382] data_input-data_0_split -> data_input-data_0_split_1
I0109 19:40:37.511052 34000 net.cpp:124] Setting up data_input-data_0_split
I0109 19:40:37.511062 34000 net.cpp:131] Top shape: 1 3 600 1000 (1800000)
I0109 19:40:37.511067 34000 net.cpp:131] Top shape: 1 3 600 1000 (1800000)
I0109 19:40:37.511071 34000 net.cpp:139] Memory required for data: 21600028
I0109 19:40:37.511075 34000 layer_factory.hpp:77] Creating layer im_info_input-data_1_split
I0109 19:40:37.511081 34000 net.cpp:86] Creating Layer im_info_input-data_1_split
I0109 19:40:37.511085 34000 net.cpp:408] im_info_input-data_1_split <- im_info
I0109 19:40:37.511091 34000 net.cpp:382] im_info_input-data_1_split -> im_info_input-data_1_split_0
I0109 19:40:37.511099 34000 net.cpp:382] im_info_input-data_1_split -> im_info_input-data_1_split_1
I0109 19:40:37.511126 34000 net.cpp:124] Setting up im_info_input-data_1_split
I0109 19:40:37.511134 34000 net.cpp:131] Top shape: 1 3 (3)
I0109 19:40:37.511139 34000 net.cpp:131] Top shape: 1 3 (3)
I0109 19:40:37.511142 34000 net.cpp:139] Memory required for data: 21600052
I0109 19:40:37.511147 34000 layer_factory.hpp:77] Creating layer gt_boxes_input-data_2_split
I0109 19:40:37.511152 34000 net.cpp:86] Creating Layer gt_boxes_input-data_2_split
I0109 19:40:37.511157 34000 net.cpp:408] gt_boxes_input-data_2_split <- gt_boxes
I0109 19:40:37.511162 34000 net.cpp:382] gt_boxes_input-data_2_split -> gt_boxes_input-data_2_split_0
I0109 19:40:37.511169 34000 net.cpp:382] gt_boxes_input-data_2_split -> gt_boxes_input-data_2_split_1
I0109 19:40:37.511199 34000 net.cpp:124] Setting up gt_boxes_input-data_2_split
I0109 19:40:37.511207 34000 net.cpp:131] Top shape: 1 4 (4)
I0109 19:40:37.511212 34000 net.cpp:131] Top shape: 1 4 (4)
I0109 19:40:37.511215 34000 net.cpp:139] Memory required for data: 21600084
I0109 19:40:37.511219 34000 layer_factory.hpp:77] Creating layer conv1_1
I0109 19:40:37.511231 34000 net.cpp:86] Creating Layer conv1_1
I0109 19:40:37.511240 34000 net.cpp:408] conv1_1 <- data_input-data_0_split_0
I0109 19:40:37.511245 34000 net.cpp:382] conv1_1 -> conv1_1
I0109 19:40:38.695849 34000 net.cpp:124] Setting up conv1_1
I0109 19:40:38.695899 34000 net.cpp:131] Top shape: 1 64 600 1000 (38400000)
I0109 19:40:38.695904 34000 net.cpp:139] Memory required for data: 175200084
I0109 19:40:38.695930 34000 layer_factory.hpp:77] Creating layer relu1_1
I0109 19:40:38.695945 34000 net.cpp:86] Creating Layer relu1_1
I0109 19:40:38.695950 34000 net.cpp:408] relu1_1 <- conv1_1
I0109 19:40:38.695956 34000 net.cpp:369] relu1_1 -> conv1_1 (in-place)
I0109 19:40:38.696336 34000 net.cpp:124] Setting up relu1_1
I0109 19:40:38.696362 34000 net.cpp:131] Top shape: 1 64 600 1000 (38400000)
I0109 19:40:38.696367 34000 net.cpp:139] Memory required for data: 328800084
I0109 19:40:38.696372 34000 layer_factory.hpp:77] Creating layer conv1_2
I0109 19:40:38.696382 34000 net.cpp:86] Creating Layer conv1_2
I0109 19:40:38.696386 34000 net.cpp:408] conv1_2 <- conv1_1
I0109 19:40:38.696395 34000 net.cpp:382] conv1_2 -> conv1_2
I0109 19:40:38.699879 34000 net.cpp:124] Setting up conv1_2
I0109 19:40:38.699899 34000 net.cpp:131] Top shape: 1 64 600 1000 (38400000)
I0109 19:40:38.699916 34000 net.cpp:139] Memory required for data: 482400084
I0109 19:40:38.699926 34000 layer_factory.hpp:77] Creating layer relu1_2
I0109 19:40:38.699936 34000 net.cpp:86] Creating Layer relu1_2
I0109 19:40:38.699941 34000 net.cpp:408] relu1_2 <- conv1_2
I0109 19:40:38.699947 34000 net.cpp:369] relu1_2 -> conv1_2 (in-place)
I0109 19:40:38.711529 34000 net.cpp:124] Setting up relu1_2
I0109 19:40:38.711575 34000 net.cpp:131] Top shape: 1 64 600 1000 (38400000)
I0109 19:40:38.711582 34000 net.cpp:139] Memory required for data: 636000084
I0109 19:40:38.711591 34000 layer_factory.hpp:77] Creating layer pool1
I0109 19:40:38.711616 34000 net.cpp:86] Creating Layer pool1
I0109 19:40:38.711623 34000 net.cpp:408] pool1 <- conv1_2
I0109 19:40:38.711637 34000 net.cpp:382] pool1 -> pool1
I0109 19:40:38.711716 34000 net.cpp:124] Setting up pool1
I0109 19:40:38.711730 34000 net.cpp:131] Top shape: 1 64 300 500 (9600000)
I0109 19:40:38.711735 34000 net.cpp:139] Memory required for data: 674400084
I0109 19:40:38.711740 34000 layer_factory.hpp:77] Creating layer conv2_1
I0109 19:40:38.711756 34000 net.cpp:86] Creating Layer conv2_1
I0109 19:40:38.711764 34000 net.cpp:408] conv2_1 <- pool1
I0109 19:40:38.711773 34000 net.cpp:382] conv2_1 -> conv2_1
I0109 19:40:38.714839 34000 net.cpp:124] Setting up conv2_1
I0109 19:40:38.714864 34000 net.cpp:131] Top shape: 1 128 300 500 (19200000)
I0109 19:40:38.714876 34000 net.cpp:139] Memory required for data: 751200084
I0109 19:40:38.714893 34000 layer_factory.hpp:77] Creating layer relu2_1
I0109 19:40:38.714905 34000 net.cpp:86] Creating Layer relu2_1
I0109 19:40:38.714910 34000 net.cpp:408] relu2_1 <- conv2_1
I0109 19:40:38.714922 34000 net.cpp:369] relu2_1 -> conv2_1 (in-place)
I0109 19:40:38.715462 34000 net.cpp:124] Setting up relu2_1
I0109 19:40:38.715481 34000 net.cpp:131] Top shape: 1 128 300 500 (19200000)
I0109 19:40:38.715492 34000 net.cpp:139] Memory required for data: 828000084
I0109 19:40:38.715497 34000 layer_factory.hpp:77] Creating layer conv2_2
I0109 19:40:38.715512 34000 net.cpp:86] Creating Layer conv2_2
I0109 19:40:38.715518 34000 net.cpp:408] conv2_2 <- conv2_1
I0109 19:40:38.715530 34000 net.cpp:382] conv2_2 -> conv2_2
I0109 19:40:38.721912 34000 net.cpp:124] Setting up conv2_2
I0109 19:40:38.721951 34000 net.cpp:131] Top shape: 1 128 300 500 (19200000)
I0109 19:40:38.721956 34000 net.cpp:139] Memory required for data: 904800084
I0109 19:40:38.721966 34000 layer_factory.hpp:77] Creating layer relu2_2
I0109 19:40:38.721977 34000 net.cpp:86] Creating Layer relu2_2
I0109 19:40:38.721982 34000 net.cpp:408] relu2_2 <- conv2_2
I0109 19:40:38.721992 34000 net.cpp:369] relu2_2 -> conv2_2 (in-place)
I0109 19:40:38.722548 34000 net.cpp:124] Setting up relu2_2
I0109 19:40:38.722576 34000 net.cpp:131] Top shape: 1 128 300 500 (19200000)
I0109 19:40:38.722580 34000 net.cpp:139] Memory required for data: 981600084
I0109 19:40:38.722584 34000 layer_factory.hpp:77] Creating layer pool2
I0109 19:40:38.722594 34000 net.cpp:86] Creating Layer pool2
I0109 19:40:38.722597 34000 net.cpp:408] pool2 <- conv2_2
I0109 19:40:38.722604 34000 net.cpp:382] pool2 -> pool2
I0109 19:40:38.722654 34000 net.cpp:124] Setting up pool2
I0109 19:40:38.722663 34000 net.cpp:131] Top shape: 1 128 150 250 (4800000)
I0109 19:40:38.722667 34000 net.cpp:139] Memory required for data: 1000800084
I0109 19:40:38.722671 34000 layer_factory.hpp:77] Creating layer conv3_1
I0109 19:40:38.722683 34000 net.cpp:86] Creating Layer conv3_1
I0109 19:40:38.722688 34000 net.cpp:408] conv3_1 <- pool2
I0109 19:40:38.722697 34000 net.cpp:382] conv3_1 -> conv3_1
I0109 19:40:38.726727 34000 net.cpp:124] Setting up conv3_1
I0109 19:40:38.726752 34000 net.cpp:131] Top shape: 1 256 150 250 (9600000)
I0109 19:40:38.726756 34000 net.cpp:139] Memory required for data: 1039200084
I0109 19:40:38.726771 34000 layer_factory.hpp:77] Creating layer relu3_1
I0109 19:40:38.726780 34000 net.cpp:86] Creating Layer relu3_1
I0109 19:40:38.726785 34000 net.cpp:408] relu3_1 <- conv3_1
I0109 19:40:38.726794 34000 net.cpp:369] relu3_1 -> conv3_1 (in-place)
I0109 19:40:38.727169 34000 net.cpp:124] Setting up relu3_1
I0109 19:40:38.727182 34000 net.cpp:131] Top shape: 1 256 150 250 (9600000)
I0109 19:40:38.727186 34000 net.cpp:139] Memory required for data: 1077600084
I0109 19:40:38.727190 34000 layer_factory.hpp:77] Creating layer conv3_2
I0109 19:40:38.727210 34000 net.cpp:86] Creating Layer conv3_2
I0109 19:40:38.727214 34000 net.cpp:408] conv3_2 <- conv3_1
I0109 19:40:38.727221 34000 net.cpp:382] conv3_2 -> conv3_2
I0109 19:40:38.735884 34000 net.cpp:124] Setting up conv3_2
I0109 19:40:38.735904 34000 net.cpp:131] Top shape: 1 256 150 250 (9600000)
I0109 19:40:38.735909 34000 net.cpp:139] Memory required for data: 1116000084
I0109 19:40:38.735918 34000 layer_factory.hpp:77] Creating layer relu3_2
I0109 19:40:38.735926 34000 net.cpp:86] Creating Layer relu3_2
I0109 19:40:38.735931 34000 net.cpp:408] relu3_2 <- conv3_2
I0109 19:40:38.735937 34000 net.cpp:369] relu3_2 -> conv3_2 (in-place)
I0109 19:40:38.736539 34000 net.cpp:124] Setting up relu3_2
I0109 19:40:38.736555 34000 net.cpp:131] Top shape: 1 256 150 250 (9600000)
I0109 19:40:38.736559 34000 net.cpp:139] Memory required for data: 1154400084
I0109 19:40:38.736564 34000 layer_factory.hpp:77] Creating layer conv3_3
I0109 19:40:38.736575 34000 net.cpp:86] Creating Layer conv3_3
I0109 19:40:38.736580 34000 net.cpp:408] conv3_3 <- conv3_2
I0109 19:40:38.736589 34000 net.cpp:382] conv3_3 -> conv3_3
I0109 19:40:38.741914 34000 net.cpp:124] Setting up conv3_3
I0109 19:40:38.741948 34000 net.cpp:131] Top shape: 1 256 150 250 (9600000)
I0109 19:40:38.741953 34000 net.cpp:139] Memory required for data: 1192800084
I0109 19:40:38.741962 34000 layer_factory.hpp:77] Creating layer relu3_3
I0109 19:40:38.741981 34000 net.cpp:86] Creating Layer relu3_3
I0109 19:40:38.741986 34000 net.cpp:408] relu3_3 <- conv3_3
I0109 19:40:38.741991 34000 net.cpp:369] relu3_3 -> conv3_3 (in-place)
I0109 19:40:38.742542 34000 net.cpp:124] Setting up relu3_3
I0109 19:40:38.742558 34000 net.cpp:131] Top shape: 1 256 150 250 (9600000)
I0109 19:40:38.742573 34000 net.cpp:139] Memory required for data: 1231200084
I0109 19:40:38.742578 34000 layer_factory.hpp:77] Creating layer pool3
I0109 19:40:38.742588 34000 net.cpp:86] Creating Layer pool3
I0109 19:40:38.742594 34000 net.cpp:408] pool3 <- conv3_3
I0109 19:40:38.742599 34000 net.cpp:382] pool3 -> pool3
I0109 19:40:38.742646 34000 net.cpp:124] Setting up pool3
I0109 19:40:38.742656 34000 net.cpp:131] Top shape: 1 256 75 125 (2400000)
I0109 19:40:38.742660 34000 net.cpp:139] Memory required for data: 1240800084
I0109 19:40:38.742664 34000 layer_factory.hpp:77] Creating layer conv4_1
I0109 19:40:38.742674 34000 net.cpp:86] Creating Layer conv4_1
I0109 19:40:38.742679 34000 net.cpp:408] conv4_1 <- pool3
I0109 19:40:38.742684 34000 net.cpp:382] conv4_1 -> conv4_1
I0109 19:40:38.750406 34000 net.cpp:124] Setting up conv4_1
I0109 19:40:38.750434 34000 net.cpp:131] Top shape: 1 512 75 125 (4800000)
I0109 19:40:38.750438 34000 net.cpp:139] Memory required for data: 1260000084
I0109 19:40:38.750447 34000 layer_factory.hpp:77] Creating layer relu4_1
I0109 19:40:38.750458 34000 net.cpp:86] Creating Layer relu4_1
I0109 19:40:38.750463 34000 net.cpp:408] relu4_1 <- conv4_1
I0109 19:40:38.750470 34000 net.cpp:369] relu4_1 -> conv4_1 (in-place)
I0109 19:40:38.750849 34000 net.cpp:124] Setting up relu4_1
I0109 19:40:38.750861 34000 net.cpp:131] Top shape: 1 512 75 125 (4800000)
I0109 19:40:38.750865 34000 net.cpp:139] Memory required for data: 1279200084
I0109 19:40:38.750870 34000 layer_factory.hpp:77] Creating layer conv4_2
I0109 19:40:38.750880 34000 net.cpp:86] Creating Layer conv4_2
I0109 19:40:38.750885 34000 net.cpp:408] conv4_2 <- conv4_1
I0109 19:40:38.750893 34000 net.cpp:382] conv4_2 -> conv4_2
I0109 19:40:38.758682 34000 net.cpp:124] Setting up conv4_2
I0109 19:40:38.758704 34000 net.cpp:131] Top shape: 1 512 75 125 (4800000)
I0109 19:40:38.758709 34000 net.cpp:139] Memory required for data: 1298400084
I0109 19:40:38.758725 34000 layer_factory.hpp:77] Creating layer relu4_2
I0109 19:40:38.758735 34000 net.cpp:86] Creating Layer relu4_2
I0109 19:40:38.758739 34000 net.cpp:408] relu4_2 <- conv4_2
I0109 19:40:38.758749 34000 net.cpp:369] relu4_2 -> conv4_2 (in-place)
I0109 19:40:38.759342 34000 net.cpp:124] Setting up relu4_2
I0109 19:40:38.759358 34000 net.cpp:131] Top shape: 1 512 75 125 (4800000)
I0109 19:40:38.759362 34000 net.cpp:139] Memory required for data: 1317600084
I0109 19:40:38.759367 34000 layer_factory.hpp:77] Creating layer conv4_3
I0109 19:40:38.759379 34000 net.cpp:86] Creating Layer conv4_3
I0109 19:40:38.759384 34000 net.cpp:408] conv4_3 <- conv4_2
I0109 19:40:38.759393 34000 net.cpp:382] conv4_3 -> conv4_3
I0109 19:40:38.773416 34000 net.cpp:124] Setting up conv4_3
I0109 19:40:38.773447 34000 net.cpp:131] Top shape: 1 512 75 125 (4800000)
I0109 19:40:38.773452 34000 net.cpp:139] Memory required for data: 1336800084
I0109 19:40:38.773464 34000 layer_factory.hpp:77] Creating layer relu4_3
I0109 19:40:38.773476 34000 net.cpp:86] Creating Layer relu4_3
I0109 19:40:38.773483 34000 net.cpp:408] relu4_3 <- conv4_3
I0109 19:40:38.773494 34000 net.cpp:369] relu4_3 -> conv4_3 (in-place)
I0109 19:40:38.773877 34000 net.cpp:124] Setting up relu4_3
I0109 19:40:38.773900 34000 net.cpp:131] Top shape: 1 512 75 125 (4800000)
I0109 19:40:38.773905 34000 net.cpp:139] Memory required for data: 1356000084
I0109 19:40:38.773910 34000 layer_factory.hpp:77] Creating layer pool4
I0109 19:40:38.773917 34000 net.cpp:86] Creating Layer pool4
I0109 19:40:38.773921 34000 net.cpp:408] pool4 <- conv4_3
I0109 19:40:38.773931 34000 net.cpp:382] pool4 -> pool4
I0109 19:40:38.773977 34000 net.cpp:124] Setting up pool4
I0109 19:40:38.773986 34000 net.cpp:131] Top shape: 1 512 38 63 (1225728)
I0109 19:40:38.773990 34000 net.cpp:139] Memory required for data: 1360902996
I0109 19:40:38.773994 34000 layer_factory.hpp:77] Creating layer conv5_1
I0109 19:40:38.774006 34000 net.cpp:86] Creating Layer conv5_1
I0109 19:40:38.774010 34000 net.cpp:408] conv5_1 <- pool4
I0109 19:40:38.774019 34000 net.cpp:382] conv5_1 -> conv5_1
I0109 19:40:38.782253 34000 net.cpp:124] Setting up conv5_1
I0109 19:40:38.782285 34000 net.cpp:131] Top shape: 1 512 38 63 (1225728)
I0109 19:40:38.782289 34000 net.cpp:139] Memory required for data: 1365805908
I0109 19:40:38.782300 34000 layer_factory.hpp:77] Creating layer relu5_1
I0109 19:40:38.782315 34000 net.cpp:86] Creating Layer relu5_1
I0109 19:40:38.782320 34000 net.cpp:408] relu5_1 <- conv5_1
I0109 19:40:38.782327 34000 net.cpp:369] relu5_1 -> conv5_1 (in-place)
I0109 19:40:38.782908 34000 net.cpp:124] Setting up relu5_1
I0109 19:40:38.782927 34000 net.cpp:131] Top shape: 1 512 38 63 (1225728)
I0109 19:40:38.782930 34000 net.cpp:139] Memory required for data: 1370708820
I0109 19:40:38.782934 34000 layer_factory.hpp:77] Creating layer conv5_2
I0109 19:40:38.782945 34000 net.cpp:86] Creating Layer conv5_2
I0109 19:40:38.782949 34000 net.cpp:408] conv5_2 <- conv5_1
I0109 19:40:38.782958 34000 net.cpp:382] conv5_2 -> conv5_2
I0109 19:40:38.793700 34000 net.cpp:124] Setting up conv5_2
I0109 19:40:38.793742 34000 net.cpp:131] Top shape: 1 512 38 63 (1225728)
I0109 19:40:38.793747 34000 net.cpp:139] Memory required for data: 1375611732
I0109 19:40:38.793759 34000 layer_factory.hpp:77] Creating layer relu5_2
I0109 19:40:38.793787 34000 net.cpp:86] Creating Layer relu5_2
I0109 19:40:38.793793 34000 net.cpp:408] relu5_2 <- conv5_2
I0109 19:40:38.793802 34000 net.cpp:369] relu5_2 -> conv5_2 (in-place)
I0109 19:40:38.794196 34000 net.cpp:124] Setting up relu5_2
I0109 19:40:38.794210 34000 net.cpp:131] Top shape: 1 512 38 63 (1225728)
I0109 19:40:38.794214 34000 net.cpp:139] Memory required for data: 1380514644
I0109 19:40:38.794219 34000 layer_factory.hpp:77] Creating layer conv5_3
I0109 19:40:38.794242 34000 net.cpp:86] Creating Layer conv5_3
I0109 19:40:38.794247 34000 net.cpp:408] conv5_3 <- conv5_2
I0109 19:40:38.794255 34000 net.cpp:382] conv5_3 -> conv5_3
I0109 19:40:38.804306 34000 net.cpp:124] Setting up conv5_3
I0109 19:40:38.804347 34000 net.cpp:131] Top shape: 1 512 38 63 (1225728)
I0109 19:40:38.804352 34000 net.cpp:139] Memory required for data: 1385417556
I0109 19:40:38.804363 34000 layer_factory.hpp:77] Creating layer relu5_3
I0109 19:40:38.804375 34000 net.cpp:86] Creating Layer relu5_3
I0109 19:40:38.804380 34000 net.cpp:408] relu5_3 <- conv5_3
I0109 19:40:38.804388 34000 net.cpp:369] relu5_3 -> conv5_3 (in-place)
I0109 19:40:38.840729 34000 net.cpp:124] Setting up relu5_3
I0109 19:40:38.840780 34000 net.cpp:131] Top shape: 1 512 38 63 (1225728)
I0109 19:40:38.840790 34000 net.cpp:139] Memory required for data: 1390320468
I0109 19:40:38.840802 34000 layer_factory.hpp:77] Creating layer conv5_3_relu5_3_0_split
I0109 19:40:38.840822 34000 net.cpp:86] Creating Layer conv5_3_relu5_3_0_split
I0109 19:40:38.840833 34000 net.cpp:408] conv5_3_relu5_3_0_split <- conv5_3
I0109 19:40:38.840855 34000 net.cpp:382] conv5_3_relu5_3_0_split -> conv5_3_relu5_3_0_split_0
I0109 19:40:38.840929 34000 net.cpp:382] conv5_3_relu5_3_0_split -> conv5_3_relu5_3_0_split_1
I0109 19:40:38.841073 34000 net.cpp:124] Setting up conv5_3_relu5_3_0_split
I0109 19:40:38.841100 34000 net.cpp:131] Top shape: 1 512 38 63 (1225728)
I0109 19:40:38.841116 34000 net.cpp:131] Top shape: 1 512 38 63 (1225728)
I0109 19:40:38.841131 34000 net.cpp:139] Memory required for data: 1400126292
I0109 19:40:38.841143 34000 layer_factory.hpp:77] Creating layer rpn_conv/3x3
I0109 19:40:38.841184 34000 net.cpp:86] Creating Layer rpn_conv/3x3
I0109 19:40:38.841203 34000 net.cpp:408] rpn_conv/3x3 <- conv5_3_relu5_3_0_split_0
I0109 19:40:38.841230 34000 net.cpp:382] rpn_conv/3x3 -> rpn/output
I0109 19:40:38.878756 34000 net.cpp:124] Setting up rpn_conv/3x3
I0109 19:40:38.878789 34000 net.cpp:131] Top shape: 1 512 38 63 (1225728)
I0109 19:40:38.878793 34000 net.cpp:139] Memory required for data: 1405029204
I0109 19:40:38.878805 34000 layer_factory.hpp:77] Creating layer rpn_relu/3x3
I0109 19:40:38.878818 34000 net.cpp:86] Creating Layer rpn_relu/3x3
I0109 19:40:38.878823 34000 net.cpp:408] rpn_relu/3x3 <- rpn/output
I0109 19:40:38.878834 34000 net.cpp:369] rpn_relu/3x3 -> rpn/output (in-place)
I0109 19:40:38.879443 34000 net.cpp:124] Setting up rpn_relu/3x3
I0109 19:40:38.879462 34000 net.cpp:131] Top shape: 1 512 38 63 (1225728)
I0109 19:40:38.879465 34000 net.cpp:139] Memory required for data: 1409932116
I0109 19:40:38.879470 34000 layer_factory.hpp:77] Creating layer rpn/output_rpn_relu/3x3_0_split
I0109 19:40:38.879477 34000 net.cpp:86] Creating Layer rpn/output_rpn_relu/3x3_0_split
I0109 19:40:38.879482 34000 net.cpp:408] rpn/output_rpn_relu/3x3_0_split <- rpn/output
I0109 19:40:38.879490 34000 net.cpp:382] rpn/output_rpn_relu/3x3_0_split -> rpn/output_rpn_relu/3x3_0_split_0
I0109 19:40:38.879503 34000 net.cpp:382] rpn/output_rpn_relu/3x3_0_split -> rpn/output_rpn_relu/3x3_0_split_1
I0109 19:40:38.879547 34000 net.cpp:124] Setting up rpn/output_rpn_relu/3x3_0_split
I0109 19:40:38.879555 34000 net.cpp:131] Top shape: 1 512 38 63 (1225728)
I0109 19:40:38.879560 34000 net.cpp:131] Top shape: 1 512 38 63 (1225728)
I0109 19:40:38.879565 34000 net.cpp:139] Memory required for data: 1419737940
I0109 19:40:38.879568 34000 layer_factory.hpp:77] Creating layer rpn_cls_score
I0109 19:40:38.879585 34000 net.cpp:86] Creating Layer rpn_cls_score
I0109 19:40:38.879590 34000 net.cpp:408] rpn_cls_score <- rpn/output_rpn_relu/3x3_0_split_0
I0109 19:40:38.879598 34000 net.cpp:382] rpn_cls_score -> rpn_cls_score
I0109 19:40:38.882725 34000 net.cpp:124] Setting up rpn_cls_score
I0109 19:40:38.882745 34000 net.cpp:131] Top shape: 1 18 38 63 (43092)
I0109 19:40:38.882748 34000 net.cpp:139] Memory required for data: 1419910308
I0109 19:40:38.882756 34000 layer_factory.hpp:77] Creating layer rpn_cls_score_rpn_cls_score_0_split
I0109 19:40:38.882767 34000 net.cpp:86] Creating Layer rpn_cls_score_rpn_cls_score_0_split
I0109 19:40:38.882772 34000 net.cpp:408] rpn_cls_score_rpn_cls_score_0_split <- rpn_cls_score
I0109 19:40:38.882778 34000 net.cpp:382] rpn_cls_score_rpn_cls_score_0_split -> rpn_cls_score_rpn_cls_score_0_split_0
I0109 19:40:38.882797 34000 net.cpp:382] rpn_cls_score_rpn_cls_score_0_split -> rpn_cls_score_rpn_cls_score_0_split_1
I0109 19:40:38.882863 34000 net.cpp:124] Setting up rpn_cls_score_rpn_cls_score_0_split
I0109 19:40:38.882874 34000 net.cpp:131] Top shape: 1 18 38 63 (43092)
I0109 19:40:38.882879 34000 net.cpp:131] Top shape: 1 18 38 63 (43092)
I0109 19:40:38.882882 34000 net.cpp:139] Memory required for data: 1420255044
I0109 19:40:38.882886 34000 layer_factory.hpp:77] Creating layer rpn_bbox_pred
I0109 19:40:38.882899 34000 net.cpp:86] Creating Layer rpn_bbox_pred
I0109 19:40:38.882902 34000 net.cpp:408] rpn_bbox_pred <- rpn/output_rpn_relu/3x3_0_split_1
I0109 19:40:38.882911 34000 net.cpp:382] rpn_bbox_pred -> rpn_bbox_pred
I0109 19:40:38.886806 34000 net.cpp:124] Setting up rpn_bbox_pred
I0109 19:40:38.886824 34000 net.cpp:131] Top shape: 1 36 38 63 (86184)
I0109 19:40:38.886828 34000 net.cpp:139] Memory required for data: 1420599780
I0109 19:40:38.886837 34000 layer_factory.hpp:77] Creating layer rpn_bbox_pred_rpn_bbox_pred_0_split
I0109 19:40:38.886847 34000 net.cpp:86] Creating Layer rpn_bbox_pred_rpn_bbox_pred_0_split
I0109 19:40:38.886852 34000 net.cpp:408] rpn_bbox_pred_rpn_bbox_pred_0_split <- rpn_bbox_pred
I0109 19:40:38.886857 34000 net.cpp:382] rpn_bbox_pred_rpn_bbox_pred_0_split -> rpn_bbox_pred_rpn_bbox_pred_0_split_0
I0109 19:40:38.886867 34000 net.cpp:382] rpn_bbox_pred_rpn_bbox_pred_0_split -> rpn_bbox_pred_rpn_bbox_pred_0_split_1
I0109 19:40:38.886914 34000 net.cpp:124] Setting up rpn_bbox_pred_rpn_bbox_pred_0_split
I0109 19:40:38.886922 34000 net.cpp:131] Top shape: 1 36 38 63 (86184)
I0109 19:40:38.886927 34000 net.cpp:131] Top shape: 1 36 38 63 (86184)
I0109 19:40:38.886931 34000 net.cpp:139] Memory required for data: 1421289252
I0109 19:40:38.886935 34000 layer_factory.hpp:77] Creating layer rpn_cls_score_reshape
I0109 19:40:38.886946 34000 net.cpp:86] Creating Layer rpn_cls_score_reshape
I0109 19:40:38.886951 34000 net.cpp:408] rpn_cls_score_reshape <- rpn_cls_score_rpn_cls_score_0_split_0
I0109 19:40:38.886957 34000 net.cpp:382] rpn_cls_score_reshape -> rpn_cls_score_reshape
I0109 19:40:38.886988 34000 net.cpp:124] Setting up rpn_cls_score_reshape
I0109 19:40:38.886997 34000 net.cpp:131] Top shape: 1 2 342 63 (43092)
I0109 19:40:38.887001 34000 net.cpp:139] Memory required for data: 1421461620
I0109 19:40:38.887006 34000 layer_factory.hpp:77] Creating layer rpn_cls_score_reshape_rpn_cls_score_reshape_0_split
I0109 19:40:38.887012 34000 net.cpp:86] Creating Layer rpn_cls_score_reshape_rpn_cls_score_reshape_0_split
I0109 19:40:38.887015 34000 net.cpp:408] rpn_cls_score_reshape_rpn_cls_score_reshape_0_split <- rpn_cls_score_reshape
I0109 19:40:38.887023 34000 net.cpp:382] rpn_cls_score_reshape_rpn_cls_score_reshape_0_split -> rpn_cls_score_reshape_rpn_cls_score_reshape_0_split_0
I0109 19:40:38.887032 34000 net.cpp:382] rpn_cls_score_reshape_rpn_cls_score_reshape_0_split -> rpn_cls_score_reshape_rpn_cls_score_reshape_0_split_1
I0109 19:40:38.887068 34000 net.cpp:124] Setting up rpn_cls_score_reshape_rpn_cls_score_reshape_0_split
I0109 19:40:38.887076 34000 net.cpp:131] Top shape: 1 2 342 63 (43092)
I0109 19:40:38.887081 34000 net.cpp:131] Top shape: 1 2 342 63 (43092)
I0109 19:40:38.887085 34000 net.cpp:139] Memory required for data: 1421806356
I0109 19:40:38.887089 34000 layer_factory.hpp:77] Creating layer rpn-data
I0109 19:40:38.888815 34000 net.cpp:86] Creating Layer rpn-data
I0109 19:40:38.888830 34000 net.cpp:408] rpn-data <- rpn_cls_score_rpn_cls_score_0_split_1
I0109 19:40:38.888839 34000 net.cpp:408] rpn-data <- gt_boxes_input-data_2_split_0
I0109 19:40:38.888844 34000 net.cpp:408] rpn-data <- im_info_input-data_1_split_0
I0109 19:40:38.888849 34000 net.cpp:408] rpn-data <- data_input-data_0_split_1
I0109 19:40:38.888855 34000 net.cpp:382] rpn-data -> rpn_labels
I0109 19:40:38.888885 34000 net.cpp:382] rpn-data -> rpn_bbox_targets
I0109 19:40:38.888901 34000 net.cpp:382] rpn-data -> rpn_bbox_inside_weights
I0109 19:40:38.888918 34000 net.cpp:382] rpn-data -> rpn_bbox_outside_weights
I0109 19:40:38.890039 34000 net.cpp:124] Setting up rpn-data
I0109 19:40:38.890056 34000 net.cpp:131] Top shape: 1 1 342 63 (21546)
I0109 19:40:38.890063 34000 net.cpp:131] Top shape: 1 36 38 63 (86184)
I0109 19:40:38.890066 34000 net.cpp:131] Top shape: 1 36 38 63 (86184)
I0109 19:40:38.890071 34000 net.cpp:131] Top shape: 1 36 38 63 (86184)
I0109 19:40:38.890074 34000 net.cpp:139] Memory required for data: 1422926748
I0109 19:40:38.890079 34000 layer_factory.hpp:77] Creating layer rpn_loss_cls
I0109 19:40:38.890089 34000 net.cpp:86] Creating Layer rpn_loss_cls
I0109 19:40:38.890092 34000 net.cpp:408] rpn_loss_cls <- rpn_cls_score_reshape_rpn_cls_score_reshape_0_split_0
I0109 19:40:38.890098 34000 net.cpp:408] rpn_loss_cls <- rpn_labels
…
I0109 19:40:38.891597 34000 net.cpp:131] Top shape: (1)
I0109 19:40:38.891600 34000 net.cpp:134]     with loss weight 1
I0109 19:40:38.891605 34000 net.cpp:139] Memory required for data: 1422926756
I0109 19:40:38.891609 34000 layer_factory.hpp:77] Creating layer rpn_cls_prob
I0109 19:40:38.891618 34000 net.cpp:86] Creating Layer rpn_cls_prob
I0109 19:40:38.891623 34000 net.cpp:408] rpn_cls_prob <- rpn_cls_score_reshape_rpn_cls_score_reshape_0_split_1
I0109 19:40:38.891628 34000 net.cpp:382] rpn_cls_prob -> rpn_cls_prob
I0109 19:40:38.892266 34000 net.cpp:124] Setting up rpn_cls_prob
I0109 19:40:38.892282 34000 net.cpp:131] Top shape: 1 2 342 63 (43092)
I0109 19:40:38.892287 34000 net.cpp:139] Memory required for data: 1423099124
I0109 19:40:38.892290 34000 layer_factory.hpp:77] Creating layer rpn_cls_prob_reshape
I0109 19:40:38.892298 34000 net.cpp:86] Creating Layer rpn_cls_prob_reshape
I0109 19:40:38.892302 34000 net.cpp:408] rpn_cls_prob_reshape <- rpn_cls_prob
I0109 19:40:38.892311 34000 net.cpp:382] rpn_cls_prob_reshape -> rpn_cls_prob_reshape
I0109 19:40:38.892341 34000 net.cpp:124] Setting up rpn_cls_prob_reshape
I0109 19:40:38.892350 34000 net.cpp:131] Top shape: 1 18 38 63 (43092)
I0109 19:40:38.892354 34000 net.cpp:139] Memory required for data: 1423271492
I0109 19:40:38.892359 34000 layer_factory.hpp:77] Creating layer proposal
I0109 19:40:38.895040 34000 net.cpp:86] Creating Layer proposal
I0109 19:40:38.895058 34000 net.cpp:408] proposal <- rpn_cls_prob_reshape
I0109 19:40:38.895066 34000 net.cpp:408] proposal <- rpn_bbox_pred_rpn_bbox_pred_0_split_1
I0109 19:40:38.895071 34000 net.cpp:408] proposal <- im_info_input-data_1_split_1
I0109 19:40:38.895077 34000 net.cpp:382] proposal -> rpn_rois
I0109 19:40:38.896108 34000 net.cpp:124] Setting up proposal
I0109 19:40:38.896126 34000 net.cpp:131] Top shape: 1 5 (5)
I0109 19:40:38.896129 34000 net.cpp:139] Memory required for data: 1423271512
I0109 19:40:38.896134 34000 layer_factory.hpp:77] Creating layer roi-data
I0109 19:40:38.896518 34000 net.cpp:86] Creating Layer roi-data
I0109 19:40:38.896533 34000 net.cpp:408] roi-data <- rpn_rois
I0109 19:40:38.896540 34000 net.cpp:408] roi-data <- gt_boxes_input-data_2_split_1
I0109 19:40:38.896548 34000 net.cpp:382] roi-data -> rois
I0109 19:40:38.896556 34000 net.cpp:382] roi-data -> labels
I0109 19:40:38.896564 34000 net.cpp:382] roi-data -> bbox_targets
I0109 19:40:38.896571 34000 net.cpp:382] roi-data -> bbox_inside_weights
I0109 19:40:38.896577 34000 net.cpp:382] roi-data -> bbox_outside_weights
I0109 19:40:38.897106 34000 net.cpp:124] Setting up roi-data
I0109 19:40:38.897125 34000 net.cpp:131] Top shape: 1 5 (5)
I0109 19:40:38.897133 34000 net.cpp:131] Top shape: 1 1 (1)
I0109 19:40:38.897140 34000 net.cpp:131] Top shape: 1 36 (36)
I0109 19:40:38.897146 34000 net.cpp:131] Top shape: 1 36 (36)
I0109 19:40:38.897152 34000 net.cpp:131] Top shape: 1 36 (36)
I0109 19:40:38.897156 34000 net.cpp:139] Memory required for data: 1423271968
I0109 19:40:38.897163 34000 layer_factory.hpp:77] Creating layer roi_pool5
I0109 19:40:38.897174 34000 net.cpp:86] Creating Layer roi_pool5
I0109 19:40:38.897186 34000 net.cpp:408] roi_pool5 <- conv5_3_relu5_3_0_split_1
I0109 19:40:38.897193 34000 net.cpp:408] roi_pool5 <- rois
I0109 19:40:38.897207 34000 net.cpp:382] roi_pool5 -> pool5
I0109 19:40:38.897218 34000 roi_pooling_layer.cpp:30] Spatial scale: 0.0625
I0109 19:40:38.897266 34000 net.cpp:124] Setting up roi_pool5
I0109 19:40:38.897275 34000 net.cpp:131] Top shape: 1 512 7 7 (25088)
I0109 19:40:38.897279 34000 net.cpp:139] Memory required for data: 1423372320
I0109 19:40:38.897284 34000 layer_factory.hpp:77] Creating layer fc6
I0109 19:40:38.897292 34000 net.cpp:86] Creating Layer fc6
I0109 19:40:38.897298 34000 net.cpp:408] fc6 <- pool5
I0109 19:40:38.897305 34000 net.cpp:382] fc6 -> fc6
I0109 19:40:39.180711 34000 net.cpp:124] Setting up fc6
I0109 19:40:39.180757 34000 net.cpp:131] Top shape: 1 4096 (4096)
I0109 19:40:39.180763 34000 net.cpp:139] Memory required for data: 1423388704
I0109 19:40:39.180789 34000 layer_factory.hpp:77] Creating layer relu6
I0109 19:40:39.180802 34000 net.cpp:86] Creating Layer relu6
I0109 19:40:39.180807 34000 net.cpp:408] relu6 <- fc6
I0109 19:40:39.180815 34000 net.cpp:369] relu6 -> fc6 (in-place)
I0109 19:40:39.181421 34000 net.cpp:124] Setting up relu6
I0109 19:40:39.181437 34000 net.cpp:131] Top shape: 1 4096 (4096)
I0109 19:40:39.181442 34000 net.cpp:139] Memory required for data: 1423405088
I0109 19:40:39.181447 34000 layer_factory.hpp:77] Creating layer drop6
I0109 19:40:39.181454 34000 net.cpp:86] Creating Layer drop6
I0109 19:40:39.181458 34000 net.cpp:408] drop6 <- fc6
I0109 19:40:39.181464 34000 net.cpp:369] drop6 -> fc6 (in-place)
I0109 19:40:39.181495 34000 net.cpp:124] Setting up drop6
I0109 19:40:39.181504 34000 net.cpp:131] Top shape: 1 4096 (4096)
I0109 19:40:39.181507 34000 net.cpp:139] Memory required for data: 1423421472
I0109 19:40:39.181511 34000 layer_factory.hpp:77] Creating layer fc7
I0109 19:40:39.181521 34000 net.cpp:86] Creating Layer fc7
I0109 19:40:39.181525 34000 net.cpp:408] fc7 <- fc6
I0109 19:40:39.181531 34000 net.cpp:382] fc7 -> fc7
I0109 19:40:39.271728 34000 net.cpp:124] Setting up fc7
I0109 19:40:39.271772 34000 net.cpp:131] Top shape: 1 4096 (4096)
I0109 19:40:39.271778 34000 net.cpp:139] Memory required for data: 1423437856
I0109 19:40:39.271792 34000 layer_factory.hpp:77] Creating layer relu7
I0109 19:40:39.271804 34000 net.cpp:86] Creating Layer relu7
I0109 19:40:39.271809 34000 net.cpp:408] relu7 <- fc7
I0109 19:40:39.271821 34000 net.cpp:369] relu7 -> fc7 (in-place)
I0109 19:40:39.274513 34000 net.cpp:124] Setting up relu7
I0109 19:40:39.274530 34000 net.cpp:131] Top shape: 1 4096 (4096)
I0109 19:40:39.274534 34000 net.cpp:139] Memory required for data: 1423454240
I0109 19:40:39.274539 34000 layer_factory.hpp:77] Creating layer drop7
I0109 19:40:39.274549 34000 net.cpp:86] Creating Layer drop7
I0109 19:40:39.274554 34000 net.cpp:408] drop7 <- fc7
I0109 19:40:39.274560 34000 net.cpp:369] drop7 -> fc7 (in-place)
I0109 19:40:39.274591 34000 net.cpp:124] Setting up drop7
I0109 19:40:39.274600 34000 net.cpp:131] Top shape: 1 4096 (4096)
I0109 19:40:39.274603 34000 net.cpp:139] Memory required for data: 1423470624
I0109 19:40:39.274607 34000 layer_factory.hpp:77] Creating layer fc7_drop7_0_split
I0109 19:40:39.274614 34000 net.cpp:86] Creating Layer fc7_drop7_0_split
I0109 19:40:39.274618 34000 net.cpp:408] fc7_drop7_0_split <- fc7
I0109 19:40:39.274626 34000 net.cpp:382] fc7_drop7_0_split -> fc7_drop7_0_split_0
I0109 19:40:39.274634 34000 net.cpp:382] fc7_drop7_0_split -> fc7_drop7_0_split_1
I0109 19:40:39.274670 34000 net.cpp:124] Setting up fc7_drop7_0_split
I0109 19:40:39.274679 34000 net.cpp:131] Top shape: 1 4096 (4096)
I0109 19:40:39.274683 34000 net.cpp:131] Top shape: 1 4096 (4096)
I0109 19:40:39.274688 34000 net.cpp:139] Memory required for data: 1423503392
I0109 19:40:39.274690 34000 layer_factory.hpp:77] Creating layer cls_score
I0109 19:40:39.274699 34000 net.cpp:86] Creating Layer cls_score
I0109 19:40:39.274703 34000 net.cpp:408] cls_score <- fc7_drop7_0_split_0
I0109 19:40:39.274713 34000 net.cpp:382] cls_score -> cls_score
I0109 19:40:39.275226 34000 net.cpp:124] Setting up cls_score
I0109 19:40:39.275238 34000 net.cpp:131] Top shape: 1 9 (9)
I0109 19:40:39.275243 34000 net.cpp:139] Memory required for data: 1423503428
I0109 19:40:39.275249 34000 layer_factory.hpp:77] Creating layer bbox_pred
I0109 19:40:39.275255 34000 net.cpp:86] Creating Layer bbox_pred
I0109 19:40:39.275260 34000 net.cpp:408] bbox_pred <- fc7_drop7_0_split_1
I0109 19:40:39.275269 34000 net.cpp:382] bbox_pred -> bbox_pred
I0109 19:40:39.277061 34000 net.cpp:124] Setting up bbox_pred
I0109 19:40:39.277077 34000 net.cpp:131] Top shape: 1 36 (36)
I0109 19:40:39.277083 34000 net.cpp:139] Memory required for data: 1423503572
I0109 19:40:39.277093 34000 layer_factory.hpp:77] Creating layer loss_cls
I0109 19:40:39.277104 34000 net.cpp:86] Creating Layer loss_cls
I0109 19:40:39.277110 34000 net.cpp:408] loss_cls <- cls_score
I0109 19:40:39.277118 34000 net.cpp:408] loss_cls <- labels
I0109 19:40:39.277133 34000 net.cpp:382] loss_cls -> loss_cls
…
I0109 20:23:13.264556 34432 upgrade_proto.cpp:72] Successfully upgraded file specified using deprecated input fields.
W0109 20:23:13.264560 34432 upgrade_proto.cpp:74] Note that future Caffe releases will only support input layers and not input fields.
I0109 20:23:13.264896 34432 net.cpp:53] Initializing net from parameters: 
name: "VGG_ILSVRC_16_layers"
state {
  phase: TEST
  level: 0
}
layer {
  name: "input"
  type: "Input"
  top: "data"
  top: "im_info"
  input_param {
    shape {
      dim: 1
      dim: 3
      dim: 224
      dim: 224
    }
    shape {
      dim: 1
      dim: 3
    }
  }
}
layer {
  name: "conv1_1"
  type: "Convolution"
  bottom: "data"
  top: "conv1_1"
  param {
    lr_mult: 0
    decay_mult: 0
  }
  param {
    lr_mult: 0
    decay_mult: 0
  }
  convolution_param {
    num_output: 64
    pad: 1
    kernel_size: 3
  }
}
layer {
  name: "relu1_1"
  type: "ReLU"
  bottom: "conv1_1"
  top: "conv1_1"
}
layer {
  name: "conv1_2"
  type: "Convolution"
  bottom: "conv1_1"
  top: "conv1_2"
  param {
    lr_mult: 0
    decay_mult: 0
  }
  param {
    lr_mult: 0
    decay_mult: 0
  }
  convolution_param {
    num_output: 64
    pad: 1
    kernel_size: 3
  }
}
layer {
  name: "relu1_2"
  type: "ReLU"
  bottom: "conv1_2"
  top: "conv1_2"
}
layer {
  name: "pool1"
  type: "Pooling"
  bottom: "conv1_2"
  top: "pool1"
  pooling_param {
    pool: MAX
    kernel_size: 2
    stride: 2
  }
}
layer {
  name: "conv2_1"
  type: "Convolution"
  bottom: "pool1"
  top: "conv2_1"
  param {
    lr_mult: 0
    decay_mult: 0
  }
  param {
    lr_mult: 0
    decay_mult: 0
  }
  convolution_param {
    num_output: 128
    pad: 1
    kernel_size: 3
  }
}
layer {
  name: "relu2_1"
  type: "ReLU"
  bottom: "conv2_1"
  top: "conv2_1"
}
layer {
  name: "conv2_2"
  type: "Convolution"
  bottom: "conv2_1"
  top: "conv2_2"
  param {
    lr_mult: 0
    decay_mult: 0
  }
  param {
    lr_mult: 0
    decay_mult: 0
  }
  convolution_param {
    num_output: 128
    pad: 1
    kernel_size: 3
  }
}
layer {
  name: "relu2_2"
  type: "ReLU"
  bottom: "conv2_2"
  top: "conv2_2"
}
layer {
  name: "pool2"
  type: "Pooling"
  bottom: "conv2_2"
  top: "pool2"
  pooling_param {
    pool: MAX
    kernel_size: 2
    stride: 2
  }
}
layer {
  name: "conv3_1"
  type: "Convolution"
  bottom: "pool2"
  top: "conv3_1"
  param {
    lr_mult: 1
    decay_mult: 1
  }
  param {
    lr_mult: 2
    decay_mult: 0
  }
  convolution_param {
    num_output: 256
    pad: 1
    kernel_size: 3
  }
}
layer {
  name: "relu3_1"
  type: "ReLU"
  bottom: "conv3_1"
  top: "conv3_1"
}
layer {
  name: "conv3_2"
  type: "Convolution"
  bottom: "conv3_1"
  top: "conv3_2"
  param {
    lr_mult: 1
    decay_mult: 1
  }
  param {
    lr_mult: 2
    decay_mult: 0
  }
  convolution_param {
    num_output: 256
    pad: 1
    kernel_size: 3
  }
}
layer {
  name: "relu3_2"
  type: "ReLU"
  bottom: "conv3_2"
  top: "conv3_2"
}
layer {
  name: "conv3_3"
  type: "Convolution"
  bottom: "conv3_2"
  top: "conv3_3"
  param {
    lr_mult: 1
    decay_mult: 1
  }
  param {
    lr_mult: 2
    decay_mult: 0
  }
  convolution_param {
    num_output: 256
    pad: 1
    kernel_size: 3
  }
}
layer {
  name: "relu3_3"
  type: "ReLU"
  bottom: "conv3_3"
  top: "conv3_3"
}
layer {
  name: "pool3"
  type: "Pooling"
  bottom: "conv3_3"
  top: "pool3"
  pooling_param {
    pool: MAX
    kernel_size: 2
    stride: 2
  }
}
layer {
  name: "conv4_1"
  type: "Convolution"
  bottom: "pool3"
  top: "conv4_1"
  param {
    lr_mult: 1
    decay_mult: 1
  }
  param {
    lr_mult: 2
    decay_mult: 0
  }
  convolution_param {
    num_output: 512
    pad: 1
    kernel_size: 3
  }
}
layer {
  name: "relu4_1"
  type: "ReLU"
  bottom: "conv4_1"
  top: "conv4_1"
}
layer {
  name: "conv4_2"
  type: "Convolution"
  bottom: "conv4_1"
  top: "conv4_2"
  param {
    lr_mult: 1
    decay_mult: 1
  }
  param {
    lr_mult: 2
    decay_mult: 0
  }
  convolution_param {
    num_output: 512
    pad: 1
    kernel_size: 3
  }
}
layer {
  name: "relu4_2"
  type: "ReLU"
  bottom: "conv4_2"
  top: "conv4_2"
}
layer {
  name: "conv4_3"
  type: "Convolution"
  bottom: "conv4_2"
  top: "conv4_3"
  param {
    lr_mult: 1
    decay_mult: 1
  }
  param {
    lr_mult: 2
    decay_mult: 0
  }
  convolution_param {
    num_output: 512
    pad: 1
    kernel_size: 3
  }
}
layer {
  name: "relu4_3"
  type: "ReLU"
  bottom: "conv4_3"
  top: "conv4_3"
}
layer {
  name: "pool4"
  type: "Pooling"
  bottom: "conv4_3"
  top: "pool4"
  pooling_param {
    pool: MAX
    kernel_size: 2
    stride: 2
  }
}
layer {
  name: "conv5_1"
  type: "Convolution"
  bottom: "pool4"
  top: "conv5_1"
  param {
    lr_mult: 1
    decay_mult: 1
  }
  param {
    lr_mult: 2
    decay_mult: 0
  }
  convolution_param {
    num_output: 512
    pad: 1
    kernel_size: 3
  }
}
layer {
  name: "relu5_1"
  type: "ReLU"
  bottom: "conv5_1"
  top: "conv5_1"
}
layer {
  name: "conv5_2"
  type: "Convolution"
  bottom: "conv5_1"
  top: "conv5_2"
  param {
    lr_mult: 1
    decay_mult: 1
  }
  param {
    lr_mult: 2
    decay_mult: 0
  }
  convolution_param {
    num_output: 512
    pad: 1
    kernel_size: 3
  }
}
layer {
  name: "relu5_2"
  type: "ReLU"
  bottom: "conv5_2"
  top: "conv5_2"
}
layer {
  name: "conv5_3"
  type: "Convolution"
  bottom: "conv5_2"
  top: "conv5_3"
  param {
    lr_mult: 1
    decay_mult: 1
  }
  param {
    lr_mult: 2
    decay_mult: 0
  }
  convolution_param {
    num_output: 512
    pad: 1
    kernel_size: 3
  }
}
layer {
  name: "relu5_3"
  type: "ReLU"
  bottom: "conv5_3"
  top: "conv5_3"
}
layer {
  name: "rpn_conv/3x3"
  type: "Convolution"
  bottom: "conv5_3"
  top: "rpn/output"
  param {
    lr_mult: 1
    decay_mult: 1
  }
  param {
    lr_mult: 2
    decay_mult: 0
  }
  convolution_param {
    num_output: 512
    pad: 1
    kernel_size: 3
    stride: 1
    weight_filler {
      type: "gaussian"
      std: 0.01
    }
    bias_filler {
      type: "constant"
      value: 0
    }
  }
}
layer {
  name: "rpn_relu/3x3"
  type: "ReLU"
  bottom: "rpn/output"
  top: "rpn/output"
}
layer {
  name: "rpn_cls_score"
  type: "Convolution"
  bottom: "rpn/output"
  top: "rpn_cls_score"
  param {
    lr_mult: 1
    decay_mult: 1
  }
  param {
    lr_mult: 2
    decay_mult: 0
  }
  convolution_param {
    num_output: 18
    pad: 0
    kernel_size: 1
    stride: 1
    weight_filler {
      type: "gaussian"
      std: 0.01
    }
    bias_filler {
      type: "constant"
      value: 0
    }
  }
}
layer {
  name: "rpn_bbox_pred"
  type: "Convolution"
  bottom: "rpn/output"
  top: "rpn_bbox_pred"
  param {
    lr_mult: 1
    decay_mult: 1
  }
  param {
    lr_mult: 2
    decay_mult: 0
  }
  convolution_param {
    num_output: 36
    pad: 0
    kernel_size: 1
    stride: 1
    weight_filler {
      type: "gaussian"
      std: 0.01
    }
    bias_filler {
      type: "constant"
      value: 0
    }
  }
}
layer {
  name: "rpn_cls_score_reshape"
  type: "Reshape"
  bottom: "rpn_cls_score"
  top: "rpn_cls_score_reshape"
  reshape_param {
    shape {
      dim: 0
      dim: 2
      dim: -1
      dim: 0
    }
  }
}
layer {
  name: "rpn_cls_prob"
  type: "Softmax"
  bottom: "rpn_cls_score_reshape"
  top: "rpn_cls_prob"
}
layer {
  name: "rpn_cls_prob_reshape"
  type: "Reshape"
  bottom: "rpn_cls_prob"
  top: "rpn_cls_prob_reshape"
  reshape_param {
    shape {
      dim: 0
      dim: 18
      dim: -1
      dim: 0
    }
  }
}
layer {
  name: "proposal"
  type: "Python"
  bottom: "rpn_cls_prob_reshape"
  bottom: "rpn_bbox_pred"
  bottom: "im_info"
  top: "rois"
  python_param {
    module: "rpn.proposal_layer"
    layer: "ProposalLayer"
    param_str: "\'feat_stride\': 16"
  }
}
layer {
  name: "roi_pool5"
  type: "ROIPooling"
  bottom: "conv5_3"
  bottom: "rois"
  top: "pool5"
  roi_pooling_param {
    pooled_h: 7
    pooled_w: 7
    spatial_scale: 0.0625
  }
}
layer {
  name: "fc6"
  type: "InnerProduct"
  bottom: "pool5"
  top: "fc6"
  param {
    lr_mult: 1
    decay_mult: 1
  }
  param {
    lr_mult: 2
    decay_mult: 0
  }
  inner_product_param {
    num_output: 4096
  }
}
layer {
  name: "relu6"
  type: "ReLU"
  bottom: "fc6"
  top: "fc6"
}
layer {
  name: "drop6"
  type: "Dropout"
  bottom: "fc6"
  top: "fc6"
  dropout_param {
    dropout_ratio: 0.5
  }
}
layer {
  name: "fc7"
  type: "InnerProduct"
  bottom: "fc6"
  top: "fc7"
  param {
    lr_mult: 1
    decay_mult: 1
  }
  param {
    lr_mult: 2
    decay_mult: 0
  }
  inner_product_param {
    num_output: 4096
  }
}
layer {
  name: "relu7"
  type: "ReLU"
  bottom: "fc7"
  top: "fc7"
}
layer {
  name: "drop7"
  type: "Dropout"
  bottom: "fc7"
  top: "fc7"
  dropout_param {
    dropout_ratio: 0.5
  }
}
layer {
  name: "cls_score"
  type: "InnerProduct"
  bottom: "fc7"
  top: "cls_score"
  param {
    lr_mult: 1
    decay_mult: 1
  }
  param {
    lr_mult: 2
    decay_mult: 0
  }
  inner_product_param {
    num_output: 9
    weight_filler {
      type: "gaussian"
      std: 0.01
    }
    bias_filler {
      type: "constant"
      value: 0
    }
  }
}
layer {
  name: "bbox_pred"
  type: "InnerProduct"
  bottom: "fc7"
  top: "bbox_pred"
  param {
    lr_mult: 1
    decay_mult: 1
  }
  param {
    lr_mult: 2
    decay_mult: 0
  }
  inner_product_param {
    num_output: 36
    weight_filler {
      type: "gaussian"
      std: 0.001
    }
    bias_filler {
      type: "constant"
      value: 0
    }
  }
}
layer {
  name: "cls_prob"
  type: "Softmax"
  bottom: "cls_score"
  top: "cls_prob"
}
I0109 20:23:13.265079 34432 layer_factory.hpp:77] Creating layer input
I0109 20:23:13.265092 34432 net.cpp:86] Creating Layer input
I0109 20:23:13.265103 34432 net.cpp:382] input -> data
I0109 20:23:13.265115 34432 net.cpp:382] input -> im_info
I0109 20:23:13.291929 34432 net.cpp:124] Setting up input
I0109 20:23:13.291961 34432 net.cpp:131] Top shape: 1 3 224 224 (150528)
I0109 20:23:13.291967 34432 net.cpp:131] Top shape: 1 3 (3)
I0109 20:23:13.291971 34432 net.cpp:139] Memory required for data: 602124
I0109 20:23:13.291980 34432 layer_factory.hpp:77] Creating layer conv1_1
I0109 20:23:13.291998 34432 net.cpp:86] Creating Layer conv1_1
I0109 20:23:13.292003 34432 net.cpp:408] conv1_1 <- data
I0109 20:23:13.292012 34432 net.cpp:382] conv1_1 -> conv1_1
I0109 20:23:14.384522 34432 net.cpp:124] Setting up conv1_1
I0109 20:23:14.384573 34432 net.cpp:131] Top shape: 1 64 224 224 (3211264)
I0109 20:23:14.384578 34432 net.cpp:139] Memory required for data: 13447180
I0109 20:23:14.384596 34432 layer_factory.hpp:77] Creating layer relu1_1
I0109 20:23:14.384610 34432 net.cpp:86] Creating Layer relu1_1
I0109 20:23:14.384614 34432 net.cpp:408] relu1_1 <- conv1_1
I0109 20:23:14.384624 34432 net.cpp:369] relu1_1 -> conv1_1 (in-place)
I0109 20:23:14.385005 34432 net.cpp:124] Setting up relu1_1
I0109 20:23:14.385020 34432 net.cpp:131] Top shape: 1 64 224 224 (3211264)
I0109 20:23:14.385023 34432 net.cpp:139] Memory required for data: 26292236
I0109 20:23:14.385027 34432 layer_factory.hpp:77] Creating layer conv1_2
I0109 20:23:14.385040 34432 net.cpp:86] Creating Layer conv1_2
I0109 20:23:14.385044 34432 net.cpp:408] conv1_2 <- conv1_1
I0109 20:23:14.385052 34432 net.cpp:382] conv1_2 -> conv1_2
I0109 20:23:14.386832 34432 net.cpp:124] Setting up conv1_2
I0109 20:23:14.386859 34432 net.cpp:131] Top shape: 1 64 224 224 (3211264)
I0109 20:23:14.386864 34432 net.cpp:139] Memory required for data: 39137292
I0109 20:23:14.386873 34432 layer_factory.hpp:77] Creating layer relu1_2
I0109 20:23:14.386880 34432 net.cpp:86] Creating Layer relu1_2
I0109 20:23:14.386884 34432 net.cpp:408] relu1_2 <- conv1_2
I0109 20:23:14.386893 34432 net.cpp:369] relu1_2 -> conv1_2 (in-place)
I0109 20:23:14.387468 34432 net.cpp:124] Setting up relu1_2
I0109 20:23:14.387483 34432 net.cpp:131] Top shape: 1 64 224 224 (3211264)
I0109 20:23:14.387488 34432 net.cpp:139] Memory required for data: 51982348
I0109 20:23:14.387492 34432 layer_factory.hpp:77] Creating layer pool1
I0109 20:23:14.387502 34432 net.cpp:86] Creating Layer pool1
I0109 20:23:14.387506 34432 net.cpp:408] pool1 <- conv1_2
I0109 20:23:14.387512 34432 net.cpp:382] pool1 -> pool1
I0109 20:23:14.387560 34432 net.cpp:124] Setting up pool1
I0109 20:23:14.387571 34432 net.cpp:131] Top shape: 1 64 112 112 (802816)
I0109 20:23:14.387574 34432 net.cpp:139] Memory required for data: 55193612
I0109 20:23:14.387583 34432 layer_factory.hpp:77] Creating layer conv2_1
I0109 20:23:14.387593 34432 net.cpp:86] Creating Layer conv2_1
I0109 20:23:14.387598 34432 net.cpp:408] conv2_1 <- pool1
I0109 20:23:14.387606 34432 net.cpp:382] conv2_1 -> conv2_1
I0109 20:23:14.389631 34432 net.cpp:124] Setting up conv2_1
I0109 20:23:14.389658 34432 net.cpp:131] Top shape: 1 128 112 112 (1605632)
I0109 20:23:14.389663 34432 net.cpp:139] Memory required for data: 61616140
I0109 20:23:14.389674 34432 layer_factory.hpp:77] Creating layer relu2_1
I0109 20:23:14.389681 34432 net.cpp:86] Creating Layer relu2_1
I0109 20:23:14.389685 34432 net.cpp:408] relu2_1 <- conv2_1
I0109 20:23:14.389691 34432 net.cpp:369] relu2_1 -> conv2_1 (in-place)
I0109 20:23:14.390071 34432 net.cpp:124] Setting up relu2_1
I0109 20:23:14.390085 34432 net.cpp:131] Top shape: 1 128 112 112 (1605632)
I0109 20:23:14.390089 34432 net.cpp:139] Memory required for data: 68038668
I0109 20:23:14.390094 34432 layer_factory.hpp:77] Creating layer conv2_2
I0109 20:23:14.390105 34432 net.cpp:86] Creating Layer conv2_2
I0109 20:23:14.390110 34432 net.cpp:408] conv2_2 <- conv2_1
I0109 20:23:14.390118 34432 net.cpp:382] conv2_2 -> conv2_2
I0109 20:23:14.393764 34432 net.cpp:124] Setting up conv2_2
I0109 20:23:14.393795 34432 net.cpp:131] Top shape: 1 128 112 112 (1605632)
I0109 20:23:14.393800 34432 net.cpp:139] Memory required for data: 74461196
I0109 20:23:14.393807 34432 layer_factory.hpp:77] Creating layer relu2_2
I0109 20:23:14.393815 34432 net.cpp:86] Creating Layer relu2_2
I0109 20:23:14.393820 34432 net.cpp:408] relu2_2 <- conv2_2
I0109 20:23:14.393831 34432 net.cpp:369] relu2_2 -> conv2_2 (in-place)
I0109 20:23:14.394381 34432 net.cpp:124] Setting up relu2_2
I0109 20:23:14.394395 34432 net.cpp:131] Top shape: 1 128 112 112 (1605632)
I0109 20:23:14.394410 34432 net.cpp:139] Memory required for data: 80883724
I0109 20:23:14.394414 34432 layer_factory.hpp:77] Creating layer pool2
I0109 20:23:14.394423 34432 net.cpp:86] Creating Layer pool2
I0109 20:23:14.394426 34432 net.cpp:408] pool2 <- conv2_2
I0109 20:23:14.394435 34432 net.cpp:382] pool2 -> pool2
I0109 20:23:14.394479 34432 net.cpp:124] Setting up pool2
I0109 20:23:14.394490 34432 net.cpp:131] Top shape: 1 128 56 56 (401408)
I0109 20:23:14.394493 34432 net.cpp:139] Memory required for data: 82489356
I0109 20:23:14.394497 34432 layer_factory.hpp:77] Creating layer conv3_1
I0109 20:23:14.394505 34432 net.cpp:86] Creating Layer conv3_1
I0109 20:23:14.394510 34432 net.cpp:408] conv3_1 <- pool2
I0109 20:23:14.394516 34432 net.cpp:382] conv3_1 -> conv3_1
I0109 20:23:14.402112 34432 net.cpp:124] Setting up conv3_1
I0109 20:23:14.402141 34432 net.cpp:131] Top shape: 1 256 56 56 (802816)
I0109 20:23:14.402146 34432 net.cpp:139] Memory required for data: 85700620
I0109 20:23:14.402161 34432 layer_factory.hpp:77] Creating layer relu3_1
I0109 20:23:14.402168 34432 net.cpp:86] Creating Layer relu3_1
I0109 20:23:14.402173 34432 net.cpp:408] relu3_1 <- conv3_1
I0109 20:23:14.402180 34432 net.cpp:369] relu3_1 -> conv3_1 (in-place)
I0109 20:23:14.402544 34432 net.cpp:124] Setting up relu3_1
I0109 20:23:14.402556 34432 net.cpp:131] Top shape: 1 256 56 56 (802816)
I0109 20:23:14.402560 34432 net.cpp:139] Memory required for data: 88911884
I0109 20:23:14.402565 34432 layer_factory.hpp:77] Creating layer conv3_2
I0109 20:23:14.402575 34432 net.cpp:86] Creating Layer conv3_2
I0109 20:23:14.402580 34432 net.cpp:408] conv3_2 <- conv3_1
I0109 20:23:14.402587 34432 net.cpp:382] conv3_2 -> conv3_2
I0109 20:23:14.407514 34432 net.cpp:124] Setting up conv3_2
I0109 20:23:14.407543 34432 net.cpp:131] Top shape: 1 256 56 56 (802816)
I0109 20:23:14.407548 34432 net.cpp:139] Memory required for data: 92123148
I0109 20:23:14.407555 34432 layer_factory.hpp:77] Creating layer relu3_2
I0109 20:23:14.407562 34432 net.cpp:86] Creating Layer relu3_2
I0109 20:23:14.407567 34432 net.cpp:408] relu3_2 <- conv3_2
I0109 20:23:14.407574 34432 net.cpp:369] relu3_2 -> conv3_2 (in-place)
I0109 20:23:14.408138 34432 net.cpp:124] Setting up relu3_2
I0109 20:23:14.408164 34432 net.cpp:131] Top shape: 1 256 56 56 (802816)
I0109 20:23:14.408167 34432 net.cpp:139] Memory required for data: 95334412
I0109 20:23:14.408171 34432 layer_factory.hpp:77] Creating layer conv3_3
I0109 20:23:14.408182 34432 net.cpp:86] Creating Layer conv3_3
I0109 20:23:14.408186 34432 net.cpp:408] conv3_3 <- conv3_2
I0109 20:23:14.408195 34432 net.cpp:382] conv3_3 -> conv3_3
I0109 20:23:14.412948 34432 net.cpp:124] Setting up conv3_3
I0109 20:23:14.412966 34432 net.cpp:131] Top shape: 1 256 56 56 (802816)
I0109 20:23:14.412971 34432 net.cpp:139] Memory required for data: 98545676
I0109 20:23:14.412977 34432 layer_factory.hpp:77] Creating layer relu3_3
I0109 20:23:14.412989 34432 net.cpp:86] Creating Layer relu3_3
I0109 20:23:14.412994 34432 net.cpp:408] relu3_3 <- conv3_3
I0109 20:23:14.413000 34432 net.cpp:369] relu3_3 -> conv3_3 (in-place)
I0109 20:23:14.413554 34432 net.cpp:124] Setting up relu3_3
I0109 20:23:14.413586 34432 net.cpp:131] Top shape: 1 256 56 56 (802816)
I0109 20:23:14.413590 34432 net.cpp:139] Memory required for data: 101756940
I0109 20:23:14.413594 34432 layer_factory.hpp:77] Creating layer pool3
I0109 20:23:14.413604 34432 net.cpp:86] Creating Layer pool3
I0109 20:23:14.413606 34432 net.cpp:408] pool3 <- conv3_3
I0109 20:23:14.413612 34432 net.cpp:382] pool3 -> pool3
I0109 20:23:14.413658 34432 net.cpp:124] Setting up pool3
I0109 20:23:14.413669 34432 net.cpp:131] Top shape: 1 256 28 28 (200704)
I0109 20:23:14.413672 34432 net.cpp:139] Memory required for data: 102559756
I0109 20:23:14.413676 34432 layer_factory.hpp:77] Creating layer conv4_1
I0109 20:23:14.413689 34432 net.cpp:86] Creating Layer conv4_1
I0109 20:23:14.413694 34432 net.cpp:408] conv4_1 <- pool3
I0109 20:23:14.413702 34432 net.cpp:382] conv4_1 -> conv4_1
I0109 20:23:14.424680 34432 net.cpp:124] Setting up conv4_1
I0109 20:23:14.424706 34432 net.cpp:131] Top shape: 1 512 28 28 (401408)
I0109 20:23:14.424711 34432 net.cpp:139] Memory required for data: 104165388
I0109 20:23:14.424721 34432 layer_factory.hpp:77] Creating layer relu4_1
I0109 20:23:14.424734 34432 net.cpp:86] Creating Layer relu4_1
I0109 20:23:14.424741 34432 net.cpp:408] relu4_1 <- conv4_1
I0109 20:23:14.424746 34432 net.cpp:369] relu4_1 -> conv4_1 (in-place)
I0109 20:23:14.425159 34432 net.cpp:124] Setting up relu4_1
I0109 20:23:14.425175 34432 net.cpp:131] Top shape: 1 512 28 28 (401408)
I0109 20:23:14.425179 34432 net.cpp:139] Memory required for data: 105771020
I0109 20:23:14.425184 34432 layer_factory.hpp:77] Creating layer conv4_2
I0109 20:23:14.425195 34432 net.cpp:86] Creating Layer conv4_2
I0109 20:23:14.425200 34432 net.cpp:408] conv4_2 <- conv4_1
I0109 20:23:14.425209 34432 net.cpp:382] conv4_2 -> conv4_2
I0109 20:23:14.437997 34432 net.cpp:124] Setting up conv4_2
I0109 20:23:14.438030 34432 net.cpp:131] Top shape: 1 512 28 28 (401408)
I0109 20:23:14.438035 34432 net.cpp:139] Memory required for data: 107376652
I0109 20:23:14.438053 34432 layer_factory.hpp:77] Creating layer relu4_2
I0109 20:23:14.438068 34432 net.cpp:86] Creating Layer relu4_2
I0109 20:23:14.438073 34432 net.cpp:408] relu4_2 <- conv4_2
I0109 20:23:14.438081 34432 net.cpp:369] relu4_2 -> conv4_2 (in-place)
I0109 20:23:14.438741 34432 net.cpp:124] Setting up relu4_2
I0109 20:23:14.438760 34432 net.cpp:131] Top shape: 1 512 28 28 (401408)
I0109 20:23:14.438764 34432 net.cpp:139] Memory required for data: 108982284
I0109 20:23:14.438769 34432 layer_factory.hpp:77] Creating layer conv4_3
I0109 20:23:14.438783 34432 net.cpp:86] Creating Layer conv4_3
I0109 20:23:14.438788 34432 net.cpp:408] conv4_3 <- conv4_2
I0109 20:23:14.438798 34432 net.cpp:382] conv4_3 -> conv4_3
I0109 20:23:14.447644 34432 net.cpp:124] Setting up conv4_3
I0109 20:23:14.447674 34432 net.cpp:131] Top shape: 1 512 28 28 (401408)
I0109 20:23:14.447679 34432 net.cpp:139] Memory required for data: 110587916
I0109 20:23:14.447686 34432 layer_factory.hpp:77] Creating layer relu4_3
I0109 20:23:14.447693 34432 net.cpp:86] Creating Layer relu4_3
I0109 20:23:14.447697 34432 net.cpp:408] relu4_3 <- conv4_3
I0109 20:23:14.447705 34432 net.cpp:369] relu4_3 -> conv4_3 (in-place)
I0109 20:23:14.448091 34432 net.cpp:124] Setting up relu4_3
I0109 20:23:14.448102 34432 net.cpp:131] Top shape: 1 512 28 28 (401408)
I0109 20:23:14.448117 34432 net.cpp:139] Memory required for data: 112193548
I0109 20:23:14.448122 34432 layer_factory.hpp:77] Creating layer pool4
I0109 20:23:14.448129 34432 net.cpp:86] Creating Layer pool4
I0109 20:23:14.448133 34432 net.cpp:408] pool4 <- conv4_3
I0109 20:23:14.448151 34432 net.cpp:382] pool4 -> pool4
I0109 20:23:14.448206 34432 net.cpp:124] Setting up pool4
I0109 20:23:14.448215 34432 net.cpp:131] Top shape: 1 512 14 14 (100352)
I0109 20:23:14.448220 34432 net.cpp:139] Memory required for data: 112594956
I0109 20:23:14.448223 34432 layer_factory.hpp:77] Creating layer conv5_1
I0109 20:23:14.448233 34432 net.cpp:86] Creating Layer conv5_1
I0109 20:23:14.448237 34432 net.cpp:408] conv5_1 <- pool4
I0109 20:23:14.448244 34432 net.cpp:382] conv5_1 -> conv5_1
I0109 20:23:14.459895 34432 net.cpp:124] Setting up conv5_1
I0109 20:23:14.459931 34432 net.cpp:131] Top shape: 1 512 14 14 (100352)
I0109 20:23:14.459936 34432 net.cpp:139] Memory required for data: 112996364
I0109 20:23:14.459945 34432 layer_factory.hpp:77] Creating layer relu5_1
I0109 20:23:14.459954 34432 net.cpp:86] Creating Layer relu5_1
I0109 20:23:14.459957 34432 net.cpp:408] relu5_1 <- conv5_1
I0109 20:23:14.459964 34432 net.cpp:369] relu5_1 -> conv5_1 (in-place)
I0109 20:23:14.460533 34432 net.cpp:124] Setting up relu5_1
I0109 20:23:14.460548 34432 net.cpp:131] Top shape: 1 512 14 14 (100352)
I0109 20:23:14.460563 34432 net.cpp:139] Memory required for data: 113397772
I0109 20:23:14.460567 34432 layer_factory.hpp:77] Creating layer conv5_2
I0109 20:23:14.460579 34432 net.cpp:86] Creating Layer conv5_2
I0109 20:23:14.460584 34432 net.cpp:408] conv5_2 <- conv5_1
I0109 20:23:14.460592 34432 net.cpp:382] conv5_2 -> conv5_2
I0109 20:23:14.470598 34432 net.cpp:124] Setting up conv5_2
I0109 20:23:14.470633 34432 net.cpp:131] Top shape: 1 512 14 14 (100352)
I0109 20:23:14.470636 34432 net.cpp:139] Memory required for data: 113799180
I0109 20:23:14.470646 34432 layer_factory.hpp:77] Creating layer relu5_2
I0109 20:23:14.470654 34432 net.cpp:86] Creating Layer relu5_2
I0109 20:23:14.470659 34432 net.cpp:408] relu5_2 <- conv5_2
I0109 20:23:14.470667 34432 net.cpp:369] relu5_2 -> conv5_2 (in-place)
I0109 20:23:14.471053 34432 net.cpp:124] Setting up relu5_2
I0109 20:23:14.471069 34432 net.cpp:131] Top shape: 1 512 14 14 (100352)
I0109 20:23:14.471084 34432 net.cpp:139] Memory required for data: 114200588
I0109 20:23:14.471088 34432 layer_factory.hpp:77] Creating layer conv5_3
I0109 20:23:14.471101 34432 net.cpp:86] Creating Layer conv5_3
I0109 20:23:14.471104 34432 net.cpp:408] conv5_3 <- conv5_2
I0109 20:23:14.471110 34432 net.cpp:382] conv5_3 -> conv5_3
I0109 20:23:14.478541 34432 net.cpp:124] Setting up conv5_3
I0109 20:23:14.478576 34432 net.cpp:131] Top shape: 1 512 14 14 (100352)
I0109 20:23:14.478581 34432 net.cpp:139] Memory required for data: 114601996
I0109 20:23:14.478591 34432 layer_factory.hpp:77] Creating layer relu5_3
I0109 20:23:14.478600 34432 net.cpp:86] Creating Layer relu5_3
I0109 20:23:14.478603 34432 net.cpp:408] relu5_3 <- conv5_3
I0109 20:23:14.478622 34432 net.cpp:369] relu5_3 -> conv5_3 (in-place)
I0109 20:23:14.480787 34432 net.cpp:124] Setting up relu5_3
I0109 20:23:14.480814 34432 net.cpp:131] Top shape: 1 512 14 14 (100352)
I0109 20:23:14.480821 34432 net.cpp:139] Memory required for data: 115003404
I0109 20:23:14.480836 34432 layer_factory.hpp:77] Creating layer conv5_3_relu5_3_0_split
I0109 20:23:14.480844 34432 net.cpp:86] Creating Layer conv5_3_relu5_3_0_split
I0109 20:23:14.480849 34432 net.cpp:408] conv5_3_relu5_3_0_split <- conv5_3
I0109 20:23:14.480855 34432 net.cpp:382] conv5_3_relu5_3_0_split -> conv5_3_relu5_3_0_split_0
I0109 20:23:14.480875 34432 net.cpp:382] conv5_3_relu5_3_0_split -> conv5_3_relu5_3_0_split_1
I0109 20:23:14.480918 34432 net.cpp:124] Setting up conv5_3_relu5_3_0_split
I0109 20:23:14.480929 34432 net.cpp:131] Top shape: 1 512 14 14 (100352)
I0109 20:23:14.480933 34432 net.cpp:131] Top shape: 1 512 14 14 (100352)
I0109 20:23:14.480937 34432 net.cpp:139] Memory required for data: 115806220
I0109 20:23:14.480942 34432 layer_factory.hpp:77] Creating layer rpn_conv/3x3
I0109 20:23:14.480962 34432 net.cpp:86] Creating Layer rpn_conv/3x3
I0109 20:23:14.480969 34432 net.cpp:408] rpn_conv/3x3 <- conv5_3_relu5_3_0_split_0
I0109 20:23:14.480976 34432 net.cpp:382] rpn_conv/3x3 -> rpn/output
I0109 20:23:14.513392 34432 net.cpp:124] Setting up rpn_conv/3x3
I0109 20:23:14.513445 34432 net.cpp:131] Top shape: 1 512 14 14 (100352)
I0109 20:23:14.513449 34432 net.cpp:139] Memory required for data: 116207628
I0109 20:23:14.513461 34432 layer_factory.hpp:77] Creating layer rpn_relu/3x3
I0109 20:23:14.513473 34432 net.cpp:86] Creating Layer rpn_relu/3x3
I0109 20:23:14.513478 34432 net.cpp:408] rpn_relu/3x3 <- rpn/output
I0109 20:23:14.513487 34432 net.cpp:369] rpn_relu/3x3 -> rpn/output (in-place)
I0109 20:23:14.514061 34432 net.cpp:124] Setting up rpn_relu/3x3
I0109 20:23:14.514076 34432 net.cpp:131] Top shape: 1 512 14 14 (100352)
I0109 20:23:14.514091 34432 net.cpp:139] Memory required for data: 116609036
I0109 20:23:14.514096 34432 layer_factory.hpp:77] Creating layer rpn/output_rpn_relu/3x3_0_split
I0109 20:23:14.514104 34432 net.cpp:86] Creating Layer rpn/output_rpn_relu/3x3_0_split
I0109 20:23:14.514109 34432 net.cpp:408] rpn/output_rpn_relu/3x3_0_split <- rpn/output
I0109 20:23:14.514115 34432 net.cpp:382] rpn/output_rpn_relu/3x3_0_split -> rpn/output_rpn_relu/3x3_0_split_0
I0109 20:23:14.514123 34432 net.cpp:382] rpn/output_rpn_relu/3x3_0_split -> rpn/output_rpn_relu/3x3_0_split_1
I0109 20:23:14.514169 34432 net.cpp:124] Setting up rpn/output_rpn_relu/3x3_0_split
I0109 20:23:14.514179 34432 net.cpp:131] Top shape: 1 512 14 14 (100352)
I0109 20:23:14.514183 34432 net.cpp:131] Top shape: 1 512 14 14 (100352)
I0109 20:23:14.514187 34432 net.cpp:139] Memory required for data: 117411852
I0109 20:23:14.514190 34432 layer_factory.hpp:77] Creating layer rpn_cls_score
I0109 20:23:14.514204 34432 net.cpp:86] Creating Layer rpn_cls_score
I0109 20:23:14.514209 34432 net.cpp:408] rpn_cls_score <- rpn/output_rpn_relu/3x3_0_split_0
I0109 20:23:14.514216 34432 net.cpp:382] rpn_cls_score -> rpn_cls_score
I0109 20:23:14.516101 34432 net.cpp:124] Setting up rpn_cls_score
I0109 20:23:14.516119 34432 net.cpp:131] Top shape: 1 18 14 14 (3528)
I0109 20:23:14.516122 34432 net.cpp:139] Memory required for data: 117425964
I0109 20:23:14.516129 34432 layer_factory.hpp:77] Creating layer rpn_bbox_pred
I0109 20:23:14.516142 34432 net.cpp:86] Creating Layer rpn_bbox_pred
I0109 20:23:14.516151 34432 net.cpp:408] rpn_bbox_pred <- rpn/output_rpn_relu/3x3_0_split_1
I0109 20:23:14.516160 34432 net.cpp:382] rpn_bbox_pred -> rpn_bbox_pred
I0109 20:23:14.518108 34432 net.cpp:124] Setting up rpn_bbox_pred
I0109 20:23:14.518124 34432 net.cpp:131] Top shape: 1 36 14 14 (7056)
I0109 20:23:14.518139 34432 net.cpp:139] Memory required for data: 117454188
I0109 20:23:14.518146 34432 layer_factory.hpp:77] Creating layer rpn_cls_score_reshape
I0109 20:23:14.518158 34432 net.cpp:86] Creating Layer rpn_cls_score_reshape
I0109 20:23:14.518162 34432 net.cpp:408] rpn_cls_score_reshape <- rpn_cls_score
I0109 20:23:14.518168 34432 net.cpp:382] rpn_cls_score_reshape -> rpn_cls_score_reshape
I0109 20:23:14.518201 34432 net.cpp:124] Setting up rpn_cls_score_reshape
I0109 20:23:14.518221 34432 net.cpp:131] Top shape: 1 2 126 14 (3528)
I0109 20:23:14.518225 34432 net.cpp:139] Memory required for data: 117468300
I0109 20:23:14.518229 34432 layer_factory.hpp:77] Creating layer rpn_cls_prob
I0109 20:23:14.518235 34432 net.cpp:86] Creating Layer rpn_cls_prob
I0109 20:23:14.518239 34432 net.cpp:408] rpn_cls_prob <- rpn_cls_score_reshape
I0109 20:23:14.518247 34432 net.cpp:382] rpn_cls_prob -> rpn_cls_prob
I0109 20:23:14.518671 34432 net.cpp:124] Setting up rpn_cls_prob
I0109 20:23:14.518684 34432 net.cpp:131] Top shape: 1 2 126 14 (3528)
I0109 20:23:14.518698 34432 net.cpp:139] Memory required for data: 117482412
I0109 20:23:14.518702 34432 layer_factory.hpp:77] Creating layer rpn_cls_prob_reshape
I0109 20:23:14.518712 34432 net.cpp:86] Creating Layer rpn_cls_prob_reshape
I0109 20:23:14.518715 34432 net.cpp:408] rpn_cls_prob_reshape <- rpn_cls_prob
I0109 20:23:14.518721 34432 net.cpp:382] rpn_cls_prob_reshape -> rpn_cls_prob_reshape
I0109 20:23:14.518748 34432 net.cpp:124] Setting up rpn_cls_prob_reshape
I0109 20:23:14.518755 34432 net.cpp:131] Top shape: 1 18 14 14 (3528)
I0109 20:23:14.518759 34432 net.cpp:139] Memory required for data: 117496524
I0109 20:23:14.518762 34432 layer_factory.hpp:77] Creating layer proposal
I0109 20:23:14.519821 34432 net.cpp:86] Creating Layer proposal
I0109 20:23:14.519837 34432 net.cpp:408] proposal <- rpn_cls_prob_reshape
I0109 20:23:14.519843 34432 net.cpp:408] proposal <- rpn_bbox_pred
I0109 20:23:14.519847 34432 net.cpp:408] proposal <- im_info
I0109 20:23:14.519855 34432 net.cpp:382] proposal -> rois
I0109 20:23:14.520712 34432 net.cpp:124] Setting up proposal
I0109 20:23:14.520728 34432 net.cpp:131] Top shape: 1 5 (5)
I0109 20:23:14.520743 34432 net.cpp:139] Memory required for data: 117496544
I0109 20:23:14.520748 34432 layer_factory.hpp:77] Creating layer roi_pool5
I0109 20:23:14.520756 34432 net.cpp:86] Creating Layer roi_pool5
I0109 20:23:14.520761 34432 net.cpp:408] roi_pool5 <- conv5_3_relu5_3_0_split_1
I0109 20:23:14.520766 34432 net.cpp:408] roi_pool5 <- rois
I0109 20:23:14.520772 34432 net.cpp:382] roi_pool5 -> pool5
I0109 20:23:14.520781 34432 roi_pooling_layer.cpp:30] Spatial scale: 0.0625
I0109 20:23:14.520831 34432 net.cpp:124] Setting up roi_pool5
I0109 20:23:14.520841 34432 net.cpp:131] Top shape: 1 512 7 7 (25088)
I0109 20:23:14.520844 34432 net.cpp:139] Memory required for data: 117596896
I0109 20:23:14.520848 34432 layer_factory.hpp:77] Creating layer fc6
I0109 20:23:14.520856 34432 net.cpp:86] Creating Layer fc6
I0109 20:23:14.520869 34432 net.cpp:408] fc6 <- pool5
I0109 20:23:14.520876 34432 net.cpp:382] fc6 -> fc6
I0109 20:23:14.799131 34432 net.cpp:124] Setting up fc6
I0109 20:23:14.799192 34432 net.cpp:131] Top shape: 1 4096 (4096)
I0109 20:23:14.799196 34432 net.cpp:139] Memory required for data: 117613280
I0109 20:23:14.799226 34432 layer_factory.hpp:77] Creating layer relu6
I0109 20:23:14.799245 34432 net.cpp:86] Creating Layer relu6
I0109 20:23:14.799250 34432 net.cpp:408] relu6 <- fc6
I0109 20:23:14.799259 34432 net.cpp:369] relu6 -> fc6 (in-place)
I0109 20:23:14.802718 34432 net.cpp:124] Setting up relu6
I0109 20:23:14.802736 34432 net.cpp:131] Top shape: 1 4096 (4096)
I0109 20:23:14.802750 34432 net.cpp:139] Memory required for data: 117629664
I0109 20:23:14.802755 34432 layer_factory.hpp:77] Creating layer drop6
I0109 20:23:14.802765 34432 net.cpp:86] Creating Layer drop6
I0109 20:23:14.802769 34432 net.cpp:408] drop6 <- fc6
I0109 20:23:14.802778 34432 net.cpp:369] drop6 -> fc6 (in-place)
I0109 20:23:14.802806 34432 net.cpp:124] Setting up drop6
I0109 20:23:14.802812 34432 net.cpp:131] Top shape: 1 4096 (4096)
I0109 20:23:14.802815 34432 net.cpp:139] Memory required for data: 117646048
I0109 20:23:14.802819 34432 layer_factory.hpp:77] Creating layer fc7
I0109 20:23:14.802836 34432 net.cpp:86] Creating Layer fc7
I0109 20:23:14.802840 34432 net.cpp:408] fc7 <- fc6
I0109 20:23:14.802845 34432 net.cpp:382] fc7 -> fc7
I0109 20:23:14.848357 34432 net.cpp:124] Setting up fc7
I0109 20:23:14.848415 34432 net.cpp:131] Top shape: 1 4096 (4096)
I0109 20:23:14.848420 34432 net.cpp:139] Memory required for data: 117662432
I0109 20:23:14.848431 34432 layer_factory.hpp:77] Creating layer relu7
I0109 20:23:14.848444 34432 net.cpp:86] Creating Layer relu7
I0109 20:23:14.848449 34432 net.cpp:408] relu7 <- fc7
I0109 20:23:14.848456 34432 net.cpp:369] relu7 -> fc7 (in-place)
I0109 20:23:14.848943 34432 net.cpp:124] Setting up relu7
I0109 20:23:14.848958 34432 net.cpp:131] Top shape: 1 4096 (4096)
I0109 20:23:14.848960 34432 net.cpp:139] Memory required for data: 117678816
I0109 20:23:14.848964 34432 layer_factory.hpp:77] Creating layer drop7
I0109 20:23:14.848973 34432 net.cpp:86] Creating Layer drop7
I0109 20:23:14.848976 34432 net.cpp:408] drop7 <- fc7
I0109 20:23:14.848985 34432 net.cpp:369] drop7 -> fc7 (in-place)
I0109 20:23:14.849012 34432 net.cpp:124] Setting up drop7
I0109 20:23:14.849017 34432 net.cpp:131] Top shape: 1 4096 (4096)
I0109 20:23:14.849021 34432 net.cpp:139] Memory required for data: 117695200
I0109 20:23:14.849025 34432 layer_factory.hpp:77] Creating layer fc7_drop7_0_split
I0109 20:23:14.849033 34432 net.cpp:86] Creating Layer fc7_drop7_0_split
I0109 20:23:14.849037 34432 net.cpp:408] fc7_drop7_0_split <- fc7
I0109 20:23:14.849048 34432 net.cpp:382] fc7_drop7_0_split -> fc7_drop7_0_split_0
I0109 20:23:14.849056 34432 net.cpp:382] fc7_drop7_0_split -> fc7_drop7_0_split_1
I0109 20:23:14.849089 34432 net.cpp:124] Setting up fc7_drop7_0_split
I0109 20:23:14.849097 34432 net.cpp:131] Top shape: 1 4096 (4096)
I0109 20:23:14.849102 34432 net.cpp:131] Top shape: 1 4096 (4096)
I0109 20:23:14.849104 34432 net.cpp:139] Memory required for data: 117727968
I0109 20:23:14.849108 34432 layer_factory.hpp:77] Creating layer cls_score
I0109 20:23:14.849120 34432 net.cpp:86] Creating Layer cls_score
I0109 20:23:14.849124 34432 net.cpp:408] cls_score <- fc7_drop7_0_split_0
I0109 20:23:14.849133 34432 net.cpp:382] cls_score -> cls_score
I0109 20:23:14.849668 34432 net.cpp:124] Setting up cls_score
I0109 20:23:14.849678 34432 net.cpp:131] Top shape: 1 9 (9)
I0109 20:23:14.849681 34432 net.cpp:139] Memory required for data: 117728004
I0109 20:23:14.849687 34432 layer_factory.hpp:77] Creating layer bbox_pred
I0109 20:23:14.849694 34432 net.cpp:86] Creating Layer bbox_pred
I0109 20:23:14.849699 34432 net.cpp:408] bbox_pred <- fc7_drop7_0_split_1
I0109 20:23:14.849706 34432 net.cpp:382] bbox_pred -> bbox_pred
I0109 20:23:14.851464 34432 net.cpp:124] Setting up bbox_pred
I0109 20:23:14.851475 34432 net.cpp:131] Top shape: 1 36 (36)
I0109 20:23:14.851478 34432 net.cpp:139] Memory required for data: 117728148
I0109 20:23:14.851485 34432 layer_factory.hpp:77] Creating layer cls_prob
I0109 20:23:14.851496 34432 net.cpp:86] Creating Layer cls_prob
I0109 20:23:14.851501 34432 net.cpp:408] cls_prob <- cls_score
I0109 20:23:14.851506 34432 net.cpp:382] cls_prob -> cls_prob
I0109 20:23:14.853961 34432 net.cpp:124] Setting up cls_prob
I0109 20:23:14.853977 34432 net.cpp:131] Top shape: 1 9 (9)
I0109 20:23:14.853981 34432 net.cpp:139] Memory required for data: 117728184
I0109 20:23:14.853986 34432 net.cpp:202] cls_prob does not need backward computation.
I0109 20:23:14.853991 34432 net.cpp:202] bbox_pred does not need backward computation.
I0109 20:23:14.853994 34432 net.cpp:202] cls_score does not need backward computation.
I0109 20:23:14.853998 34432 net.cpp:202] fc7_drop7_0_split does not need backward computation.
…
